Deep Learning/tflite/sound_detection.tflite (tflite, 238508 bytes, 12 tensors)

sequential_41/conv2d_132/BiasAdd/ReadVariableOp/resource f4 [32]
0	0xbb43b023	-0.0029859624
1	0x3ad31c83	0.001610652
2	0x3b819260	0.003954217
3	0xbc8c668c	-0.017138742
4	0x3c48ae19	0.012248539
5	0xbcaf2caf	-0.021383611
6	0x3bf3d24c	0.007440841
7	0xbc634f47	-0.013873882
8	0x3cce8ecc	0.025214575
9	0x3a85b3b3	0.0010200649
10	0x3cfc8361	0.030824365
11	0xbc946064	-0.018112369
12	0xb8ce1514	-9.8267716e-05
13	0x3c304f99	0.010761165
14	0x3b9bcf63	0.004754947
15	0x3c068935	0.008211424
16	0x3c246c2d	0.010035557
17	0x3c3be883	0.011469009
18	0xbc872e84	-0.016501673
19	0x3cf8fb87	0.030393375
20	0x3bfe32f5	0.0077575394
21	0xbcdd8189	-0.027039306
22	0xbc1fad63	-0.009745928
23	0x3c9cebe4	0.01915545
24	0x3c3bdf96	0.011466881
25	0xbc59a65d	-0.013284293
26	0x3b9ab481	0.004721225
27	0x3c3be3b8	0.011467867
28	0x3aff1655	0.0019461612
29	0x3c61ddfe	0.013785837
30	0xbc741cc3	-0.014899435
31	0x3bfee779	0.0077790585

sequential_41/conv2d_133/BiasAdd/ReadVariableOp/resource f4 [16]
0	0x3c3b6a8e	0.011438979
1	0xbcb529f3	-0.02211473
2	0xbbf8679a	-0.0075807096
3	0xbbc956c7	-0.006144378
4	0x3c75aa27	0.014994181
5	0x3b6a774f	0.003577668
6	0xbbdd920e	-0.006761796
7	0xbc8b6608	-0.017016426
8	0x3ca04e88	0.019568697
9	0xbc1dc924	-0.009630475
10	0xbc347fab	-0.011016767
11	0xbba8a087	-0.0051460895
12	0xbbbe59b2	-0.0058090324
13	0xbb099768	-0.0020994786
14	0x3c8f53ea	0.017496068
15	0x3bf9a39c	0.0076183807

sequential_41/conv2d_134/BiasAdd/ReadVariableOp/resource f4 [16]
0	0x3c6c1700	0.0144097805
1	0x3a4a5772	0.0007718719
2	0x3cb84764	0.02249498
3	0xbbd540e8	-0.0065079816
4	0xbb2f0a4a	-0.0026709014
5	0x3c7696c3	0.015050593
6	0x3d1a38ae	0.03765171
7	0xbc8144db	-0.015779903
8	0x3c34a995	0.01102676
9	0x3bcb859d	0.0062109963
10	0x3bd398a2	0.0064574042
11	0x3b8021b2	0.003910267
12	0x3ba51235	0.005037571
13	0xbc364d2b	-0.011126797
14	0x3be3964c	0.006945407
15	0x3a8ccbdd	0.0010741908

sequential_41/dense_87/BiasAdd/ReadVariableOp/resource f4 [64]
0	0x3c84ba90	0.016202241
1	0x3a638c47	0.0008680266
2	0xba59b9d4	-0.00083055836
3	0xba59157d	-0.0008281095
4	0x3c89f2cb	0.016839406
5	0xbc237dff	-0.00997877
6	0xb9e6927c	-0.00043978158
7	0xbc061acc	-0.0081851
8	0xbb9a316f	-0.0047056
9	0xbb8fbee6	-0.0043867705
10	0x3c1d0d99	0.009585761
11	0x3c868671	0.016421529
12	0x3c376950	0.011194542
13	0x3c0625d2	0.008187728
14	0x3b086928	0.002081463
15	0x3bc72f6d	0.0060786516
16	0x3bf599b0	0.0074951276
17	0x3bebedb7	0.0071999687
18	0xbbe32942	-0.0069324085
19	0xbbbbc65a	-0.0057304325
20	0xbbcc753f	-0.0062395628
21	0x3b989c06	0.0046572713
22	0x3b1beae3	0.0023791126
23	0x3c1a588b	0.009420524
24	0x3b1544da	0.0022776634
25	0xbc103736	-0.008802226
26	0x3b3626aa	0.0027794042
27	0xbbd9be06	-0.006644967
28	0xbaf0f13b	-0.0018382439
29	0x3c5d3911	0.013502375
30	0xbb62bd14	-0.0034597563
31	0x3be19949	0.006884728
32	0x3c81ac54	0.015829243
33	0xba70a011	-0.0009179125
34	0x3c49142e	0.012272878
35	0x3c847873	0.016170716
36	0x3c454973	0.012041437
37	0xbab27cc2	-0.0013617503
38	0xb8445cae	-4.6816356e-05
39	0x3a9e1cc6	0.0012063019
40	0x3bf86092	0.0075798715
41	0xbc33c471	-0.010972128
42	0x3bec17b5	0.0072049745
43	0xbbc2104d	-0.0059223534
44	0xbacbce02	-0.0015549066
45	0x3c739ac1	0.014868439
46	0xbb5e66d3	-0.00339358
47	0x3c143725	0.009046351
48	0x3c74b17c	0.014934894
49	0xbbd892fa	-0.006609318
50	0x3c2dacd3	0.010600287
51	0xbc00992d	-0.00784902
52	0xbadc23d3	-0.0016795344
53	0xbb9642ae	-0.0045855856
54	0xb8c95f2c	-9.602154e-05
55	0x3cb0cc8c	0.02158191
56	0x3b5cd520	0.0033696368
57	0x3cef1ecf	0.029189495
58	0xbb90734f	-0.004408277
59	0xbc0d372e	-0.008619113
60	0xbbdf8148	-0.0068208314
61	0xbbd888a8	-0.0066080876
62	0x3c069824	0.008214984
63	0x3b818611	0.0039527495

sequential_41/dense_88/BiasAdd/ReadVariableOp/resource f4 [16]
0	0x3c005ceb	0.007834653
1	0xbc30bd96	-0.010787388
2	0xba9c590f	-0.0011928397
3	0x3c708876	0.014680972
4	0xbbac7b15	-0.005263696
5	0x3c8bc860	0.01706332
6	0xbba691c9	-0.005083297
7	0x3c4b9f3d	0.012428102
8	0x3a8d2144	0.001076736
9	0x38fbe4ca	0.00012011228
10	0xbc4bf4cd	-0.012448502
11	0xbbf3ec40	-0.0074439347
12	0x3c15fe21	0.009154827
13	0x3cb63ccd	0.022245789
14	0xbc049dcb	-0.008094261
15	0xbc919020	-0.01776892

sequential_41/dense_89/BiasAdd/ReadVariableOp/resource f4 [4]
0	0x3bf9c4f8	0.0076223575
1	0xbb9bea1b	-0.004758132
2	0xbcb1dae0	-0.021710813
3	0x3c85f9b2	0.016354416

sequential_41/dense_87/MatMul f4 [64, 784]
0	0x3dd8fd0e	0.10595141
1	0xbd3ba841	-0.045814756
2	0xbd79994b	-0.060937207
3	0x3cf4d602	0.029887203
4	0xbd88a597	-0.06672209
5	0xbd1a641d	-0.03769313
6	0x3bf4bb66	0.0074686287
7	0x3d99f8a8	0.075181305
8	0x3dc1dec1	0.09466315
9	0x3cf27e8f	0.029601363
10	0x3d2413ca	0.040057935
11	0xbd4fcdbc	-0.050733313
12	0xbcff695e	-0.031178173
13	0x3cf84aa2	0.030309025
14	0xbd5b2bea	-0.053508677
15	0x3d790a9f	0.060801145
16	0xbd0541f3	-0.032533597
17	0x3cdd7dd6	0.027037542
18	0x3da239be	0.0792117
19	0xbd70ceaf	-0.05879086
20	0x3ac28715	0.0014841283
21	0xbd19e4a7	-0.037571575
22	0xba198402	-0.00058561575
23	0xbd07d7d0	-0.0331648
24	0x3dc7700b	0.097381674
25	0xbd3b61ad	-0.045747448
26	0xbd289bff	-0.041164394
27	0x3d50c51e	0.050969236
28	0xbd9c2f6e	-0.07626234
29	0x3db08ab7	0.08620208
30	0x3ae01b21	0.0017097929
31	0x3c7bcdae	0.015368862
32	0xbd74f4b7	-0.05980369
33	0x3d7134be	0.05888819
34	0x3cbd7a30	0.023129553
35	0x3df49bf8	0.11943811
36	0x3d558564	0.052129164
37	0x3ce423d9	0.027849125
38	0x3db80041	0.089844234
39	0xbd8f58c8	-0.069993556
40	0x3d8c7285	0.0685778
41	0xbd79c895	-0.060982306
42	0x3d4cb007	0.04997256
43	0x3d9b2911	0.07576192
44	0xbd8818d4	-0.066453606
45	0x3dab7eb4	0.08373776
46	0xbbd2c80c	-0.006432539
47	0xbbbfc4f3	-0.0058523356
48	0x3cb0c0ce	0.021576311
49	0xbb4b64ea	-0.0031035491
50	0x3da78a37	0.08180659
51	0xbc0b5e08	-0.0085063055
52	0xbc9cd3bd	-0.019143933
53	0x3d58f792	0.052970476
54	0xbb3ca0a9	-0.0028782284
55	0x3d32dd4e	0.043668084
56	0x3d15d3ff	0.03657913
57	0xbcd2df53	-0.025741255
58	0x3c533195	0.012890239
59	0xbd53fb9f	-0.051753636
60	0x3c49878f	0.012300386
61	0xbc590dfc	-0.013247963
62	0x3d9ffca5	0.0781186
63	0x3d2bee52	0.041975327
64	0x3da192d8	0.07889336
65	0x3da66970	0.08125579
66	0x3d931453	0.07181611
67	0x3d6d1d08	0.057889014
68	0xbcf0d2d7	-0.029397411
69	0xbd48c471	-0.049015466
70	0x3d31276d	0.04325049
71	0xbd4badc5	-0.049726266
72	0xbd53eb93	-0.051738333
73	0xbd124a17	-0.03571519
74	0x3d9ef8de	0.077623114
75	0x3db110bd	0.08645771
76	0xbc014e6b	-0.007892231
77	0xbd50514b	-0.050858777
78	0x3d82a20f	0.063785665
79	0x3d9c1a2e	0.07622181
80	0x3d812655	0.063061394
81	0x3daa7f27	0.08325034
82	0x3d15015d	0.036378253
83	0x3b899e9e	0.004199817
84	0xbc85ea94	-0.016347207
85	0x3ccbd97f	0.024883984
86	0x3d6c3f5f	0.057677623
87	0x3d7d60f0	0.061860025
88	0xbcaefcb7	-0.021360738
89	0x3cc99577	0.024607403
90	0xbd16b256	-0.03679117
91	0x3d83dffa	0.064392045
92	0x3c97a443	0.018510943
93	0x3d833d78	0.064082086
94	0x3c97db76	0.018537264
95	0x3dc6a453	0.09699311
96	0x3d55b33f	0.052172896
97	0x3d9b8f99	0.075957485
98	0x3d341e49	0.043974195
99	0x3d68efd7	0.056869354
100	0xbc14bbe8	-0.0090780035
101	0x3d476759	0.048682544
102	0xbd5326a6	-0.05155053
103	0x3ca7f83d	0.020504111
104	0x3d039b39	0.032130454
105	0xbd2e1442	-0.042499788
106	0xbd2d3e06	-0.04229548
107	0xbd8a7810	-0.06761181
108	0xbcedb165	-0.029015252
109	0x3d93ddaa	0.072200134
110	0xbd7e9104	-0.062150016
111	0xbc58d508	-0.013234384
112	0x3c50c599	0.012742423
113	0xbadf0743	-0.0017015714
114	0x3cdfe6ff	0.027331827
115	0xbda11036	-0.0786442
116	0x3c0b5f14	0.008506555
117	0xbd48e81e	-0.04904949
118	0xbdbf5cde	-0.09343885
119	0x3ca4686a	0.02006932
120	0x3d62b311	0.055346552
121	0x3da5152c	0.08060679
122	0xbbcddc45	-0.0062823617
123	0xbc722492	-0.014779227
124	0xbd0817d8	-0.033225864
125	0x3d65e2bd	0.056124438
126	0x3d48c136	0.049012385
127	0x3d5b3b11	0.053523127
128	0x3daac857	0.08338993
129	0x3d4bee4d	0.04978781
130	0x3daea19a	0.08526917
131	0xbcda427b	-0.026643028
132	0x3cc97f39	0.024596797
133	0xbcdc5d5e	-0.02689999
134	0xbdc4ae8f	-0.09603607
135	0xbab1ac65	-0.0013555406
136	0xbc6db5f0	-0.014508709
137	0x3d54dbd2	0.05196745
138	0xbd954831	-0.0728916
139	0xbae31e64	-0.0017327783
140	0x3c2fc9df	0.010729282
141	0x3d0a5a09	0.03377727
142	0x3db9b6ee	0.09068094
143	0xbaaa372a	-0.0012986411
144	0x3ca55172	0.020180438
145	0x3bf47072	0.0074596936
146	0x3d73aefc	0.05949305
147	0xbb62934d	-0.0034572661
148	0x3dc5e0a6	0.09661989
149	0x3ce0c209	0.027436273
150	0x3c0d1980	0.008612037
151	0xbb2a4f3e	-0.0025987173
152	0x3d7c85e4	0.061651126
153	0xbc78f38e	-0.015194787
154	0xbd024358	-0.031802505
155	0xbd1e2a8e	-0.038614802
156	0xbd3a98de	-0.04555594
157	0x3c48f12e	0.012264533
158	0x3ccb1f00	0.024795055
159	0xbd4a0d95	-0.04932936
160	0x3d82d89b	0.063889705
161	0x3da8cfea	0.082427815
162	0xbb83d720	-0.0040234476
163	0xbdae4976	-0.08510105
164	0x3d99331d	0.07480452
165	0xbc8688c6	-0.01642264
166	0xbc92064e	-0.017825272
167	0xbc8a563f	-0.016886828
168	0xbd98a50b	-0.074533544
169	0x3d96530c	0.07340059
170	0xba8a9720	-0.0010573603
171	0xbbf85f9d	-0.0075797574
172	0xbd58e2eb	-0.05295078
173	0x3d2624be	0.040562384
174	0xbcc01dda	-0.023451734
175	0x3c3449ac	0.011003893
176	0x3b8ea059	0.004352611
177	0xbd79e1ee	-0.06100648
178	0x3da33a1b	0.07970067
179	0xbcbb7ffa	-0.022888172
180	0xbcb9ade6	-0.022665929
181	0xbd5257c8	-0.051353246
182	0x3c4af194	0.012386698
183	0x3d9303a3	0.07178428
184	0xbbebf945	-0.007201346
185	0xbdb02f83	-0.08602812
186	0xbc0a0ac4	-0.008425418
187	0x3d2dfb81	0.04247618
188	0x3d376c6a	0.044781126
189	0x3d001d77	0.0312781
190	0xbc5a8498	-0.013337277
191	0xbd84117a	-0.06448646
192	0xbd8b4013	-0.067993306
193	0xbd7ccc99	-0.061718557
194	0xbd524d44	-0.051343217
195	0xbd81d545	-0.06339506
196	0xbc6f772f	-0.014615818
197	0xbade3b8a	-0.0016955
198	0x3d697903	0.05700017
199	0x3c999fcb	0.018752953
200	0xbd4b2ea4	-0.049605027
201	0x3db9d107	0.09073072
202	0xbd6f2a9d	-0.05839025
203	0x3d4807a3	0.048835408
204	0xbc9b6e9b	-0.01897364
205	0x3da17fe3	0.078857206
206	0xbd506a04	-0.050882354
207	0xbc653ff1	-0.013992296
208	0xbc824223	-0.015900677
209	0xbcb719dc	-0.022351198
210	0x3d5336fa	0.0515661
211	0xbda53882	-0.08067419
212	0x3cdc54dc	0.026895933
213	0x3dcbc4cb	0.09949645
214	0x3d20d8e9	0.03926936
215	0x3c02664e	0.007958962
216	0xbd6454b6	-0.05574485
217	0x3dce4db5	0.10073415
218	0xbae551b7	-0.0017495666
219	0x3d9371c0	0.071994305
220	0x3ce9dcc0	0.028547645
221	0x3d0abddb	0.033872467
222	0x3c80a181	0.015702011
223	0x3d0a7b14	0.033808783
224	0x3d2c7a3a	0.04210875
225	0x3db6d787	0.08927827
226	0x3d69f286	0.057116054
227	0xbc9282ca	-0.01788463
228	0x3d529a4f	0.05141669
229	0xbd4242a4	-0.047426835
230	0x3da9a2bc	0.08282992
231	0xbd814375	-0.063116945
232	0x3cc485a9	0.023989515
233	0x3d7f2a0d	0.062295962
234	0x3c3faa28	0.011698283
235	0x3d2251d4	0.03962882
236	0xbd19b480	-0.037525654
237	0xbcb3d85e	-0.021953758
238	0xbd842dc0	-0.064540386
239	0xbd65e5fb	-0.05612753
240	0xbd6677ce	-0.0562666
241	0xbd68e7bd	-0.056861628
242	0xbc3f5936	-0.011678984
243	0xbd9492b0	-0.07254541
244	0xbd8f1837	-0.069870405
245	0x3d8ba27a	0.06818099
246	0xbbdf5723	-0.0068158074
247	0xbd2439c1	-0.04009414
248	0x3d2ca83a	0.04215262
249	0xbd6ebec5	-0.0582874
250	0x3d995599	0.074870296
251	0xbd26f1c2	-0.040757902
252	0xbd23f45b	-0.040027957
253	0xbd114e48	-0.035475045
254	0xbcdd7fbf	-0.027038453
255	0x3c1a238d	0.00940789

sequential_41/dense_88/MatMul f4 [16, 64]
0	0x3df23ec3	0.11828377
1	0x3e579c32	0.21055678
2	0x3e92a86e	0.28644127
3	0xba4237bc	-0.0007408818
4	0xbe75f7e9	-0.24020351
5	0x3e476663	0.19472651
6	0xbde71140	-0.11282587
7	0xbcceedc7	-0.025259865
8	0x3e0a879c	0.13528293
9	0xbde791de	-0.11307119
10	0x3d0670ee	0.032822542
11	0x3e47e7f9	0.19522084
12	0xbdc04f89	-0.0939017
13	0xbaa41856	-0.001251946
14	0xbe8dab60	-0.2766981
15	0xbe2d21e6	-0.16907462
16	0xbe0530b7	-0.13006864
17	0x3e3c3ab5	0.1838177
18	0xbe216966	-0.15762863
19	0xbe573571	-0.2101648
20	0x3e862957	0.26203415
21	0x3d804f2d	0.062651016
22	0xbe1d71d7	-0.15375458
23	0x3e07e4e4	0.13270909
24	0x3e6b2ded	0.22966738
25	0x3c2bd403	0.010487559
26	0xbe89d9d7	-0.2692401
27	0x3d96f145	0.07370237
28	0xbdeb2aa3	-0.11482742
29	0x3cdec3bc	0.027192943
30	0x3d71b98e	0.05901485
31	0xbac7b77e	-0.001523718
32	0x3e745ae7	0.23862801
33	0x3ddf04ce	0.10889588
34	0x3e35157e	0.1768398
35	0x3e679099	0.22613753
36	0x3d6a8c5e	0.05726277
37	0xbe60b089	-0.21942343
38	0xbabab11b	-0.0014243455
39	0x3e7b729f	0.24555443
40	0xbde2262d	-0.11042438
41	0xbe6bae5c	-0.23015732
42	0x3d9344cf	0.071908586
43	0xbe5170a1	-0.20453121
44	0xbe6c9ad0	-0.23105931
45	0xbe5ac00e	-0.21362326
46	0x3e36e1c5	0.17859562
47	0xbe2b9512	-0.16756085
48	0x3e214555	0.15749104
49	0xbba19a41	-0.0049317186
50	0x3de50b7e	0.111838326
51	0xbe019dd2	-0.1265786
52	0x3d18c093	0.037293028
53	0xbe8e336b	-0.27773604
54	0x3e506863	0.2035232
55	0x3e9816e2	0.29704958
56	0x3e0f4642	0.13991645
57	0xbd5af5ba	-0.053457
58	0xbe543e5b	-0.20726912
59	0xbdb0bb84	-0.08629516
60	0xbe3f2d7b	-0.18669693
61	0xbe821a1f	-0.25410554
62	0xbdf74458	-0.120735824
63	0xbd8c91c4	-0.0686374
64	0xbe47a074	-0.19494802
65	0x3e7e7f42	0.24853233
66	0x3d7f94cb	0.06239776
67	0x3dbb2a5e	0.0913894
68	0x3e3b1326	0.18269023
69	0xbe2e8af1	-0.1704519
70	0xbd89cffa	-0.067291215
71	0x3e76a68e	0.24086973
72	0x3e10be8a	0.14135185
73	0x3e0f45b5	0.13991435
74	0x3c84cef5	0.016211966
75	0xbd143bdb	-0.036189895
76	0x3dbbf75f	0.09178042
77	0xbdc97bb0	-0.09838045
78	0x3e100c03	0.14067082
79	0x3d9ed355	0.07755152
80	0xbe58f30a	-0.21186462
81	0x3e72f3f6	0.23725876
82	0x3e72b748	0.23702729
83	0x3dcbb1bd	0.0994601
84	0xbd5524c0	-0.052037
85	0x3e1c9ddb	0.15294592
86	0xbe8306fd	-0.2559127
87	0x3df744b1	0.12073649
88	0x3e491332	0.19636229
89	0x3e3b3a60	0.18283987
90	0x3e3c901e	0.18414351
91	0x3df86662	0.12128903
92	0xbd447356	-0.047961555
93	0xbe5976c6	-0.21236715
94	0xbe44ed2b	-0.19231097
95	0xbe1d2de5	-0.15349539
96	0x3c0dc7ad	0.008653563
97	0x3e839bb3	0.25704727
98	0xbe11e284	-0.14246565
99	0xbd87c07f	-0.066285126
100	0xbd0cf537	-0.034413543
101	0xbe12328b	-0.14277093
102	0x3d8642d2	0.06555714
103	0x3e3a19d1	0.1817391
104	0x3e8401d5	0.25782648
105	0x3e328ede	0.17437312
106	0xbe4c1b9a	-0.19932404
107	0x3e903345	0.28164116
108	0x3d8e9aae	0.069630966
109	0xbdc8cb9d	-0.09804461
110	0x3e1ae1c1	0.15125181
111	0xbe593b74	-0.21214086
112	0xbd8675dc	-0.06565449
113	0x3cd91a8f	0.026501922
114	0xbe549a02	-0.20761874
115	0x3e81f433	0.25381622
116	0xbe709cd5	-0.23497327
117	0x3dbcd291	0.0921985
118	0x3e5db829	0.21652283
119	0x3d5c00a5	0.053711552
120	0xbcb3f41d	-0.021966988
121	0xbd495ad6	-0.049158894
122	0x3e370fd9	0.17877139
123	0xbcc37d67	-0.023863507
124	0xbd8525b2	-0.065013304
125	0x3e849f4c	0.25902784
126	0xbe864301	-0.26222995
127	0x3e70b690	0.23507142
128	0x3e83716d	0.25672475
129	0xbdd5bfc4	-0.10436967
130	0x3e048068	0.12939608
131	0xbe4c858a	-0.19972816
132	0x3d5b1a3d	0.05349182
133	0xbdb166d4	-0.08662191
134	0xbe09bb17	-0.13450275
135	0xbdff341c	-0.12461111
136	0x3dc26d26	0.09493475
137	0x3e1be2fa	0.15223303
138	0xbe87cbe3	-0.2652274
139	0xbe6d3a63	-0.23166804
140	0xbe44de40	-0.19225407
141	0x3e831dc2	0.2560864
142	0x3e826816	0.25470036
143	0x3b189236	0.0023280508
144	0xbca37888	-0.019954935
145	0x3d65dd2b	0.056119125
146	0xbdf9b5f2	-0.121929064
147	0xbd257448	-0.040394098
148	0x3e8d592d	0.27607098
149	0xbd1edadd	-0.038782943
150	0xbe80ed9c	-0.25181282
151	0xbe6137d1	-0.21993949
152	0x3ddc94c7	0.107705645
153	0xbe823633	-0.25431976
154	0xbe5c7ce8	-0.21532023
155	0x3e115b7a	0.14195052
156	0x3de6f0c1	0.11276389
157	0x3e499bc9	0.19688334
158	0xbe79bfc0	-0.24389553
159	0xbe0854fa	-0.13313666
160	0xbd2d833d	-0.042361487
161	0x3e510a80	0.20414162
162	0x3e7b07b8	0.24514663
163	0xbe576c87	-0.21037494
164	0x3d0c71ec	0.034288332
165	0xbe4bca03	-0.1990128
166	0x3e0e4d1c	0.13896602
167	0xbe902fe4	-0.28161538
168	0xbe62de6b	-0.22155158
169	0x3e409282	0.18805888
170	0xbe197272	-0.14985064
171	0x3e86484d	0.26227036
172	0x3db270da	0.08712931
173	0xbd80d1fc	-0.06290051
174	0xbdc0ab1e	-0.09407638
175	0x3c58e8a6	0.013239061
176	0x3e1d475e	0.15359256
177	0xbe728d74	-0.23686773
178	0xbe631fb5	-0.22180064
179	0xbe8a5297	-0.27016136
180	0x3e547952	0.20749405
181	0x3ddaa29c	0.106755465
182	0xbdee5091	-0.116364606
183	0xbe8ceda8	-0.27525067
184	0x3e3d8f3f	0.18511675
185	0x3d2e11dd	0.042497505
186	0xbdbf23ae	-0.09332977
187	0xbadceabd	-0.0016854625
188	0xbd389113	-0.04506023
189	0x3e148e88	0.14507496
190	0x3dab7257	0.08371418
191	0x3e0972c9	0.13422693
192	0xbe582e71	-0.21111466
193	0x3e0a6fdb	0.13519232
194	0x3e45bf27	0.193112
195	0xbdb714ec	-0.089395374
196	0x3e6b9f52	0.23009995
197	0x3e824b96	0.25448292
198	0xbe677668	-0.22603762
199	0x3e44ab43	0.19205956
200	0xbd91984b	-0.07109126
201	0xbe8c7eea	-0.27440578
202	0xbdbd0387	-0.092291884
203	0x3e33c5eb	0.17555968
204	0x3c882334	0.016618349
205	0x3d23baf0	0.0399732
206	0x3d50f670	0.05101627
207	0xbc2f066a	-0.010682682
208	0x3e1fdd05	0.15611656
209	0xbc3d816e	-0.011566503
210	0xbdc1d558	-0.0946452
211	0x3e23e052	0.1600354
212	0xbe8b9991	-0.272656
213	0x3ddd6c1d	0.108116366
214	0x3e2e8724	0.1704374
215	0xbdf2031f	-0.118170016
216	0x3da49c01	0.08037568
217	0x3b8bb4f9	0.004263517
218	0xbdb4ad73	-0.08822145
219	0x3e15a7bb	0.14614765
220	0xbdf81aa9	-0.1211446
221	0xbe83f387	-0.25771734
222	0xbdfc64ed	-0.123239376
223	0x3abe80e9	0.0014534268
224	0xbcc36e99	-0.023856448
225	0x3c20e9ad	0.009821338
226	0xbd7594f7	-0.059956517
227	0x3e2d9673	0.16951923
228	0x3e5f82b7	0.21827208
229	0x3d6f7bfc	0.05846785
230	0x3e16e45c	0.1473555
231	0xbe30c28e	-0.17261717
232	0xbe2d773a	-0.16940013
233	0x3d9e761a	0.0773737
234	0xbe23e621	-0.16005756
235	0xbe7f25fc	-0.24916834
236	0x3e31ae62	0.17351678
237	0xbc48c715	-0.012254496
238	0xbe1273af	-0.14301942
239	0xbe4143af	-0.18873475
240	0x3e60a200	0.21936798
241	0xbd874f38	-0.06606907
242	0x3e3b8104	0.18310934
243	0xbb9ac0da	-0.0047226967
244	0xbd91b2b8	-0.07114166
245	0xbe63b3a9	-0.22236504
246	0x3d87349c	0.06601831
247	0xbb3b83dc	-0.002861253
248	0x3afb6c2d	0.0019182019
249	0xbdc91fc7	-0.09820514
250	0xbe2d091b	-0.16898005
251	0x3e3a207b	0.18176453
252	0x3d5b74f7	0.053578343
253	0x3e0d5b8e	0.13804457
254	0x3e5a31ad	0.21308012
255	0x3e040188	0.12891209

sequential_41/dense_89/MatMul f4 [4, 16]
0	0x3d9b0f9e	0.07571338
1	0xbe99fc51	-0.30075315
2	0xbe3910ad	-0.18072768
3	0x3ecf1cc7	0.40451643
4	0xbe253d28	-0.1613661
5	0xbeaa5c46	-0.33273524
6	0xbeb2951a	-0.3487938
7	0x3dc01d1f	0.093805544
8	0xbe42e569	-0.19032826
9	0xbed6c5bb	-0.4194773
10	0x3eb66c0a	0.35629302
11	0x3dcd92d8	0.10037774
12	0xbf0ce01e	-0.55029476
13	0x3e006fcb	0.12542646
14	0xbeee92eb	-0.46596465
15	0x3d9a9d1f	0.075495
16	0x3f0872ac	0.53299975
17	0xbe8ce50e	-0.27518505
18	0x3df3c23d	0.119022824
19	0x3f08b71f	0.5340442
20	0x3d8582df	0.06519102
21	0xbede3925	-0.43402973
22	0xbe87554f	-0.26432273
23	0xbef22260	-0.4729185
24	0x3e4c53b2	0.19953802
25	0x3eb0ff5f	0.34569833
26	0x3e348917	0.1763042
27	0x3f01e408	0.50738573
28	0x3f0093b1	0.5022536
29	0x3d389358	0.045062393
30	0x3ef53d4f	0.47898337
31	0xbe3c3439	-0.18379296
32	0x3ea774e6	0.32706374
33	0x3e9a49e1	0.3013449
34	0x3e2b1836	0.16708454
35	0x3e99dae7	0.30049822
36	0xbe78716f	-0.24262021
37	0xbf03e732	-0.5152465
38	0x3ed35597	0.41276237
39	0xbeaa5fcb	-0.3327621
40	0x3e9851d3	0.29749927
41	0xbea61946	-0.32441157
42	0x3e93ad9f	0.288434
43	0xbd53c5ef	-0.051702436
44	0x3e85bbfe	0.2611999
45	0xbe8c2968	-0.2737534
46	0xbe23d1b6	-0.15997967
47	0x3f004037	0.50097984
48	0x3edf805e	0.43652624
49	0xbefbf6f1	-0.4921184
50	0x3ec2fc50	0.38083124
51	0x3ed9000e	0.42382854
52	0xbf0b6d25	-0.54463416
53	0xbd96f137	-0.07370227
54	0x3c9f8f53	0.019477522
55	0xbe1e6ac9	-0.15470423
56	0x3ea3c42f	0.31985614
57	0x3e60f924	0.2197004
58	0x3def1211	0.11673368
59	0xbd984bd3	-0.07436337
60	0x3da5975b	0.080855094
61	0x3e6d765d	0.23189683
62	0xbe6a56b3	-0.22884636
63	0xbe880270	-0.2656436

sequential_41/conv2d_132/Conv2D f4 [32, 3, 3, 1]
0	0x3ce167be	0.027515288
1	0xbdd5fa43	-0.10448124
2	0xbd89853d	-0.06714866
3	0x3e245153	0.16046648
4	0xbd9f1666	-0.07767944
5	0x3da1b16f	0.07895171
6	0x3d9237c6	0.07139544
7	0x3cab79ee	0.020932164
8	0x3cde111f	0.027107773
9	0xbc8e1e65	-0.017348478
10	0xbdda20cd	-0.106507875
11	0x3da7bdbf	0.08190488
12	0x3d49a5a3	0.04923023
13	0x3b991c92	0.0046725953
14	0xbd6a1d20	-0.057156682
15	0xbd63ecf7	-0.05564591
16	0xbe0efe96	-0.13964304
17	0xbe04e319	-0.12977256
18	0xbd0c98b8	-0.03432533
19	0x3cfae3af	0.030626146
20	0x3d8c0ee0	0.06838775
21	0xbdf8bc1e	-0.121452555
22	0x3cc88dd0	0.024481684
23	0xbd10352c	-0.03520696
24	0x3c9f61f8	0.019455895
25	0x3d98dc29	0.07463867
26	0x3d32a97b	0.04361866
27	0x3d9cda7e	0.076588616
28	0xbdccf105	-0.10006908
29	0x3e193cac	0.1496455
30	0xbdd9a52c	-0.10627207
31	0xbd8f804e	-0.07006894
32	0xba297091	-0.0006463612
33	0xbd346072	-0.04403729
34	0x3c220403	0.009888652
35	0x3d0c5d85	0.034268875
36	0x3d54cdec	0.051954195
37	0xbd895b9f	-0.067069285
38	0x3d451f3b	0.048125487
39	0xbe21e0c0	-0.15808392
40	0xbd82cb7a	-0.06386466
41	0xbc839ced	-0.016066039
42	0x3d48ff63	0.04907168
43	0x3d86001e	0.06542991
44	0x3ce04389	0.027375953
45	0x3ca08dcf	0.01959887
46	0xbdc3e5af	-0.09565293
47	0x3cf6a2b2	0.030106876
48	0x3d5e078b	0.054206412
49	0x3d826bbf	0.06368207
50	0xbdf5e33b	-0.120062314
51	0x3d35eb7e	0.044414036
52	0x3df0a833	0.117508315
53	0xbd2d516a	-0.04231397
54	0x3dfe0f35	0.12405244
55	0x3e03ef79	0.1288432
56	0x3d884d83	0.06655409
57	0x3d39e43f	0.045383688
58	0xbdc08011	-0.09399427
59	0x3d796356	0.06088575
60	0x3c6060ac	0.013694923
61	0x3dda1985	0.10649399
62	0x3df63dde	0.12023519
63	0x3d8f0c8c	0.06984815
64	0x3da1e508	0.07905012
65	0xbd41723d	-0.047228087
66	0x3d4566ab	0.048193615
67	0x3d840f6f	0.06448256
68	0x3dea28ea	0.11433585
69	0x3d1e40dc	0.038636073
70	0xbd325a3e	-0.043543093
71	0x3dfee4e3	0.124460004
72	0x3d47c682	0.048773296
73	0xbdd68944	-0.104754
74	0xbd4e1449	-0.050312314
75	0xbdb35be8	-0.08757764
76	0x3cd817bd	0.026378507
77	0x3d27b379	0.040942643
78	0x3d4ae220	0.049532056
79	0x3d6ac788	0.057319194
80	0xbe23d096	-0.15997538
81	0x3d8ccd15	0.06875054
82	0x3c9a1d15	0.018812696
83	0x3d668a23	0.05628408
84	0x3da36858	0.07978886
85	0xbd04d4a2	-0.032429345
86	0x3dd967ce	0.10615502
87	0x3dc9996d	0.09843717
88	0xbce521a9	-0.027970152
89	0x3d936fde	0.07199071
90	0x3dc6f68e	0.09714995
91	0x3e0f6a16	0.14005312
92	0x3d2bfc29	0.041988526
93	0x3d96f2e3	0.07370546
94	0x3c2f42a4	0.010697041
95	0xbd4cab96	-0.049968325
96	0xbdb42018	-0.08795184
97	0x3e00dbec	0.12583894
98	0x3e12534f	0.14289592
99	0x3e230e09	0.15923323
100	0x3d8d5f89	0.069029875
101	0xbd75ddd3	-0.060026
102	0x3db8192e	0.08989178
103	0x3d567aae	0.05236309
104	0xbd84e60a	-0.06489189
105	0xbcfb7359	-0.03069465
106	0xbde0d57a	-0.109782174
107	0x3d2baa12	0.04191024
108	0xbdd8318a	-0.10556324
109	0xbdb42655	-0.08796374
110	0xbe0a36a0	-0.134974
111	0xbdd4cc5a	-0.103905395
112	0x3de7ce9d	0.11318705
113	0xbe0cfc7a	-0.13768187
114	0xbd2be7e6	-0.041969202
115	0x3c336df3	0.010951507
116	0x3e10dac3	0.14145951
117	0x3d9bbf09	0.076047964
118	0x3dcbedb6	0.09957449
119	0x3e1e3f0b	0.15453736
120	0x3e14f306	0.14545831
121	0xbd39cf4c	-0.04536371
122	0x3de9c805	0.11415104
123	0x3e01bede	0.12670466
124	0xbe1b2e02	-0.1515427
125	0xbdfbaa5b	-0.12288352
126	0xbc4bf231	-0.01244788
127	0x39db0e8e	0.0004178178
128	0xbcb66be2	-0.02226824
129	0xbca6c465	-0.02035732
130	0x3b0e9643	0.0021757043
131	0x3d55ce15	0.05219849
132	0xbe1446b5	-0.14480098
133	0x3db832ef	0.0899409
134	0xbdd021d4	-0.10162702
135	0x3def5b52	0.1168734
136	0xbd54c491	-0.051945273
137	0x3e160405	0.14649971
138	0xbddbc403	-0.10730746
139	0x3ccb902b	0.024849018
140	0xbd629561	-0.05531824
141	0x3db29932	0.08720626
142	0xbd73f562	-0.059560187
143	0x3ad8398e	0.0016496645
144	0xbe0a4990	-0.13504624
145	0x3ce2e284	0.027695902
146	0x3da7740e	0.081764325
147	0xbc38984a	-0.011266777
148	0x3d9bbbf5	0.07604209
149	0x3d8cee3b	0.06881376
150	0xbccf98b4	-0.02534137
151	0xbe083209	-0.13300337
152	0x3d794923	0.060860764
153	0x3cf7cfb9	0.030250417
154	0xbdab3074	-0.08358851
155	0xbdfa9044	-0.12234548
156	0x3d74b271	0.059740487
157	0xbdee8610	-0.11646664
158	0xbd9db6fc	-0.07700917
159	0xbd619120	-0.055070043
160	0xbe03265e	-0.12807605
161	0xbce1a502	-0.027544502
162	0x3cdc3960	0.026882827
163	0xbdf3b791	-0.11900247
164	0xbde36544	-0.11103299
165	0xbe0401d2	-0.1289132
166	0x3e074fb4	0.13213998
167	0x3dcfa4b2	0.10138835
168	0x3d569271	0.05238575
169	0x3e0c8d52	0.13725784
170	0xbb483a9c	-0.0030552512
171	0x3dbd974c	0.09257373
172	0x3daeb28c	0.08530149
173	0xbd4299b4	-0.047509864
174	0xbc9cb5de	-0.01912969
175	0xbd7d747d	-0.06187867
176	0xbcf6fb2a	-0.030149061
177	0x3d529cc9	0.051419053
178	0x3dbc07e7	0.09181195
179	0xbdf2c26c	-0.11853489
180	0xbddbd77d	-0.107344605
181	0xbd75c518	-0.060002416
182	0xbdb8cd3b	-0.090235196
183	0x3dbd7043	0.09249928
184	0xbe220b82	-0.15824702
185	0xbdd93515	-0.10605828
186	0xbd411686	-0.04714062
187	0x3d8b45d0	0.06800425
188	0x3de64fd7	0.11245697
189	0xbded7c92	-0.115960255
190	0x3d306fcb	0.043075364
191	0x3d88dbaf	0.06682526
192	0xbe070761	-0.13186409
193	0x3d2a75a4	0.041616097
194	0x3d2da61e	0.04239475
195	0xbdb25dea	-0.08709319
196	0xbdb2cf75	-0.087309755
197	0xbc663b70	-0.014052257
198	0x3daac633	0.08338585
199	0xbde8f4cb	-0.113748156
200	0x3ded5d01	0.11590005
201	0xbce85bb0	-0.028364033
202	0x3da4d240	0.080479145
203	0x3db34c0e	0.08754741
204	0x3d0aaa61	0.033853892
205	0x3e12c03f	0.14331149
206	0xbc6629f4	-0.014048088
207	0x3d9309ea	0.07179625
208	0x3d105249	0.035234723
209	0x3daf5bf3	0.0856246
210	0xbdd4bd68	-0.10387689
211	0x3d8c7772	0.0685872
212	0xbdb11566	-0.086466596
213	0x3e1ddde0	0.1541667
214	0x3d344000	0.044006348
215	0xbde79a57	-0.11308735
216	0xbb303d2b	-0.0026891928
217	0xbd027dce	-0.031858258
218	0x3dca11d6	0.09866683
219	0x3d9465ff	0.07246017
220	0xbd14b533	-0.036305618
221	0x3da700d4	0.08154455
222	0x3dffc20f	0.124881856
223	0x3d7bb5d8	0.061452717
224	0xbdb19c65	-0.08672408
225	0xbd8e3b04	-0.0694485
226	0xbe10393f	-0.14084338
227	0x3d6c59ec	0.057702944
228	0x3ce659b7	0.028118951
229	0xbc8d752d	-0.017267788
230	0xbdc1a5c2	-0.09455444
231	0xbd3cd7f3	-0.046104383
232	0x3cc811e9	0.024422603
233	0x3dc1f71a	0.09470959
234	0x3dce6025	0.10076932
235	0xbda30db0	-0.07961595
236	0xbe0ad51c	-0.13557857
237	0x3df78f31	0.120878585
238	0x3d12a6bc	0.03580354
239	0xbd99e963	-0.07515218
240	0xbc05d322	-0.008168014
241	0xbd9e3fba	-0.077269986
242	0xbe156ded	-0.14592715
243	0x3ddb4a2a	0.10707505
244	0x3e0b5956	0.13608298
245	0xbd407ece	-0.04699593
246	0xbe0ebde0	-0.13939619
247	0x3d8b2db1	0.06795824
248	0xbe1e7b27	-0.15476666
249	0xbdcb1ebf	-0.09917974
250	0xbd773b6a	-0.060359396
251	0xbdec56e5	-0.11540011
252	0x3d99f0d8	0.075166404
253	0xbd99a825	-0.07502774
254	0x3c98288d	0.018574024
255	0xbdd3cdf6	-0.10342018

sequential_41/conv2d_133/Conv2D f4 [16, 3, 3, 32]
0	0xbdb84d59	-0.08999128
1	0x3dcf8c90	0.10134232
2	0xbdf8423b	-0.121220075
3	0xbd7a96d2	-0.06117899
4	0xbd1998b2	-0.037499137
5	0x3d0eed7c	0.03489445
6	0x3c872bd2	0.016500387
7	0xbd963bc9	-0.07335622
8	0x3dcc589e	0.0997784
9	0x3d4f6064	0.050629035
10	0xbc6589f3	-0.01400994
11	0x3bfccc67	0.0077147963
12	0x3dcd9f19	0.10040111
13	0x3de32003	0.1109009
14	0xbcd28291	-0.025697025
15	0xbdbbc344	-0.09168103
16	0xbdfcfd7c	-0.12353036
17	0x3c2719d9	0.010199034
18	0xbde688c5	-0.112565555
19	0xbb4b4dec	-0.0031021787
20	0x3d36d930	0.04464072
21	0xbc902320	-0.017594874
22	0x3daf7a4a	0.08568247
23	0x3c9d670e	0.01921418
24	0xbdbe4065	-0.09289626
25	0xbcbccfa2	-0.023048226
26	0x3db70afa	0.089376405
27	0x3dc515a6	0.0962327
28	0x3dcefbc6	0.10106616
29	0x3dbabd57	0.09118145
30	0xbd6089a9	-0.054818783
31	0x3d9f1d81	0.07769299
32	0x3dd993ff	0.10623931
33	0x3d9e5d20	0.07732606
34	0xbc879a85	-0.016553173
35	0x3d60e3f8	0.054904908
36	0xbdc2dc20	-0.09514642
37	0x3ddf9720	0.10917497
38	0x3c8b7dbf	0.017027734
39	0xbc950f45	-0.018195758
40	0x3c25fa30	0.01013045
41	0x3d497beb	0.049190443
42	0x3d60b369	0.0548586
43	0xbd2f4c67	-0.042797472
44	0x3d9b607e	0.07586764
45	0x3d76c244	0.06024386
46	0x3c7c9a3f	0.0154176345
47	0xbdf730ea	-0.120698765
48	0x3db01941	0.08598567
49	0x3d2512ac	0.04030101
50	0xbd83a03c	-0.06427047
51	0xbde85d5f	-0.11345934
52	0xbd29ef0c	-0.04148774
53	0x3de87c4a	0.11351831
54	0xbcca5e2b	-0.024703106
55	0xbdec94c3	-0.115518115
56	0xbd1cce81	-0.038282875
57	0x3c5ddb72	0.013541089
58	0xbdaa31dc	-0.08310291
59	0xbdd734aa	-0.10508092
60	0x3d7a1fc6	0.061065458
61	0xbdb8f71d	-0.09031508
62	0x3d76dffc	0.060272202
63	0x3d572820	0.0525285
64	0x3d9e8524	0.07740238
65	0x3db371f3	0.087619685
66	0xbda627d9	-0.08113069
67	0xbda0a808	-0.078445494
68	0x3daa6c0f	0.08321392
69	0xbd263548	-0.040578157
70	0x3cea5f42	0.028609876
71	0x3da46dce	0.08028756
72	0x3d052598	0.032506555
73	0x3dc60301	0.09668542
74	0x3d25bd79	0.0404639
75	0xbd3c8a2b	-0.046030205
76	0xbc37e85c	-0.011224832
77	0x3ddacc82	0.10683538
78	0xbcd3c28f	-0.025849609
79	0x3b8702eb	0.004120221
80	0x3dc23d1a	0.094843104
81	0x3ccaea02	0.024769787
82	0xbc8d85a4	-0.017275639
83	0x3d2f8c8b	0.04285864
84	0x3db196ca	0.08671339
85	0xbd5ee3fd	-0.054416645
86	0xbdc1c9b4	-0.094623
87	0xbdb7b82a	-0.089706734
88	0x3bf3f3b7	0.0074448246
89	0xbd6ff422	-0.058582433
90	0x3d89c712	0.06727423
91	0x3d2f5698	0.04280719
92	0xbd92639b	-0.071479045
93	0xbd8a49ab	-0.06752332
94	0x3dc5679f	0.09638905
95	0xbcc3c830	-0.023899168
96	0x3cb7ba86	0.022427808
97	0x3d982381	0.07428647
98	0xbdbccc1a	-0.09218617
99	0xbd6d0b80	-0.057872295
100	0xbdfdb959	-0.12388868
101	0x3dd84367	0.10559731
102	0xbdee9ad0	-0.11650622
103	0x3ccdad87	0.025107158
104	0x3dd814fc	0.105508775
105	0xbdc9a828	-0.098465264
106	0x3de20e86	0.110379264
107	0xbd8c21be	-0.06842373
108	0x3b5fd832	0.0034155962
109	0xbdc087c0	-0.09400892
110	0x3d3575b0	0.04430169
111	0xbd685c74	-0.056728795
112	0x3d02d38f	0.03194004
113	0xbcfcab73	-0.030843472
114	0xbd1191bb	-0.03553937
115	0xbdb617ed	-0.08891282
116	0x3b90acee	0.004415146
117	0xbdf1b06d	-0.11801229
118	0xbd8a24ae	-0.06745277
119	0xbd472346	-0.048617624
120	0x3d052d8f	0.03251415
121	0xbdd2b523	-0.10288455
122	0xbdcb996a	-0.09941371
123	0xbd9e5d3b	-0.07732626
124	0x3ce71915	0.028210202
125	0x3d2822b4	0.04104872
126	0xbdaacc36	-0.083397314
127	0xbdea708a	-0.114472464
128	0xbdc9ec43	-0.098595165
129	0x3bbdf557	0.005797069
130	0x3dbee35a	0.093207076
131	0x3d5212fb	0.051287632
132	0xbdb16c20	-0.08663201
133	0x3cdf0fce	0.027229216
134	0xbd02f542	-0.031972177
135	0x3c8762fb	0.01652669
136	0x3ddf2a6f	0.108967654
137	0x3cb9093b	0.02258741
138	0x3b949931	0.0045348634
139	0xbca3b084	-0.01998163
140	0x3c809803	0.015697485
141	0x3d0504e1	0.032475356
142	0xbad7eae5	-0.0016473202
143	0xbd890d28	-0.066919625
144	0x3d832b89	0.06404788
145	0x3de264a9	0.11054356
146	0x3da8fa39	0.08250851
147	0xbc5cef5b	-0.013484801
148	0xbda4be1d	-0.08044074
149	0xbdce9929	-0.10087807
150	0xbd83f6e2	-0.064435735
151	0xbde6ee5f	-0.112759344
152	0x3d5bcef6	0.05366417
153	0xbda00a71	-0.078144915
154	0x3dd32580	0.10309887
155	0x3d4569ae	0.048196487
156	0xbdfc03ba	-0.12305398
157	0x3cd338ae	0.025783863
158	0xbdb6ec84	-0.089318305
159	0xbdbd0b99	-0.09230728
160	0xbdc18de6	-0.09450893
161	0xbcf07f0c	-0.029357456
162	0xbd3ba625	-0.045812745
163	0xbe023600	-0.12715912
164	0xbd2f6595	-0.042821486
165	0x3de47e2d	0.111568786
166	0x3d773ef8	0.060362786
167	0x3d060cde	0.032727115
168	0x3d951f50	0.07281363
169	0xbd1eed94	-0.03880079
170	0xbdba3ba3	-0.09093406
171	0x3c2c2c08	0.010508545
172	0x3e07f41d	0.13276716
173	0x3db1e624	0.08686474
174	0x3dbc681e	0.09199546
175	0xbdf2e75c	-0.118605345
176	0x3dc57322	0.096411005
177	0x3de0c4db	0.10975047
178	0x3dd49983	0.103808425
179	0xbdc87600	-0.09788132
180	0x3e032c6f	0.12809919
181	0xbdba9efa	-0.091123536
182	0x3dac02d8	0.0839898
183	0xbd70f8f6	-0.058831178
184	0xbd900d33	-0.070337676
185	0xbd91bcd5	-0.07116095
186	0x3d910d59	0.07082624
187	0xbb9c8dd3	-0.004777649
188	0xbd7928cd	-0.060829926
189	0xbd9532a0	-0.072850466
190	0x3dd303f4	0.103034884
191	0xbdc0a02a	-0.09405549
192	0xbdfb264b	-0.12263163
193	0xbd6a107a	-0.05714462
194	0x3c2a845d	0.010407534
195	0x3db0546a	0.08609851
196	0x3de3639e	0.11102985
197	0xbcb65f17	-0.02226214
198	0xbd656c2a	-0.056011356
199	0xbddc34c6	-0.10752253
200	0x3da91a8c	0.082570165
201	0x3d47096e	0.048592977
202	0xbd310ed2	-0.043227024
203	0x3cbe37fb	0.023220053
204	0x3daeaffb	0.08529659
205	0xbde74196	-0.112918064
206	0xbcdc6a46	-0.026906144
207	0xbd0cb5d8	-0.034353107
208	0x3d35ec95	0.044415075
209	0x3d8427a8	0.06452876
210	0x3d5c9c52	0.053860016
211	0x3d5acda9	0.05341879
212	0x3d6ccd80	0.057813168
213	0x3df98666	0.121838376
214	0xbd4d85e9	-0.050176535
215	0xbd9b142e	-0.07572208
216	0xbce94228	-0.028473929
217	0x3de8493c	0.11342093
218	0x3db15c42	0.08660175
219	0xbd6a8719	-0.057257745
220	0xbd3912c8	-0.045183927
221	0x3d9fa138	0.07794422
222	0x3dbb3d1e	0.091425166
223	0xbdde9c6f	-0.10869681
224	0x3d1048f7	0.035225835
225	0x3dcf6972	0.10127534
226	0xbdc6fb57	-0.09715908
227	0x3d385ed0	0.045012295
228	0x3e008866	0.12552032
229	0x3d40a737	0.04703447
230	0xbda9dd63	-0.08294179
231	0xbceedd57	-0.029158277
232	0xbbf27447	-0.0073991152
233	0xbde2ff95	-0.11083905
234	0x3d580bae	0.052745514
235	0xbdb993c5	-0.09061388
236	0xbd4e6e37	-0.050398078
237	0xbb454968	-0.0030103568
238	0xbd13f7dc	-0.03612505
239	0x3df71909	0.12065322
240	0xbd99e96a	-0.07515223
241	0x3d390e4c	0.04517965
242	0x3dbef25c	0.0932357
243	0x3deb0a44	0.114765674
244	0x3dbf6156	0.09344737
245	0xbd08e0b3	-0.033417415
246	0x3b81edc4	0.0039651114
247	0x3d32a998	0.04361877
248	0xbd852456	-0.06501071
249	0x3d854f37	0.0650925
250	0x3d6df936	0.058098994
251	0x3dbead1a	0.0931036
252	0xbcd8a1d5	-0.026444355
253	0xbc7ca9d2	-0.015421348
254	0x3d8e33e8	0.06943494
255	0x3c2f6fde	0.010707824

sequential_41/conv2d_134/Conv2D f4 [16, 3, 3, 16]
0	0xbddd4172	-0.10803498
1	0x3c081384	0.008305434
2	0xbdf62ab4	-0.12019864
3	0x3da02d41	0.078211315
4	0xbc56a10e	-0.013099922
5	0x3bd3a101	0.006458402
6	0x3e0d3ee4	0.13793522
7	0x3e15d91f	0.14633606
8	0x3d517887	0.051140334
9	0xbdc6dcde	-0.09710096
10	0xbdf7d616	-0.121013805
11	0x3d6a64d5	0.057225067
12	0xbbd7e701	-0.006588817
13	0x3d0e0d6a	0.03468076
14	0x3d4a9930	0.049462497
15	0xbd2563cc	-0.040378377
16	0x3d829c4f	0.0637747
17	0x3cc5229a	0.02406435
18	0x3e07c464	0.13258511
19	0xbdeb8ecc	-0.11501846
20	0xbca09caa	-0.019605953
21	0x3d901363	0.07034948
22	0x3d0b0e64	0.03394927
23	0x3db9febf	0.09081792
24	0x3dc2fac8	0.09520489
25	0x3da4d78d	0.080489255
26	0xbdf2897e	-0.11842631
27	0xbdb18eea	-0.08669837
28	0x3d337cc2	0.04382015
29	0xbd7d591e	-0.061852567
30	0x3b818bdd	0.0039534406
31	0xbdbed12e	-0.093172416
32	0x3c48e4a2	0.012261542
33	0xbe0e8f01	-0.13921739
34	0x3d982b37	0.074301176
35	0xbdfec11d	-0.12439177
36	0x3ce320c4	0.027725585
37	0xbdab57f9	-0.08366389
38	0x3d8603cb	0.06543692
39	0x3c56dc22	0.013114007
40	0x3df961f0	0.12176883
41	0xbcb5ab40	-0.022176385
42	0x3c18dca8	0.009329952
43	0xbe13a4dd	-0.14418359
44	0xbd913b2c	-0.07091364
45	0x3db9afa7	0.09066706
46	0x3d146caf	0.03623646
47	0x3de28975	0.11061374
48	0x3d001702	0.031271942
49	0x3dca5109	0.098787375
50	0xbd46f824	-0.04857649
51	0x3cfa6f91	0.030570777
52	0x3c91a3dc	0.01777833
53	0x3dbcc266	0.09216766
54	0xbdda6cce	-0.10665284
55	0xbc83a6fb	-0.016070833
56	0x3cf4e6cb	0.029895207
57	0xbd98d55f	-0.07462572
58	0xbd9ae5a0	-0.07563329
59	0x3cf664db	0.030077389
60	0x3d080992	0.033212252
61	0x3c258215	0.010101815
62	0x3da1712e	0.078829154
63	0xbd2205ee	-0.039556436
64	0x3c8e2f11	0.017356427
65	0x3d0a99f6	0.033838235
66	0xba25f427	-0.0006330632
67	0x3d2fbddf	0.042905685
68	0xbdf174cd	-0.11789856
69	0xbe0398f0	-0.1285131
70	0xbe0830b0	-0.13299823
71	0xbdf243a7	-0.1182931
72	0x3e174b83	0.14774899
73	0x3e10c8a3	0.14139037
74	0xbd57572f	-0.05257338
75	0xbd1d7cc7	-0.038449075
76	0xbdcaa75d	-0.09895203
77	0x3d2c3252	0.042040177
78	0x3e262efa	0.16228858
79	0x3d8a927d	0.06766222
80	0xbdbbf32c	-0.09177241
81	0x3ded4b45	0.11586622
82	0xbdd445d7	-0.103648834
83	0x3dbab0e4	0.091157705
84	0x3db3abd3	0.08773007
85	0xbda1d912	-0.07902731
86	0x3dc51be3	0.096244596
87	0x3da89955	0.08232371
88	0xbcbf2ca8	-0.023336723
89	0xbdcc38ec	-0.099717945
90	0xbdf1e214	-0.11810699
91	0x3d82ef70	0.06393325
92	0xbd14cff6	-0.03633114
93	0x3cc4c79f	0.024020968
94	0x3e024ed1	0.12725379
95	0xbd29a6e0	-0.04141891
96	0x3daf1ff4	0.085510164
97	0x3a4ddaa5	0.000785271
98	0xbdaaae1d	-0.08333991
99	0x3c5d258f	0.013497724
100	0x3d90c868	0.070694745
101	0x3e061732	0.13094786
102	0xbdf6619c	-0.12030336
103	0x3c60fe8b	0.013732563
104	0xbde9be6a	-0.11413272
105	0x3cc7f471	0.024408551
106	0xbbd38c48	-0.006455932
107	0xbd546e1b	-0.051862817
108	0xbce42b6e	-0.02785274
109	0x3e09827b	0.1342868
110	0x3dce4f35	0.10073701
111	0xbdc7f806	-0.097641036
112	0x3d170f5d	0.036879886
113	0xbd95f4c3	-0.07322075
114	0xbe19cdef	-0.15019964
115	0x3dfb45bd	0.12269161
116	0x3d51fd83	0.05126716
117	0x3ce3f727	0.027827812
118	0x3e105c18	0.14097631
119	0x3e07ee32	0.13274458
120	0x3df823f7	0.12116235
121	0xbd272046	-0.040802263
122	0xbc5808f9	-0.013185733
123	0xbdd86786	-0.105666205
124	0x3e0ccc15	0.13749726
125	0x3e04f79e	0.12985083
126	0x3bae6048	0.005321536
127	0xbdae12e5	-0.084996976
128	0x3e3050f6	0.17218384
129	0xbcf8be3e	-0.030364152
130	0xbcfc1fc9	-0.030776875
131	0xbe014886	-0.12625322
132	0x3d98ff42	0.074705616
133	0x3dc857be	0.097823605
134	0xbd8aca36	-0.0677685
135	0xbdbec7b1	-0.09315432
136	0x3e10f91c	0.14157528
137	0xbe0edf9e	-0.1395249
138	0x3de8f6b5	0.11375181
139	0xbc97e6c5	-0.018542657
140	0xbd500d0c	-0.050793692
141	0x3d48df2a	0.04904095
142	0xbd5039cd	-0.050836373
143	0xbe03911b	-0.12848322
144	0xbdebce26	-0.11513929
145	0xbd42f2fe	-0.047595017
146	0xbe080c97	-0.13286053
147	0xbd3f6faa	-0.04673735
148	0xbe20b07a	-0.1569232
149	0xbe1b89a7	-0.15189229
150	0x3db8f21b	0.09030553
151	0xbd1e16a1	-0.0385958
152	0xbdfee093	-0.12445178
153	0x3df2efae	0.118621215
154	0xbe032197	-0.12805782
155	0xbdda5b88	-0.106619895
156	0x3e050a32	0.1299217
157	0xbd40bdae	-0.047055893
158	0xbb76b07d	-0.0037641816
159	0xbd91650d	-0.07099352
160	0xbca96a0f	-0.020680455
161	0xbba0ed17	-0.004911076
162	0xbd8c5905	-0.06852917
163	0xbd106d0b	-0.03526024
164	0x3d9b21f9	0.07574839
165	0x3d0b9a41	0.034082655
166	0xbc8350b4	-0.016029693
167	0x3e0cbf25	0.13744791
168	0xbd6e604c	-0.058197305
169	0x3df82023	0.121155046
170	0x3e241f7e	0.16027638
171	0xbbc928fc	-0.006138919
172	0x3d81dbbb	0.063407384
173	0xbd6631ea	-0.056199946
174	0x3d92f1d3	0.071750306
175	0x3e087370	0.13325286
176	0xbd755689	-0.05989698
177	0xbd19519e	-0.03743135
178	0x3d9d5e16	0.07683961
179	0x3e0f9592	0.140219
180	0xbdd3e7ac	-0.10346922
181	0xbdc50134	-0.0961937
182	0xbcc0c4d7	-0.02353136
183	0x3d3fbe32	0.046812244
184	0xbe041049	-0.12896837
185	0xbe056b3a	-0.13029185
186	0x3d997098	0.07492179
187	0x3db8841d	0.090095736
188	0xbd165941	-0.036706213
189	0x3dcbbe9e	0.09948467
190	0xbd9632af	-0.07333886
191	0xbd7071b5	-0.05870219
192	0xbe158777	-0.14602457
193	0xbd567d79	-0.052365754
194	0x3db483a7	0.08814173
195	0xbd06ae93	-0.03288133
196	0x3d8c0d5a	0.06838484
197	0xbd29ffe3	-0.0415038
198	0x390b818f	0.00013304337
199	0x3df0fe93	0.11767306
200	0x3e0a090c	0.13480014
201	0xbca69a0f	-0.020337133
202	0x3a0ff77a	0.0005491894
203	0x3e1c343f	0.15254305
204	0x3e0ae3df	0.13563488
205	0xbd2b8422	-0.04187406
206	0xbd93bc8d	-0.072136976
207	0x3dd5aedc	0.104337424
208	0x3d9c7950	0.07640326
209	0x3c9cfafc	0.019162647
210	0x3daac7a2	0.08338858
211	0x3b2d2c4f	0.0026424115
212	0x3e03cdd8	0.12871492
213	0x3d9aafdd	0.075530745
214	0x3cee5907	0.029095186
215	0x3cf52050	0.029922634
216	0xbd873fdc	-0.06603977
217	0xbdd1bb8e	-0.10240851
218	0xbdfac37c	-0.12244317
219	0x3dc1555d	0.0944011
220	0xbd908986	-0.070574805
221	0xbd714660	-0.058905005
222	0xbddcd965	-0.10783652
223	0x3c7b6bf7	0.015345565
224	0x3e11733d	0.14204116
225	0x3dc6735f	0.09689974
226	0x3d8d3577	0.06894963
227	0xbd43b178	-0.04777667
228	0xbcddd62d	-0.027079666
229	0x3da2fede	0.07958768
230	0xbd3205eb	-0.043462675
231	0x3de0d3b7	0.109778814
232	0x3e11b91f	0.14230774
233	0x3d3cba22	0.046075948
234	0x3e0b54ce	0.13606569
235	0x3df86cc1	0.12130118
236	0x3dcef30c	0.10104951
237	0xbc8500d8	-0.016235754
238	0xbdf334f6	-0.11875336
239	0xbdffa0d8	-0.124818504
240	0x3e1df4a4	0.15425354
241	0xbd9720dc	-0.07379314
242	0x3d3a3c0d	0.045467425
243	0xbdab1f39	-0.083555646
244	0x3df48acd	0.11940537
245	0xbd93605b	-0.07196113
246	0xbd214f7c	-0.039382443
247	0xbe15bb0a	-0.14622131
248	0x3d3caf91	0.04606587
249	0x3b6e6b1b	0.0036379758
250	0x3dd9d7c4	0.10636857
251	0x3e114074	0.14184743
252	0xbccdcd98	-0.025122449
253	0x3d95d061	0.07315136
254	0x3dc9874b	0.09840258
255	0x3ddc58bd	0.10759113
