app/app/src/main/assets/car_horn.tflite (tflite, 273836 bytes, 11 tensors)

sequential_60/conv2d_230/BiasAdd/ReadVariableOp/resource f4 [64]
0	0x3b29a955	0.0025888283
1	0xb6486505	-2.9861123e-06
2	0x3b36363b	0.002780332
3	0xba844775	-0.0010092097
4	0x3a621b11	0.0008625249
5	0x390124ff	0.00012316181
6	0x3a5e9053	0.0008490134
7	0x3ba3ce8a	0.0049989866
8	0xb9473345	-0.00018997218
9	0x3b127873	0.0022349625
10	0xba80c9c2	-0.0009825754
11	0x3ac8c184	0.0015316461
12	0xba9b600f	-0.0011854189
13	0xbb014074	-0.0019722255
14	0xbb200562	-0.002441727
15	0xba7f5ab0	-0.00097409915
16	0x3bb937b7	0.0056523937
17	0x3a931f51	0.0011224543
18	0x397616bc	0.00023468857
19	0xba227fe3	-0.0006198866
20	0x3b115bf7	0.002218006
21	0x3ac1ae2e	0.0014776641
22	0x3b9f8505	0.004868152
23	0x3a9ffe54	0.0012206533
24	0xbabc1a51	-0.0014351105
25	0x3b21d04c	0.0024690805
26	0xba12dc6c	-0.00056023034
27	0x3ab4db31	0.0013798234
28	0x3a71d467	0.0009225071
29	0xbb3cce27	-0.00288094
30	0x3a980899	0.0011599242
31	0xbab8083d	-0.0014040541
32	0x3a9d57bb	0.0012004295
33	0xbb258e5d	-0.0025261857
34	0xbac29bd3	-0.0014847465
35	0xbadb5dfe	-0.0016736386
36	0x3ba6dd8c	0.0050923284
37	0x3af168bd	0.0018418055
38	0x3b0f6a79	0.002188353
39	0x3b965237	0.0045874375
40	0x3a6f5dd2	0.0009131107
41	0xbb9b51db	-0.0047399825
42	0xbb5567f2	-0.0032563177
43	0xba3804af	-0.0007019741
44	0x3b4f5574	0.0031636627
45	0x39dbdcd6	0.0004193547
46	0xb80fd0f0	-3.4288445e-05
47	0x38f14d4a	0.00011506172
48	0xbaa4d474	-0.0012575523
49	0x3b87c5c1	0.004143447
50	0x39f44ce0	0.00046596583
51	0xbb47b6d5	-0.0030473967
52	0x37b289c8	2.1283413e-05
53	0x3b756d30	0.0037449114
54	0xbb3475de	-0.0027536075
55	0x3b9717ba	0.0046109827
56	0x3950e15e	0.00019920382
57	0x3ab2c55f	0.0013639143
58	0x3b380a37	0.002808226
59	0x3b9fae1f	0.004873052
60	0x3a187803	0.0005816223
61	0x3b680faa	0.0035409727
62	0xba53ea56	-0.000808393
63	0xbbd47ac1	-0.00648436

sequential_60/conv2d_231/BiasAdd/ReadVariableOp/resource f4 [64]
0	0xb9114e42	-0.00013857431
1	0xbb00c1d3	-0.0019646778
2	0x3a9b6fe2	0.0011858905
3	0xb84d1272	-4.8892987e-05
4	0x3bafa8b3	0.0053606867
5	0xbb352fe4	-0.0027646953
6	0xbb0de474	-0.0021651061
7	0xba9647d9	-0.0011465504
8	0xb8d6944b	-0.00010231937
9	0x3b7f7f8b	0.0038985934
10	0x3b569daf	0.0032747795
11	0xb9f8331f	-0.00047340334
12	0xba6c25d4	-0.00090083224
13	0xbb8f386a	-0.0043707388
14	0xb99d3969	-0.00029988147
15	0x39e1f4df	0.00043097787
16	0xbb7f0590	-0.0038913228
17	0x3a57961c	0.0008223967
18	0xbb71749b	-0.0036843184
19	0xbacf7840	-0.0015828684
20	0x3b5f2a34	0.0034052255
21	0xbae9be7e	-0.001783326
22	0x3b20ce9f	0.0024537218
23	0x3a20ddb5	0.00061365525
24	0xb9157cb3	-0.00014256201
25	0x3a33edc1	0.0006863736
26	0x3aad98fb	0.0013244444
27	0xb93493af	-0.00017221154
28	0x37a21138	1.9319923e-05
29	0x3a095417	0.00052386656
30	0x3ad64a3e	0.001634903
31	0xbb0ffb27	-0.0021969767
32	0xb72aec0e	-1.018775e-05
33	0xbb4e7f6a	-0.003150905
34	0xbb0fc0d9	-0.0021935015
35	0xb8f1f73a	-0.00011537825
36	0x3bcd2ef3	0.0062617003
37	0x3b744926	0.0037275045
38	0xbb30ab8f	-0.0026957726
39	0xbbfe6f7e	-0.0077647557
40	0x3ac43e1a	0.0014972121
41	0xbb1604bb	-0.0022891003
42	0x3b7501dc	0.0037385141
43	0xbb33e04a	-0.002744692
44	0xbbba65ca	-0.0056884037
45	0xb9e59099	-0.00043786017
46	0xba7fd3d9	-0.0009759046
47	0xba265eef	-0.00063465437
48	0xbb306ada	-0.0026919157
49	0xbaee9338	-0.0018201834
50	0x3b02fb91	0.001998637
51	0x38aef62f	8.342822e-05
52	0x3b157f80	0.0022811592
53	0x3a9c9950	0.0011947546
54	0x3bd7519a	0.006571007
55	0xb9318e0d	-0.00016932953
56	0xbae88a69	-0.0017741445
57	0xbab72a2e	-0.0013974363
58	0xbb2b371a	-0.0026125372
59	0x3a87c314	0.001035782
60	0x3a6fe9de	0.00091519754
61	0xb99f6a98	-0.00030406262
62	0xbb739f6e	-0.0037173885
63	0xb7ba047c	-2.2175016e-05

sequential_60/conv2d_232/BiasAdd/ReadVariableOp/resource f4 [32]
0	0xba329c1d	-0.0006813424
1	0xb94699cf	-0.0001894005
2	0x3b178e22	0.002312549
3	0xba60dd28	-0.0008577877
4	0x38af7b7a	8.3676496e-05
5	0xbac23f0d	-0.0014819816
6	0xba098458	-0.0005245856
7	0x3beb6d1f	0.007184639
8	0xbaa28509	-0.0012399267
9	0xbad516e0	-0.0016257428
10	0xbbbd29f7	-0.005772825
11	0xb9ed71ab	-0.00045288852
12	0xb93907ba	-0.00017645853
13	0xbb63441e	-0.0034678052
14	0xbb535ecf	-0.0032252555
15	0xba1fc674	-0.00060949405
16	0x3b9657f7	0.004588123
17	0xbb4cac30	-0.0031230561
18	0x3bd19ac8	0.006396625
19	0x3b452df9	0.0030087216
20	0xb9bfeb05	-0.00036605462
21	0x3bcb57a4	0.006205516
22	0x39d14615	0.00039915802
23	0x3bbf9d80	0.005847633
24	0xb99a106c	-0.00029385404
25	0x3b508fe1	0.003182404
26	0xbbbb0ce5	-0.0057083243
27	0xb68021a0	-3.8186117e-06
28	0xb921a76c	-0.00015416526
29	0xbb62c446	-0.0034601851
30	0x37d2425e	2.5064855e-05
31	0xba60a93a	-0.00085701386

sequential_60/conv2d_233/BiasAdd/ReadVariableOp/resource f4 [32]
0	0x3c94bd4c	0.01815667
1	0xb98e1776	-0.0002710183
2	0xb94aad8d	-0.00019328874
3	0x381e564e	3.7750513e-05
4	0xbb14a25d	-0.0022679784
5	0x3a4d0595	0.0007820961
6	0xba5f4438	-0.000851694
7	0x3a34fffd	0.00069046003
8	0xbb0ecc2a	-0.0021789172
9	0xba09221a	-0.0005231217
10	0xbb30532c	-0.0026905043
11	0xba0d652c	-0.0005393799
12	0xb7301d9e	-1.0497313e-05
13	0x39eef7fd	0.00045579663
14	0x3aa115fd	0.0012289878
15	0xbb2eac1a	-0.0026652873
16	0x3b9435a7	0.0045229974
17	0xb8adf955	-8.2957245e-05
18	0xb9b894ef	-0.0003520618
19	0x3a07b4fe	0.0005176811
20	0x39158cb5	0.00014262165
21	0xba31a6a7	-0.00067768473
22	0xb98ba19f	-0.00026632563
23	0xb932d160	-0.00017053401
24	0xbbbabf77	-0.005699094
25	0x370a299d	8.23513e-06
26	0xba2d1313	-0.00066022685
27	0xb81da6e2	-3.758714e-05
28	0x3b60d923	0.003430911
29	0xb939dba3	-0.00017724796
30	0xbaed4790	-0.0018102992
31	0xbaaa044a	-0.0012971249

sequential_60/dense_132/BiasAdd/ReadVariableOp/resource f4 [16]
0	0xbb92267c	-0.004460154
1	0x3c1c96ee	0.009557469
2	0x3c7f3b7c	0.015578147
3	0xbad57375	-0.0016285019
4	0x3b30f6c7	0.002700256
5	0x38e11ced	0.00010734224
6	0xbae32b1e	-0.0017331576
7	0xbb3017ca	-0.0026869648
8	0xbc324bee	-0.010882361
9	0x3ba95b4d	0.0051683546
10	0xbacbab16	-0.0015538658
11	0xba494908	-0.0007678424
12	0x3bf89a43	0.007586749
13	0xb9636f54	-0.0002168988
14	0x3a7b7291	0.0009591962
15	0x3ca2e0c6	0.019882571

sequential_60/dense_132/MatMul f4 [16, 128]
0	0xbe027d92	-0.12743214
1	0x3dbc888f	0.09205734
2	0x3e37822c	0.1792075
3	0xbd9230d1	-0.07138217
4	0x3d95b52d	0.07309947
5	0xbdcb2daf	-0.09920823
6	0x3e335b1a	0.17515221
7	0xbc46c5cf	-0.012132122
8	0x3db885f1	0.09009922
9	0xbd481fbd	-0.048858393
10	0xbdae04ec	-0.084970325
11	0x3e4d5275	0.20050986
12	0x3d8baec7	0.068204455
13	0xbd9c4fdd	-0.0763242
14	0xbcb68e22	-0.022284571
15	0xbd1c4e51	-0.038160626
16	0x3ce80240	0.028321385
17	0x3e2fadfa	0.1715621
18	0xbe4fa207	-0.20276652
19	0xbaf14997	-0.0018408772
20	0xbe0a4c11	-0.1350558
21	0x3db2d27f	0.08731555
22	0x3bd98b5b	0.006638927
23	0xbdfd6ff5	-0.1237487
24	0x3d6e79b5	0.058221538
25	0x3db7270d	0.08942995
26	0x3e24e203	0.16101842
27	0xbe43610d	-0.1907999
28	0xbdb6e105	-0.08929638
29	0x3e4ad7ab	0.19808833
30	0x3dc287e6	0.09498577
31	0x3e5deb99	0.21671905
32	0xbe1ffc61	-0.15623619
33	0x3dae96e5	0.085248746
34	0xbe04e250	-0.12976956
35	0xbd12367b	-0.035696488
36	0x3e497e17	0.19677006
37	0xbd9a97e9	-0.07548506
38	0xbdbdb1d7	-0.09262436
39	0xbe29791a	-0.16550103
40	0x3d8ea9cd	0.06965981
41	0xbd79a7f0	-0.060951173
42	0x3e12401e	0.14282271
43	0xbdf6cff7	-0.12051385
44	0x3dde4be6	0.1085432
45	0xbdc66aa3	-0.09688308
46	0x3deb5fc2	0.11492874
47	0x3e14a7e3	0.14517169
48	0x3a8fd424	0.0010973257
49	0xbe252381	-0.16126825
50	0xbdc847ea	-0.097793415
51	0xbe3de7c7	-0.18545447
52	0xbdd59510	-0.10428822
53	0x3c92d2f6	0.01792286
54	0xbe05729e	-0.13032004
55	0xbe076ff1	-0.13226296
56	0x3e318230	0.17334819
57	0x3dba6731	0.091017134
58	0xbe4664e4	-0.19374424
59	0x3d335ddd	0.043790687
60	0x3d74052a	0.059575237
61	0x3e386f44	0.18011194
62	0x3e20a6c7	0.1568862
63	0xbe236c15	-0.15959199
64	0xbe432625	-0.1905752
65	0xbda6b13d	-0.08139274
66	0x3d8a01a4	0.06738594
67	0xbe0c9ca2	-0.13731626
68	0x3dcb56c0	0.099286556
69	0xbe47fc10	-0.19529748
70	0xbe440296	-0.19141611
71	0x3d306946	0.043069147
72	0x3c57ea7b	0.013178463
73	0xbdf6b8ca	-0.120469645
74	0xbd889f7a	-0.06671043
75	0xbe47e595	-0.19521172
76	0xbd436fe7	-0.04771414
77	0x3e50d5ed	0.20394106
78	0x3d4410b8	0.047867507
79	0xbe021fbd	-0.1270742
80	0xbc5b3907	-0.013380296
81	0x3e4a4100	0.19751358
82	0xbe0ef9b0	-0.13962436
83	0x3dfae39f	0.122504465
84	0x3dd6e8c3	0.104936145
85	0xbbaa9677	-0.005205925
86	0x3dfe46af	0.124158256
87	0x3d8fb7e2	0.07017495
88	0x3e32cf20	0.17461824
89	0x3d4a480f	0.049385127
90	0xbd06eefa	-0.03294275
91	0xbdc0c8fe	-0.09413336
92	0xbe07ee5d	-0.13274522
93	0x3d8899ee	0.06669985
94	0x3e039779	0.12850751
95	0x3e340cf2	0.17583063
96	0x3c60d0bb	0.01372164
97	0xbe352e6c	-0.1769349
98	0xbe345774	-0.17611486
99	0x3d462d08	0.04838279
100	0x3c5915c2	0.013249816
101	0xbe100717	-0.14065205
102	0xbe24069b	-0.16018145
103	0x3dbb348f	0.09140884
104	0x3dc249b2	0.094867125
105	0x3c6f34fd	0.014600036
106	0x3e17de1d	0.14830823
107	0xbd329a55	-0.043604214
108	0xbd01b5f3	-0.03166766
109	0x3e3350b7	0.17511259
110	0x3e336077	0.17517267
111	0x3ab53999	0.001382637
112	0xbdc491b8	-0.09598106
113	0xbe1a06eb	-0.15041701
114	0x3dd5f340	0.10446787
115	0xbdb0ed54	-0.08639017
116	0x3dc88d95	0.0979263
117	0x3d89fe1a	0.06737919
118	0x39aae2ad	0.00032593813
119	0x3ddd2f78	0.108000696
120	0x3e3db79f	0.18527077
121	0xbc956140	-0.018234849
122	0x3e3a1355	0.18171437
123	0xbe3b95a2	-0.18318799
124	0xbb9c67e7	-0.0047731283
125	0xb9ff0cf4	-0.0004864704
126	0xbd5482ca	-0.051882543
127	0xbd6d403b	-0.057922583
128	0x3e0fe870	0.14053512
129	0x3e39d955	0.18149312
130	0xbd5d939f	-0.05409586
131	0xbe08a701	-0.13344957
132	0x3d414676	0.047186337
133	0xbdac3147	-0.084078364
134	0x3e28170b	0.1641504
135	0xbddf0d04	-0.108911544
136	0xbd9be8e2	-0.07612778
137	0xbe4c5e62	-0.19957879
138	0x3e403768	0.18771136
139	0xbd2d69dd	-0.042337287
140	0x3d6f3f66	0.05841007
141	0xbe2dc922	-0.16971257
142	0xbe32ea0d	-0.17472096
143	0x3d755304	0.059893623
144	0xbe1f78e5	-0.15573461
145	0x3d514590	0.05109173
146	0xbdcf5147	-0.10122924
147	0xbe31f670	-0.17379165
148	0xbe3b4983	-0.18289761
149	0x3dece3e0	0.11566901
150	0x3d96a1a0	0.07355046
151	0x3e31c42d	0.17359991
152	0xbd04c03f	-0.032409903
153	0x3e3d7309	0.18500914
154	0xbe2df350	-0.16987348
155	0xbdf924a2	-0.1216519
156	0xbddc2c1f	-0.10750603
157	0xbe322ef2	-0.1740072
158	0xbd988f0c	-0.07449159
159	0xbe4f72ec	-0.20258683
160	0x3d57c651	0.052679364
161	0xbe16c636	-0.14724049
162	0xbddf065a	-0.10889883
163	0xbd65d44f	-0.056110676
164	0xbdadffa9	-0.08496029
165	0x3e0a1d7c	0.1348781
166	0xbe247791	-0.16061236
167	0xbe2023fe	-0.1563873
168	0x3d061faf	0.03274506
169	0xbcb91107	-0.022591127
170	0x3e01aa19	0.12662543
171	0x3db6ae8c	0.08920011
172	0xbe0ae2e5	-0.13563116
173	0x3d14ecd6	0.036358677
174	0x3dffdc17	0.12493151
175	0xbdd3e552	-0.10346474
176	0xbe03e616	-0.1288074
177	0xbdb919fa	-0.09038158
178	0xbdfb36d2	-0.122663155
179	0xbe116d4f	-0.14201854
180	0x3deb3469	0.11484606
181	0xbe228dbe	-0.15874383
182	0xbd584e2a	-0.052808918
183	0x3aa502f9	0.0012589387
184	0x3d0a9c21	0.033840302
185	0x3e110a6e	0.14164135
186	0x3dc99a34	0.09843865
187	0x3d31b58f	0.04338604
188	0x3e3bc610	0.18337274
189	0x3e331577	0.17488657
190	0xbdf9a577	-0.12189763
191	0x3df19920	0.117967844
192	0xbd02caef	-0.031931814
193	0x3e07bcbb	0.13255589
194	0xbdc1d630	-0.09464681
195	0xbd71df14	-0.059050635
196	0x3df3c3ff	0.11902618
197	0x3cf7dc68	0.030256465
198	0xbe3d6455	-0.18495305
199	0x3dbd6f62	0.0924976
200	0x3d3d970a	0.04628662
201	0x3e15c669	0.14626469
202	0xbd8f9283	-0.07010367
203	0xbda2db75	-0.07952014
204	0x3d392de4	0.04520978
205	0xbc1ef857	-0.0097027635
206	0x3de2a6d3	0.110669754
207	0xbc04148c	-0.008061539
208	0x3d892b78	0.06697744
209	0xbdfe10ad	-0.124055244
210	0x3e26a9c8	0.16275704
211	0xbd2d595b	-0.042321544
212	0xbdce1e2a	-0.10064347
213	0xbdd36816	-0.10322587
214	0x3daf46dd	0.08558438
215	0xbe2ac812	-0.16677883
216	0xbd9d401d	-0.07678244
217	0xbd52985e	-0.05141484
218	0xbca28d39	-0.01984273
219	0x3df1208a	0.117737845
220	0x3e069f26	0.13146648
221	0xbdc69e29	-0.096981354
222	0xbcd41773	-0.025890088
223	0x3e2320cc	0.1593048
224	0x3e4a1c60	0.19737387
225	0x3e2965a8	0.16542685
226	0xbdee90e9	-0.11648733
227	0x3e062440	0.13099766
228	0x3dccc59c	0.099986285
229	0x3df3bb41	0.1190095
230	0xbd948ce0	-0.07253432
231	0xbc7f0a76	-0.015566459
232	0xbdfc131f	-0.123083346
233	0xbdd01611	-0.10160459
234	0x3debfb41	0.11522532
235	0x3c79738b	0.0152253015
236	0xbcb846c9	-0.02249469
237	0xbdc105a7	-0.09424906
238	0xbb971003	-0.004610063
239	0x3d95cf67	0.073149495
240	0x3e338e2f	0.17534707
241	0x3dbaaf3c	0.091154546
242	0x3db43320	0.08798814
243	0x3dfab144	0.12240842
244	0x3e485595	0.19563897
245	0x3e369b2b	0.1783263
246	0xbd9e2ac0	-0.07722998
247	0xbd391cf5	-0.04519363
248	0xbd088bb9	-0.033336375
249	0xbda1006a	-0.07861407
250	0x3db93753	0.090437554
251	0xbd0ecdcc	-0.034864232
252	0xbd1701a5	-0.036866803
253	0x3dc3d4ae	0.0956205
254	0x3ca8b4b7	0.020593984
255	0x3e32b81c	0.17453045

sequential_60/dense_133/MatMul f4 [1, 16]
0	0x3f1bcd76	0.60860384
1	0xbe9d3bb6	-0.30709618
2	0xbecb91cb	-0.3975967
3	0x3e098625	0.13430078
4	0xbe0e5e56	-0.13903174
5	0xbca5639b	-0.020189097
6	0x3e9b0dad	0.3028387
7	0x3ec43bbe	0.3832683
8	0x3ecb92ea	0.39760524
9	0xbed1ee1b	-0.41001973
10	0xbe9928e7	-0.2991402
11	0xbefc947a	-0.4933203
12	0x3efba4e2	0.49149233
13	0xbeeca19f	-0.46217057
14	0xbe05900c	-0.13043231
15	0xbf20f718	-0.62877035

sequential_60/conv2d_230/Conv2D f4 [64, 3, 3, 1]
0	0xbd49853b	-0.049199324
1	0xbdb3c070	-0.08776939
2	0x3dbb300c	0.091400236
3	0xbdbf94cf	-0.09354555
4	0xbc744070	-0.014907941
5	0xbba9681e	-0.0051698824
6	0x3bed1359	0.0072349724
7	0xbd66fe49	-0.05639485
8	0xbd0ac599	-0.03387985
9	0x3da2c29a	0.079472736
10	0xbdb4630b	-0.088079534
11	0xbd905d19	-0.07049007
12	0x3c7593e5	0.014988874
13	0x3db179ec	0.08665833
14	0xbcb266ab	-0.021777472
15	0x3d363868	0.044487387
16	0xbdbb61d1	-0.091495164
17	0xbd90f0ad	-0.07077155
18	0xbd8a834e	-0.06763326
19	0xbd88f08d	-0.066865064
20	0xbcf99628	-0.030467108
21	0xbc09dc84	-0.008414391
22	0x3dee11ac	0.116244644
23	0x3d7f37c2	0.062309034
24	0x3d23fc21	0.04003537
25	0xbdc35c9c	-0.09539148
26	0xbbc03aae	-0.00586637
27	0xbd8205c6	-0.063487574
28	0x3d2883c0	0.04114127
29	0xbd3dc1a1	-0.046327237
30	0x3daa939d	0.08328936
31	0x3c224037	0.009903005
32	0xbd1c9153	-0.03822453
33	0xbd619d5c	-0.05508171
34	0xbcd2e60a	-0.025744457
35	0xbd591cff	-0.05300617
36	0x3d87ce85	0.06631187
37	0x3d6268a7	0.055275586
38	0x3cffc7a4	0.031223126
39	0x3c672121	0.01410702
40	0xbcab38c3	-0.02090109
41	0x3c3c9287	0.011509544
42	0x3d8e0dc3	0.069362186
43	0xbbb4e5c8	-0.005520556
44	0x3d26df00	0.040740013
45	0x3d6cad65	0.05778255
46	0xbdce90b5	-0.100861944
47	0xbbad3155	-0.005285422
48	0xbd2180ba	-0.039429404
49	0x3d71e3c3	0.0590551
50	0xbd99707f	-0.0749216
51	0xbcdaec42	-0.026723985
52	0x3cd49c5a	0.02595346
53	0x3d967387	0.07346254
54	0x3e0120a9	0.12610115
55	0x3db07118	0.08615321
56	0x3d8425a8	0.06452495
57	0xbdaa6571	-0.0832013
58	0xbd9ba8f6	-0.07600586
59	0xbda302e2	-0.07959534
60	0x3dbb0387	0.09131532
61	0xbcde01c9	-0.02710046
62	0x3dbb5488	0.091469824
63	0x3d628cb4	0.055309966
64	0xbddc7fe2	-0.10766579
65	0x3ca51a3b	0.02015411
66	0xbdc1a260	-0.09454799
67	0x3dd1bb30	0.10240781
68	0xbd9ffa3e	-0.07811402
69	0x3c5126ad	0.012765569
70	0x3b5a0430	0.0033266656
71	0xbdcdb81b	-0.10044881
72	0x3d1e5f6a	0.038665213
73	0x3a7b9560	0.0009597149
74	0xbd75d72b	-0.060019653
75	0x3d1050b7	0.035233226
76	0xbd653972	-0.055962987
77	0xbd4f81e5	-0.050660986
78	0x3d7f7063	0.06236304
79	0xbce0f49c	-0.027460389
80	0x3dab9632	0.08378257
81	0xbd99511e	-0.07486175
82	0x3c003214	0.00782444
83	0xbbc4c620	-0.0060050637
84	0x3baeec55	0.0053382316
85	0xbd99c9b5	-0.07509176
86	0x3cb28c79	0.021795498
87	0x3cd7be2c	0.026335798
88	0xbdc51b81	-0.096243866
89	0xbdc96ae1	-0.09834839
90	0xbd92bb0b	-0.07164582
91	0xbdb41d12	-0.08794607
92	0xbb4ada49	-0.0030952862
93	0xbdc0ea46	-0.09419684
94	0xbddb1ff6	-0.106994554
95	0xbcaaee4d	-0.020865584
96	0xbd87762c	-0.06614336
97	0x3c03c79a	0.008043194
98	0x3de1858d	0.11011801
99	0xbcd35275	-0.025796155
100	0xbdba6f1a	-0.09103222
101	0x3d558520	0.05212891
102	0x3da60e35	0.081081785
103	0x3d60a979	0.05484912
104	0x3dd761cc	0.105167
105	0xbca83782	-0.02053428
106	0x3d199879	0.037498925
107	0xbd5e6ba4	-0.054301873
108	0x3c2860e4	0.010277007
109	0x3b9deabb	0.004819242
110	0x3d977384	0.0739508
111	0x3da076df	0.07835173
112	0x3d81afa8	0.06332332
113	0x3deb759c	0.114970416
114	0xbdcce14b	-0.10003909
115	0xbda6c0b0	-0.08142221
116	0x3d855cd5	0.06511847
117	0xbd335041	-0.043777708
118	0xbdc0a16d	-0.094057895
119	0xbdc986eb	-0.09840187
120	0xbcddc40f	-0.027071027
121	0x3dbbb910	0.09166157
122	0xbda5b666	-0.0809143
123	0x3d00729c	0.0313593
124	0x3c8a0c26	0.016851496
125	0x3d329e8a	0.043608226
126	0x3d1dc28d	0.038515616
127	0x3d3bdf62	0.04586733
128	0xbd01ef62	-0.031722434
129	0xbd70d732	-0.058798976
130	0x3969dbe8	0.00022302533
131	0xbd538316	-0.051638685
132	0x3d875289	0.06607539
133	0xbd2db257	-0.042406406
134	0xbd239cce	-0.039944462
135	0xbdc3959c	-0.0955002
136	0x3d64e9f2	0.05588717
137	0x3dcf674a	0.10127123
138	0xbdb91d99	-0.090388484
139	0xbde2bfb2	-0.11071719
140	0xbd8221f4	-0.06354132
141	0xbdacd6fc	-0.084394425
142	0x3d818e25	0.0632594
143	0x3bbde01a	0.0057945373
144	0xbc8b2e52	-0.01698986
145	0xbd5718c1	-0.05251384
146	0x3da54956	0.08070628
147	0x3d9dd999	0.07707519
148	0x3c7b73dd	0.015347448
149	0xbdd3cf96	-0.10342328
150	0x3d9713ba	0.073768094
151	0xbdb01765	-0.08598212
152	0xbcf1e486	-0.029527914
153	0xbd80c0a2	-0.06286742
154	0xbdd1ce9a	-0.10244484
155	0x3dc96194	0.09833065
156	0xbd6eba74	-0.058283284
157	0x3cbe2a30	0.023213476
158	0x3d7ee52e	0.06223028
159	0x3d260617	0.04053315
160	0x3d2eb0c9	0.042649064
161	0xbdc4bdfc	-0.09606549
162	0xbc81e189	-0.015854614
163	0x3dcd2d37	0.1001839
164	0x3cd6f5f9	0.026240336
165	0xbd948393	-0.07251658
166	0xbd015aa7	-0.031580593
167	0xbdb85e7b	-0.09002396
168	0xbdafd7a4	-0.08586052
169	0xbbdc8e01	-0.0067307954
170	0xbcf0848f	-0.029360084
171	0xbdd6db0d	-0.10490999
172	0x3db4199b	0.08793946
173	0xbdd92974	-0.1060361
174	0x3d8824a2	0.06647612
175	0xbc9c2d07	-0.01906444
176	0xba8dab6e	-0.0010808536
177	0x3d5b02b6	0.053469382
178	0xbdbb3494	-0.09140888
179	0x3da7e978	0.081988275
180	0x3c45701e	0.012050657
181	0xbdbc12b6	-0.09183256
182	0x3db7b6d9	0.08970422
183	0x3a9fef96	0.001220214
184	0xbbd2ec53	-0.0064368634
185	0x3daea2a1	0.08527113
186	0x3d25aece	0.04044991
187	0xbc4d35be	-0.01252502
188	0xbd85d93e	-0.06535576
189	0xbd85220d	-0.06500635
190	0xbde1cc8d	-0.11025343
191	0xba88a80c	-0.0010426058
192	0x3bb8d1b0	0.005640231
193	0x3d9834e9	0.07431967
194	0xbd67da54	-0.0566047
195	0xbc939487	-0.01801516
196	0x3ddae805	0.106887855
197	0x3d94b716	0.07261483
198	0xbda03e1a	-0.07824345
199	0xbd9d560b	-0.07682427
200	0x3d0be17a	0.034150578
201	0x3cfe8d11	0.031073125
202	0x3d45304f	0.048141774
203	0xbbeb0397	-0.007172059
204	0x3d342b65	0.043986697
205	0xbc787651	-0.015164928
206	0xbddf49b7	-0.10902732
207	0x3d9b6ae9	0.07588751
208	0x3da06f30	0.07833707
209	0x3d9186d7	0.07105797
210	0x39c9a806	0.00038462895
211	0x3ccc2957	0.024922056
212	0xbc6ae30f	-0.014336362
213	0xbd379b7f	-0.044826027
214	0x3d5d5a6c	0.05404131
215	0x3dd1d3a6	0.10245447
216	0xbd5cf8d1	-0.053948227
217	0x3d197eb9	0.037474368
218	0xbc00bfa2	-0.007858189
219	0x3c22ef8d	0.009944809
220	0xbc035620	-0.008016139
221	0xbd2cac3d	-0.042156447
222	0xbd451ec7	-0.048125055
223	0x3d0942c5	0.033510942
224	0x3d8faa29	0.07014877
225	0xbdc4ecd6	-0.09615485
226	0xbd84b163	-0.06479146
227	0xbda706e5	-0.08155612
228	0xbdcade6e	-0.09905706
229	0x3cb79273	0.0224087
230	0xbd95810d	-0.07300005
231	0xbddfdeea	-0.10931189
232	0xbd1e3e47	-0.03863361
233	0xbcb00ed8	-0.021491453
234	0xbd815dfd	-0.06316755
235	0xbdebd5f7	-0.1151542
236	0x3da64d47	0.08120208
237	0xbd8a1f58	-0.067442596
238	0x3da423ce	0.08014642
239	0xbd6371e6	-0.055528544
240	0x3d5104c5	0.05102994
241	0x3c7571f4	0.014980782
242	0x3d49240b	0.04910664
243	0xbbefbcac	-0.0073161926
244	0xbdf7f757	-0.12107723
245	0x3d205355	0.03914197
246	0xbd91c212	-0.07117094
247	0x3d75c2c7	0.060000207
248	0x3cc3eb36	0.023915868
249	0x3d90d380	0.070715904
250	0x3da7356b	0.081644855
251	0x3da9aac4	0.08284524
252	0xbcf0a8ac	-0.029377304
253	0xbcc17665	-0.023616025
254	0x3dc330f2	0.0953082
255	0x3ad1028a	0.0015946191

sequential_60/conv2d_231/Conv2D f4 [64, 3, 3, 64]
0	0x3ba73618	0.005102884
1	0xbd812869	-0.06306536
2	0xbcabc292	-0.020966802
3	0xbd43b117	-0.047776308
4	0xbcba1a82	-0.022717718
5	0x3d1729c6	0.036905073
6	0x3d570de3	0.052503478
7	0xbd81a2fd	-0.06329916
8	0x3d63640e	0.05551534
9	0x3d9032e2	0.07040955
10	0xbd27bb2a	-0.040949978
11	0x3acfd34c	0.0015855818
12	0xbd79e98d	-0.061013747
13	0x3d9907bf	0.074721806
14	0x3d51f55b	0.05125938
15	0xbd8e9626	-0.06962232
16	0x3bfa224d	0.0076334835
17	0xbc33b4f3	-0.010968435
18	0xbd361292	-0.044451304
19	0x3d54073d	0.051764715
20	0xbc14f126	-0.009090697
21	0xbd824e2a	-0.06362565
22	0xbc5f5271	-0.013630495
23	0xbcac11a8	-0.021004513
24	0x3d061bd1	0.03274137
25	0x3d2210bc	0.03956674
26	0x3d80e846	0.06294303
27	0x3d89e2f3	0.0673274
28	0x3d33a431	0.043857757
29	0x3d80fb97	0.06297987
30	0xbc133e3d	-0.008987007
31	0xbc357fc4	-0.011077825
32	0xbc8eba92	-0.017422948
33	0x3ccaaa6b	0.024739465
34	0x3d2b9cf9	0.041897748
35	0xbcbb5b45	-0.02287067
36	0xbbc602ce	-0.006042815
37	0xbc9e43a7	-0.019319369
38	0xbd2270df	-0.039658424
39	0xbc9fd63e	-0.019511338
40	0xbc1c1808	-0.009527214
41	0x3d832be3	0.06404855
42	0x3cb8821c	0.022522978
43	0x3d936e56	0.07198779
44	0x3d596f81	0.053084854
45	0xbc507557	-0.0127232885
46	0x3d4a082d	0.049324203
47	0xba811cb4	-0.0009850473
48	0x3cbe532f	0.023233024
49	0x3bcff0d2	0.0063458467
50	0x3cf60ce7	0.03003545
51	0xbd23277f	-0.03983259
52	0xbd5a96c1	-0.053366426
53	0xbc0cf8dc	-0.008604255
54	0xbca42718	-0.020038173
55	0x3d35855a	0.044316627
56	0x3d707551	0.05870563
57	0xbd80e65e	-0.06293939
58	0xbd1fc976	-0.039010487
59	0xbd7dac76	-0.06193205
60	0x3d78b010	0.06071478
61	0x3d50724e	0.05089026
62	0x3c19c188	0.00938452
63	0x3d6e0385	0.058108825
64	0x3ca38c8e	0.019964483
65	0x3cb444ac	0.022005402
66	0x3ce81492	0.028330121
67	0xbc3e870b	-0.011628876
68	0x3d8fa55d	0.070139624
69	0x3d01f142	0.031724222
70	0xbd946341	-0.07245494
71	0xbcfc6819	-0.030811356
72	0xbb9a7a44	-0.004714282
73	0xbcc722cf	-0.02430859
74	0x3caf944d	0.02143302
75	0x3cdb3c0b	0.02676203
76	0x3c4b047a	0.012391204
77	0x3d718bcc	0.05897121
78	0xbd49dbde	-0.049281947
79	0xbc839e3f	-0.016066669
80	0x3d889514	0.066690594
81	0xbd4fb8d1	-0.050713364
82	0x3d65e4dd	0.056126464
83	0xbc7cb5d8	-0.015424214
84	0x3cb9da7e	0.022687193
85	0x3c6ae270	0.0143362135
86	0x3b0cd859	0.0021491258
87	0xbd9448a9	-0.07240421
88	0xbd4019d0	-0.046899617
89	0x3d3eef49	0.04661492
90	0x3d943a09	0.07237632
91	0xbcd6129f	-0.026131926
92	0x3c3a4aca	0.01137037
93	0xbccb6834	-0.024829961
94	0xbc69199a	-0.014227295
95	0x3c725a83	0.0147920875
96	0xbd782154	-0.06057866
97	0x3c8d8ea4	0.01727993
98	0x3cbc63f9	0.02299689
99	0xbc268cf2	-0.01016544
100	0x3bd67ecf	0.0065458785
101	0xbcd8f37c	-0.02648329
102	0xbbd6f8e6	-0.0065604327
103	0x3be27464	0.0069108475
104	0xbd793dde	-0.060850017
105	0xbc22721c	-0.009914901
106	0x3d36f76f	0.044669565
107	0x3c2d19be	0.010565219
108	0xbd8ec31e	-0.069708094
109	0xbcecc2a6	-0.02890141
110	0xbd659f86	-0.056060337
111	0xbbd4a31a	-0.00648917
112	0x3c14372b	0.009046356
113	0x3d4b1f24	0.049590245
114	0xbd383656	-0.044973694
115	0x3d74808d	0.059692908
116	0x3ae6e810	0.0017616767
117	0x3d7bfea4	0.06152214
118	0x3d88ae6b	0.066738926
119	0x3d4afd84	0.049558178
120	0x3d1b5f47	0.03793266
121	0xbbf646e1	-0.0075157736
122	0xbc85cd9c	-0.016333394
123	0xbd59711b	-0.05308638
124	0x3c895a06	0.01676656
125	0xbd75b4f7	-0.059987035
126	0xbd548759	-0.05188689
127	0x3ccf896a	0.025334079
128	0x3d8238b2	0.0635847
129	0x3bda631a	0.006664646
130	0x3d96a315	0.07355324
131	0xbd8dd09e	-0.06924556
132	0xbba3e5f8	-0.0050017796
133	0xbd76f5af	-0.060292896
134	0xbd804f7c	-0.062651604
135	0xbd4c6af5	-0.04990669
136	0x3cc4949c	0.023996644
137	0x3c8a4a7b	0.016881218
138	0x3d6ee8cd	0.058327485
139	0x3c8f67f0	0.017505616
140	0x3d79c576	0.06097933
141	0xbc5e591d	-0.013571051
142	0xbd6b4057	-0.057434406
143	0x3d3e7ee3	0.046507727
144	0x3b2e772a	0.002662132
145	0x3d92ae82	0.07162191
146	0xbd8d9bc6	-0.06914477
147	0x3c0a3243	0.008434835
148	0xbd3a3486	-0.045460247
149	0xbd831334	-0.06400147
150	0xbd522641	-0.051306013
151	0x3d4ad91b	0.049523454
152	0xbd1aeac3	-0.037821542
153	0xbd4ea44a	-0.050449647
154	0x3d697882	0.05699969
155	0x3d14658e	0.036229663
156	0xbc25613e	-0.010093985
157	0xbcebc591	-0.02878073
158	0x3d5539c9	0.05205706
159	0x3bf82e16	0.0075738532
160	0x3d45dc8e	0.04830604
161	0xbd4d1748	-0.05007103
162	0xbcd21c32	-0.02564821
163	0xbd44e7cb	-0.048072618
164	0xbc31eaa9	-0.01085917
165	0xbc3b3b1e	-0.011427669
166	0xbd0084e0	-0.03137672
167	0xbb1058d5	-0.0022025604
168	0x3d356914	0.044289663
169	0xbd479d24	-0.048733845
170	0x3d14acb7	0.036297526
171	0xbd75e272	-0.06003041
172	0x3c901b5f	0.017591177
173	0xbcf304d7	-0.029665394
174	0xbcad50e7	-0.021156741
175	0xbb7190cc	-0.0036859987
176	0x3c1bc9a4	0.009508524
177	0x3ce8b3fa	0.028406132
178	0xbc893c59	-0.016752409
179	0xbd75ccb7	-0.060009684
180	0x3d913e4e	0.07091962
181	0xbd7372fe	-0.059435837
182	0x3d8dfe2c	0.06933245
183	0x3cca1dac	0.024672352
184	0x3d8d1432	0.068886176
185	0xbd128d44	-0.035779253
186	0xbc881a14	-0.016613998
187	0x3d3496f4	0.044089273
188	0x3d2422bc	0.040072188
189	0xbadae286	-0.0016699589
190	0x3cb48a7c	0.02203869
191	0x3ca0c142	0.019623403
192	0x3b8dc8c7	0.004326913
193	0x3cf87a24	0.030331679
194	0xbb74ba84	-0.0037342617
195	0x3c85ffda	0.016357351
196	0xbcfc86b5	-0.030825952
197	0x3d862d69	0.0655163
198	0x3d9bbee3	0.07604768
199	0x3d328036	0.043579303
200	0xbc56a569	-0.01310096
201	0x3d1c4947	0.03815582
202	0x3cc895e8	0.024485543
203	0xbca75822	-0.020427767
204	0x3c1d3617	0.009595416
205	0x3bfe32d6	0.007757525
206	0xbd62349d	-0.055225957
207	0x3d75a272	0.059969373
208	0x3d0f747e	0.035023205
209	0xbc9dba4b	-0.01925387
210	0xbd395e83	-0.04525615
211	0x3d8ee7bf	0.06977796
212	0xbc0d32e6	-0.008618092
213	0xbc235a94	-0.009970326
214	0x3d007120	0.031357884
215	0xbd26a6ff	-0.040686604
216	0xbd071835	-0.03298207
217	0xbd80f6e5	-0.062970914
218	0xbd432a26	-0.047647618
219	0x3d90af54	0.07064691
220	0x3c42d198	0.011890791
221	0x3d048099	0.032349203
222	0x3d802bcf	0.06258356
223	0xbaed11a6	-0.0018086925
224	0xbcb10b95	-0.021611968
225	0x3d82e693	0.06391635
226	0xbd438308	-0.047732383
227	0xbd4a0a4c	-0.049326226
228	0x3c3a3123	0.011364254
229	0x3cc2930e	0.023751762
230	0x3d4df75d	0.050284732
231	0x3d92bdd2	0.071651116
232	0xbc850dc5	-0.016241917
233	0xbd372100	-0.044709206
234	0x3ce71c23	0.028211659
235	0xbd5c6ced	-0.053814817
236	0xbd38791f	-0.045037385
237	0x3d8c8751	0.06861747
238	0xbd5b9ff4	-0.05361934
239	0x39eab6e6	0.00044768228
240	0xbd546655	-0.051855404
241	0x3b4dd3cd	0.003140676
242	0x3a820828	0.0009920644
243	0x3d93ecce	0.07222901
244	0xbafcec20	-0.0019296445
245	0x3d256f48	0.04038933
246	0x3c7da48b	0.015481125
247	0xbd3ffd3c	-0.046872362
248	0x3bfbb56a	0.0076815384
249	0x3d891815	0.066940464
250	0xbc2a07af	-0.0103778085
251	0x3cb515a0	0.022105038
252	0x3d54af16	0.051924787
253	0x39ccca56	0.00039060664
254	0x3d88f2f6	0.06686966
255	0x3d66e63e	0.05637192

sequential_60/conv2d_232/Conv2D f4 [32, 3, 3, 64]
0	0x3d9335a7	0.07187968
1	0xbc77b459	-0.015118682
2	0x3c925d09	0.017866628
3	0x3d16c59b	0.036809545
4	0x3cd93aac	0.026517235
5	0x3da02153	0.07818856
6	0xbd5cdd6a	-0.053922094
7	0xbc4e4a0a	-0.0125908945
8	0xbd531b55	-0.051539738
9	0xbd8cac05	-0.068687476
10	0xbb5a6d6a	-0.0033329376
11	0x3bce2e32	0.006292128
12	0x3c4a114f	0.012333228
13	0x3d706ce3	0.058697592
14	0xbd154c7e	-0.0364499
15	0x3d01f3b1	0.031726543
16	0x3ce5cbde	0.028051313
17	0xbd8befc7	-0.06832843
18	0x3d9b8e20	0.075954676
19	0xbd991438	-0.074745595
20	0xb8ae3efb	-8.3086976e-05
21	0xbbd5c7d4	-0.0065240655
22	0x3d5db31e	0.054125898
23	0xbc996776	-0.018726092
24	0x3d2db7b1	0.04241151
25	0x3d7036c0	0.058645964
26	0xbd519345	-0.051165838
27	0xbd950f46	-0.07278304
28	0x3d02daec	0.03194706
29	0x3cb945fb	0.022616377
30	0x3d2dde2a	0.0424482
31	0xbce69df3	-0.028151488
32	0x3d6e1629	0.058126602
33	0xbd7d35bb	-0.06181882
34	0xbda6f713	-0.081525944
35	0x3caf3829	0.021389084
36	0x3d2c9d4d	0.0421422
37	0xbca45b66	-0.020063113
38	0xbc3dd037	-0.011585287
39	0x3cbcae55	0.023032347
40	0xbd66e9de	-0.056375377
41	0xbd959778	-0.07304281
42	0xbd040899	-0.032234762
43	0xbd249452	-0.04018051
44	0xbd68a901	-0.0568018
45	0xbd8a0fa1	-0.06741262
46	0x3c3fda7a	0.011709804
47	0x3da219c1	0.079150684
48	0x3cbd8a28	0.023137167
49	0xbd2d5a5a	-0.042322494
50	0x3c8e902c	0.01740273
51	0xbaeb7aa3	-0.0017965626
52	0xbd6edcfa	-0.05831621
53	0x3d98aaef	0.07454478
54	0x3d018a03	0.03162576
55	0xbbf7dfef	-0.0075645368
56	0x3d8d50e5	0.06900195
57	0xbd6c4355	-0.0576814
58	0xbd250dd1	-0.04029638
59	0x3d81eefc	0.06344411
60	0xbcf9ccba	-0.030493129
61	0xbd6c263d	-0.057653654
62	0x3d98ea23	0.07466533
63	0xbbe4a813	-0.006978044
64	0xbcbecff5	-0.023292521
65	0xbd648809	-0.055793796
66	0xbd87996c	-0.0662106
67	0xbd8b61cd	-0.068057634
68	0xbd07f660	-0.033193946
69	0xbd262346	-0.040560983
70	0x3d1113d1	0.03541929
71	0xbd569b07	-0.05239394
72	0xbcffb14b	-0.03121247
73	0x3cebc022	0.02877814
74	0xbda1d9d3	-0.07902875
75	0x3d9e1871	0.077195056
76	0xbcf83d67	-0.030302716
77	0xbcc9af2e	-0.024619665
78	0x3cd1b1e4	0.02559752
79	0x3d6c02a3	0.057619702
80	0x3ce58b2f	0.02802047
81	0xbd9b1bdb	-0.075736724
82	0x3da90144	0.082521945
83	0x3d8b3672	0.06797494
84	0x3d95cff0	0.073150516
85	0xbc849ca8	-0.01618798
86	0x3c92cf72	0.017921183
87	0xbd9308d1	-0.07179416
88	0x3d2e03ab	0.042483967
89	0x3d130e6a	0.03590242
90	0xbd7773ba	-0.0604131
91	0xbd817dc0	-0.06322813
92	0x3d12062b	0.035650413
93	0xbd3cde52	-0.04611046
94	0x3bac005b	0.005249066
95	0x3d384f04	0.04499723
96	0x3d03d105	0.03218176
97	0xbd5f014e	-0.054444604
98	0x3aecc82d	0.0018065028
99	0xbd85280a	-0.065017775
100	0xbd9afab3	-0.07567348
101	0xbda55c80	-0.080742836
102	0xbd07c94f	-0.033150967
103	0xbdae846e	-0.08521353
104	0xbd0819d3	-0.033227753
105	0x3d973939	0.07383961
106	0xbd9563b8	-0.072944105
107	0xbd9a14ad	-0.07523475
108	0xbdaae1bd	-0.083438374
109	0x3cb3be21	0.021941246
110	0x3d97c28b	0.07410153
111	0x3c8d3e66	0.017241668
112	0xbdaa7f1a	-0.08325024
113	0xbd8880a5	-0.06665162
114	0xbd8c7009	-0.068573065
115	0x3ce0b0b8	0.027428016
116	0xbd83cb0b	-0.06435212
117	0x3d29297b	0.041299324
118	0x3da2cbd8	0.07949036
119	0xbd7dd6d1	-0.061972443
120	0x3d6b09d0	0.057382405
121	0x3da5fcf3	0.08104887
122	0xbd2710dd	-0.040787566
123	0xbd4fa2ce	-0.050692372
124	0x3d317fa6	0.043334626
125	0x3ce68ab7	0.028142316
126	0x3d1c710e	0.038193755
127	0xbda82148	-0.08209473
128	0x3c5a04c7	0.013306803
129	0xbda852f7	-0.08218949
130	0xbd3adc32	-0.04562015
131	0x3d0f2a66	0.034952544
132	0xbca8e25e	-0.020615753
133	0xbb8fc3eb	-0.004387369
134	0xbd8b01f3	-0.06787481
135	0xbcc07cba	-0.023496974
136	0xbd9564dc	-0.07294628
137	0x3d3cccf8	0.04609391
138	0x3d6b3f35	0.057433326
139	0xbd03fbe1	-0.032222632
140	0x3d1cd901	0.03829289
141	0x3d5d61c7	0.054048326
142	0x3bb19695	0.005419562
143	0x3d234c8d	0.039867926
144	0x3cf7e972	0.030262683
145	0xbd883d36	-0.066523
146	0xbd167807	-0.03673556
147	0x3d1d7aec	0.038447306
148	0x3d49b367	0.049243357
149	0xbd84ed3d	-0.06490562
150	0x3c37fb62	0.011229368
151	0x3c401d6c	0.011725765
152	0x3d8c2d05	0.06844524
153	0xbce112d9	-0.027474808
154	0xbc460b99	-0.012087726
155	0x3d8a64dc	0.06757519
156	0xbd894113	-0.06701865
157	0xbd045201	-0.032304768
158	0xbc929238	-0.017891988
159	0xbcbd661b	-0.023119977
160	0xbd50a302	-0.050936706
161	0x3b914649	0.0044334275
162	0xbd8c14ce	-0.06839906
163	0x3cfb7c01	0.030698778
164	0x3d0a4644	0.033758417
165	0xbd953b25	-0.072866715
166	0x3d5b0f26	0.053481244
167	0x3d504977	0.05085131
168	0xbc6ecf14	-0.014575738
169	0x3d0a25a9	0.03372732
170	0xbcd623ad	-0.026140058
171	0x3d880a33	0.0664257
172	0x3c1a85cd	0.009431315
173	0x3d893389	0.06699283
174	0xbd9539f5	-0.07286445
175	0x3cae1e73	0.021254754
176	0x3ce4541e	0.027872141
177	0xbd3c0ad1	-0.045908753
178	0xbd0fa960	-0.035073638
179	0xbd9e391a	-0.07725735
180	0xbcd16b6c	-0.025563918
181	0x3caa4c2a	0.020788271
182	0x3d290a69	0.041269694
183	0x3da22cae	0.07918678
184	0xbcbe0a66	-0.023198318
185	0x3d0bd02c	0.034134075
186	0x3d9704fd	0.07373998
187	0xb9c87aa3	-0.00038238344
188	0x3c87afe9	0.016563373
189	0xbd8673ea	-0.065650776
190	0xbc4a3f90	-0.012344256
191	0x3d737e77	0.05944678
192	0xbd7c96fe	-0.061667435
193	0x3d48f037	0.04905721
194	0x3c97b01e	0.018516596
195	0x3ca61ab2	0.020276401
196	0xbd0b25ee	-0.03397172
197	0xbd45f3b5	-0.04832812
198	0xbb9e1096	-0.0048237545
199	0x3d59bc47	0.05315807
200	0x3d5bfcac	0.053707764
201	0xbb824b65	-0.003976273
202	0xbabd62fb	-0.0014449054
203	0x3bda54cb	0.00666294
204	0xbce92d5d	-0.028464014
205	0xbd2ae946	-0.041726373
206	0xbd1b763c	-0.037954554
207	0xbb5ec0b8	-0.003398938
208	0x3d8ee81f	0.06977867
209	0xbd908625	-0.07056836
210	0x3cbda361	0.023149194
211	0xbd02573b	-0.03182147
212	0xbd3e06e1	-0.04639328
213	0x3c43767b	0.011930103
214	0x3d8cc900	0.06874275
215	0xbd1af3fa	-0.03783033
216	0xbd3bfa90	-0.045893252
217	0x3b424791	0.0029644708
218	0x3d4482c0	0.047976255
219	0x3d817e07	0.06322866
220	0x3d2fb7b0	0.042899787
221	0xbc884196	-0.016632836
222	0x38077cad	3.230262e-05
223	0xbaf3fa30	-0.001861399
224	0x3d7cfc87	0.061764266
225	0x3c5ee01c	0.0136032365
226	0x3ccc222f	0.024918644
227	0x3d540cbb	0.051769953
228	0xbdacc28d	-0.08435545
229	0xbc3e46ca	-0.011613557
230	0xbd515b11	-0.05111224
231	0xbd986f04	-0.074430496
232	0xbd90b27c	-0.07065293
233	0x3d106146	0.035249017
234	0x3a64c2c1	0.00087265304
235	0x3d2d8d9a	0.04237137
236	0xbdaa49ab	-0.08314832
237	0xbc616a59	-0.013758265
238	0xbcd98485	-0.026552448
239	0x3d8f9a58	0.070118606
240	0x3bd534c0	0.0065065324
241	0x3c75377b	0.014966841
242	0xb9adbceb	-0.00033137886
243	0x3b1a367b	0.0023531008
244	0x3d07db50	0.033168137
245	0xbd264b3d	-0.040599097
246	0x3d7f0269	0.062258158
247	0xbd6f69a1	-0.058450345
248	0x3c9c9588	0.01911427
249	0x3d2211b6	0.03956767
250	0xba2fc63e	-0.00067052606
251	0xbd9d1bba	-0.07671304
252	0x3c99a0f4	0.018753506
253	0x3d843ace	0.064565286
254	0x3d2e8b19	0.042613123
255	0x3cc30b57	0.023809118

sequential_60/conv2d_233/Conv2D f4 [32, 3, 3, 32]
0	0xbceb899b	-0.028752139
1	0xbdbd9d95	-0.09258572
2	0xbd0a428a	-0.033754863
3	0x3d2ca690	0.042151034
4	0x3c18a3d7	0.009316406
5	0xbdded6e6	-0.108808324
6	0x3c4a1ec7	0.012336439
7	0x3d692f29	0.05692974
8	0xbd312c48	-0.04325512
9	0x3d64c9f9	0.05585668
10	0x3d530cbf	0.051525827
11	0xbd9daae3	-0.0769861
12	0xbd2020e3	-0.039093863
13	0xbcf41166	-0.029793452
14	0xbcf04293	-0.02932862
15	0xbd063ba9	-0.03277174
16	0x3c75ddb2	0.01500647
17	0xbdc0b415	-0.09409348
18	0xbdbf2c90	-0.093346715
19	0x3d872381	0.06598569
20	0x3d16049a	0.036625482
21	0xbd8e854f	-0.0695902
22	0xbcddaff0	-0.027061433
23	0x3e003749	0.1252109
24	0x3d9ac588	0.07557207
25	0xbc92ab45	-0.017903933
26	0xbdb33261	-0.087498434
27	0xbc947460	-0.018121898
28	0xbd2e4e05	-0.042554874
29	0xbda8c218	-0.082401454
30	0xbcad94bf	-0.021189092
31	0xbdd3178b	-0.10307225
32	0x3d6a355e	0.0571798
33	0xbc29e550	-0.010369614
34	0x3a92c9e8	0.0011199089
35	0x3d8250ae	0.06363045
36	0xbdb7a629	-0.089672394
37	0xbde4a692	-0.11164583
38	0x3cdc1475	0.026865223
39	0x3ddecdc3	0.1087909
40	0x3c9a3cb6	0.018827777
41	0xbcd83494	-0.026392259
42	0x3d493812	0.04912574
43	0xbb43eceb	-0.0029895853
44	0x3d932c29	0.07186157
45	0xbd64fa85	-0.055902977
46	0xbde29e19	-0.11065311
47	0x3ca49ea8	0.020095184
48	0xbdb940cc	-0.09045562
49	0xbda5205b	-0.08062812
50	0x3cfb5cd8	0.03068392
51	0x3dbf3715	0.09336678
52	0x3dcd0fe1	0.10012794
53	0x3d63da28	0.055627972
54	0x3c9d0422	0.01916701
55	0x3dcaf410	0.099098325
56	0xbdc8da36	-0.098072454
57	0x3dc4a7f8	0.0960235
58	0x3d02708f	0.031845625
59	0xbd161e26	-0.036649846
60	0x3dc988d7	0.09840553
61	0x3c05a26a	0.008156398
62	0xbd887811	-0.06663526
63	0xbd163653	-0.0366729
64	0xbd211665	-0.039327998
65	0x3cb2d67d	0.021830792
66	0x3d42ed43	0.04758955
67	0xbd9df0d2	-0.077119485
68	0x3d9c1148	0.07620484
69	0x3d05db48	0.032679826
70	0x3db409c5	0.08790926
71	0xbcac29e1	-0.021016063
72	0xbc90a8c3	-0.017658597
73	0x3ad6937c	0.0016370858
74	0xbc80c880	-0.015720606
75	0xbd88baf4	-0.066762835
76	0xbd853b1f	-0.06505417
77	0xbd926b2e	-0.07149349
78	0xbe19ddf0	-0.15026069
79	0xbdc94056	-0.09826724
80	0x3d80fd10	0.06298268
81	0x3d90cb4e	0.07070027
82	0x3d56a5b5	0.052404124
83	0x3ddd096d	0.107928135
84	0xbdb18a64	-0.08668974
85	0xbc4e6e84	-0.012599591
86	0x3da8c75f	0.08241152
87	0x3ddbc1ff	0.10730361
88	0x3d3f9e98	0.046782106
89	0x3d8adf35	0.067808546
90	0x3c3b0c65	0.011416529
91	0x3d2a7006	0.04161074
92	0x3cb24ce5	0.021765182
93	0x3db1983f	0.08671617
94	0x3c0bca6a	0.008532146
95	0x3d99dcfa	0.07512851
96	0x3d3862e4	0.045016184
97	0x3da9cbbd	0.08290813
98	0xbcb190ef	-0.021675555
99	0x3da71b8c	0.08159551
100	0x3cb7aaaf	0.022420255
101	0x3d39a1df	0.045320388
102	0xbd345856	-0.044029556
103	0xbd91d22e	-0.07120167
104	0x3d50db7b	0.050990563
105	0xbdca3365	-0.09873084
106	0x3bf24f70	0.0073947236
107	0x3d5e393a	0.054253794
108	0xbd9d61ed	-0.076846935
109	0x3c87d315	0.016580144
110	0x39100456	0.00013734525
111	0xbce71488	-0.028208032
112	0x3dc85513	0.097818516
113	0xbd9680fb	-0.0734882
114	0x3cf2560f	0.029582052
115	0xbcf897db	-0.030345848
116	0x3c6198bb	0.013769324
117	0x3db38640	0.087658405
118	0xbd8385ae	-0.06421982
119	0xbd395511	-0.04524714
120	0xbc77eb3d	-0.015131769
121	0x3c58bee2	0.013229104
122	0xbd4b7673	-0.04967351
123	0xbd8b9679	-0.0681581
124	0x3dbbd282	0.091710106
125	0xbc12edce	-0.00896783
126	0x3c82f234	0.015984632
127	0xbd8df2a3	-0.06931045
128	0xbca78627	-0.020449711
129	0xbdad43a4	-0.08460167
130	0xbc290373	-0.010315764
131	0x3db6c0b6	0.089234754
132	0x3daba9c3	0.08381989
133	0xbd47b8eb	-0.048760336
134	0x3d2a2aa6	0.04154458
135	0xbd801cb3	-0.06255474
136	0xbc116ad2	-0.008875566
137	0x3ce44995	0.027867118
138	0x3d81a286	0.06329827
139	0xbcb0216c	-0.021500312
140	0xbd17fefd	-0.03710841
141	0xbcc0ef02	-0.023551468
142	0xbd9d7a89	-0.07689387
143	0xbcd6d705	-0.026225576
144	0x3d38ed22	0.045148022
145	0xbd7ad3e3	-0.061237227
146	0x3ca65f05	0.02030898
147	0x3dac0f74	0.08401385
148	0xbc648a02	-0.013948919
149	0xbc39bbbb	-0.011336262
150	0xbdc4d099	-0.09610099
151	0x3d21f72f	0.039542373
152	0xbc8adad8	-0.016950056
153	0xbdac1cd5	-0.08403937
154	0x3d59126c	0.052996084
155	0xbd50fc7b	-0.051022034
156	0x3cdb029a	0.026734639
157	0xbdbf8836	-0.09352152
158	0xbd2f42ba	-0.042788245
159	0x3d5c7185	0.0538192
160	0x3dac19dc	0.0840337
161	0xbdd051a6	-0.10171823
162	0x3dc213e1	0.09476448
163	0xbd37c0e5	-0.044861693
164	0x3d007043	0.03135706
165	0xbd12765c	-0.035757408
166	0xbd8ece0e	-0.069728956
167	0x3cdf28ee	0.027241196
168	0x3dae7a6f	0.08519446
169	0xbd956e60	-0.07296443
170	0xbd1ff13c	-0.03904842
171	0xbc7625a1	-0.01502362
172	0x3a346611	0.0006881664
173	0xbd9d69b1	-0.07686175
174	0xbd90aa2b	-0.07063707
175	0xbb845dae	-0.004039488
176	0x3dcc5041	0.09976245
177	0xbdb39dab	-0.08770307
178	0x3d8aa016	0.06768815
179	0xbdbe5634	-0.09293786
180	0xbd0f410a	-0.034974135
181	0x3d6a6854	0.0572284
182	0xbd549351	-0.051898304
183	0x3d807a8c	0.06273374
184	0x3d994969	0.07484705
185	0xbd565cdf	-0.052334663
186	0x3d1506ee	0.03638356
187	0xbcd3e2d4	-0.025864996
188	0x3d7f256a	0.06229154
189	0xbd7da2bf	-0.061922785
190	0xbca48b85	-0.02008606
191	0x3cb3030b	0.021852037
192	0x3d9713ce	0.07376824
193	0xbd2b4bd9	-0.04182038
194	0x3c89cca2	0.01682121
195	0xbd8eac06	-0.069664046
196	0x3d0101b7	0.031495776
197	0x3c2e9e81	0.010657907
198	0x3d9d3c03	0.07677462
199	0x3dcc3dba	0.09972711
200	0x3d89a88d	0.06721602
201	0xbba49d50	-0.005023636
202	0xbe08452c	-0.13307637
203	0x3d978d0b	0.07399949
204	0x3c7917f3	0.015203464
205	0xbdb84750	-0.08997977
206	0x3d3ce172	0.04611344
207	0x3dab3b3b	0.08360907
208	0x3da787a0	0.08180165
209	0x3d9bb42e	0.07602726
210	0x3d25a146	0.040437005
211	0x3d5515e2	0.052022822
212	0x3d103d6a	0.03521482
213	0x3d6f0620	0.05835545
214	0x3d3455bd	0.04402708
215	0xbd786bd7	-0.06064972
216	0x3d824168	0.063601315
217	0x3d168d26	0.036755703
218	0xbdb52010	-0.08844006
219	0xbdc6bee0	-0.09704375
220	0xbc7a03b9	-0.015259677
221	0xbdf760e3	-0.120790266
222	0xbd53f75d	-0.051749576
223	0xbd73694f	-0.059426602
224	0x3c58b9b0	0.013227865
225	0xbdcd1d89	-0.10015399
226	0x3d7b4395	0.061343748
227	0xbda6d5c5	-0.08146242
228	0xbd3054e4	-0.043049708
229	0xbdbf04bd	-0.09327076
230	0xbdcdc33c	-0.100470036
231	0x3dcb8d1e	0.09939025
232	0xbc92ed33	-0.017935371
233	0xbd0a5d90	-0.033780634
234	0x3c10fcb1	0.008849309
235	0xbd36319a	-0.044480897
236	0xbd5c27a9	-0.05374876
237	0x3d8d432b	0.06897577
238	0x3d8b29d8	0.067950904
239	0xbd7203a7	-0.059085514
240	0xbd53f066	-0.051742934
241	0x3d16b5f9	0.036794636
242	0x3dce7c05	0.100822486
243	0xbcdde290	-0.027085572
244	0x3d8f0c58	0.06984776
245	0x3da6184a	0.081101015
246	0x3ce3240d	0.027727151
247	0x3d00ca18	0.03144273
248	0x3d87dacb	0.06633528
249	0x3be2f0f4	0.0069256965
250	0x3cb204a9	0.021730738
251	0x3d2b3590	0.041799128
252	0xbcb57f00	-0.022155285
253	0x3d7e3ac6	0.06206777
254	0x3d651475	0.055927712
255	0xbdad1006	-0.08450322
