app/app/src/main/assets/car_horn.tflite (tflite, 324912 bytes, 9 tensors)

sequential_18/conv2d_67/BiasAdd/ReadVariableOp/resource f4 [32]
000000 9d dc cd ba 1c b3 06 3a ae 31 d5 39 b8 ef 45 ba
       -0.0015706007 0.0005138384 0.0004066354 -0.00075506745
000010 d9 90 52 38 3f df 04 3a 55 27 8d 3a 37 4e 16 39
       5.02028e-05 0.00050686667 0.0010769168 0.00014334252
000020 c9 59 a9 3a 77 b7 f7 ba 97 4c 27 bb 0a 31 a1 3a
       0.0012920435 -0.0018899281 -0.002552783 0.001229794
000030 d6 88 6b 3a ea f4 8a 3a 00 12 4d ba 5e 63 80 bb
       0.0008984929 0.0010601555 -0.00078228116 -0.0039180955
000040 84 91 b1 b9 a9 fe 95 b9 d9 30 86 3a d7 fe b0 ba
       -0.00033868488 -0.0002860923 0.0010237946 -0.0013503683
000050 82 1d 32 bb e0 82 7f b6 e2 4e 96 3a 98 1d b2 39
       -0.0027178233 -3.807414e-06 0.0011467601 0.00033972855
000060 96 bb e5 3a 3b 67 4a ba 19 63 01 b9 bf fb 07 bb
       0.0017527218 -0.0007721071 -0.00012339315 -0.0020749418
000070 6b 66 c4 b9 73 6d 1b 3a 6b 32 0d 3a d4 1f fd 3a
       -0.0003746034 0.000592909 0.0005386236 0.0019311854

sequential_18/conv2d_68/BiasAdd/ReadVariableOp/resource f4 [64]
000000 ac 8a 1f ba 62 7c 9f b9 3b 62 d8 3a 41 a5 29 ba
       -0.00060860324 -0.00030419516 0.0016508767 -0.0006471463
000010 4b 29 66 bb 5e 0b 3b b8 82 89 f0 b9 95 cc 0f ba
       -0.0035119827 -4.459486e-05 -0.00045878818 -0.0005485502
000020 2a a7 2e ba 35 e8 8b ba c5 b5 b5 ba 82 4a 0b ba
       -0.00066624826 -0.0010674061 -0.0013863376 -0.0005313532
000030 d3 83 45 3a 99 f8 7c 38 22 8b 88 ba c0 6a 04 b9
       0.0007534597 6.0313007e-05 -0.0010417441 -0.00012628268
000040 97 8d de b7 2c de 67 ba b6 69 c6 ba cf 70 12 ba
       -2.6530395e-05 -0.0008845057 -0.0015137705 -0.0005586268
000050 23 b3 17 bb b0 94 d7 38 7a d7 a6 ba e3 56 91 ba
       -0.0023147545 0.00010279694 -0.0012729012 -0.0011088516
000060 b1 4e bb ba 3d 15 64 39 f7 63 c9 39 db 02 55 3a
       -0.001429042 0.00021751686 0.00038412187 0.00081257307
000070 22 c4 94 3a 8a e8 c5 38 c6 a0 e0 ba 25 bf 3d b9
       0.0011349956 9.437006e-05 -0.0017137758 -0.00018095651
000080 98 e0 ad 39 ff 7a 31 ba 4c 5d b5 b9 32 10 95 3a
       0.00033164467 -0.0006770342 -0.00034592522 0.0011372624
000090 4c 6f 84 39 77 6a 65 3a 9e b4 a4 ba ec 32 cb ba
       0.00025259925 0.0008751521 -0.0012566035 -0.0015502847
0000a0 4d 7d 9f ba e4 bc ff b9 c8 32 2c ba 3a 60 ee 38
       -0.001216808 -0.00048778125 -0.00065688463 0.00011366648
0000b0 23 37 95 ba f1 dc 55 b9 00 d4 93 ba a0 40 8e ba
       -0.001138423 -0.0002039557 -0.0011278391 -0.0010853
0000c0 a1 14 e8 b7 16 69 e5 3a 76 d5 ce ba 6f 3c 35 bb
       -2.7666161e-05 0.0017502632 -0.0015780169 -0.002765443
0000d0 1a 37 18 3a 9f 56 be b8 90 92 b1 3a f1 b6 39 ba
       0.00058065506 -9.0760404e-05 0.0013547707 -0.00070844503
0000e0 95 f6 5a ba 08 c1 68 ba b3 5b 2f 39 56 38 08 39
       -0.00083527836 -0.00088788616 0.00016723461 0.00012990957
0000f0 96 d1 47 ba cf 66 9e 39 2f bb 65 39 ab 4a db b9
       -0.00076224783 0.00030212707 0.00021908873 -0.00041826567

sequential_18/conv2d_69/BiasAdd/ReadVariableOp/resource f4 [32]
000000 cd ef 5c ba d1 cc dd ba 28 fc 8b ba 2b e3 4e bb
       -0.0008428067 -0.0016922002 -0.0010680007 -0.0031568508
000010 68 0f 00 bb a7 05 0f 38 0e fe 37 ba 3a 82 08 ba
       -0.0019540433 3.409912e-05 -0.0007018753 -0.00052073936
000020 23 45 80 bb c6 66 83 ba b1 b7 25 bb f8 0a 1a 36
       -0.0039144917 -0.0010025136 -0.002528649 2.2954173e-06
000030 dc bf f1 b9 e2 b8 27 ba 0a 7f 30 ba 3c 8c cd 3a
       -0.00046110048 -0.0006398094 -0.00067327975 0.0015682052
000040 c6 c6 36 3a 60 46 50 39 39 99 b3 39 fa 58 07 ba
       0.00069723686 0.00019862643 0.000342557 -0.00051631
000050 80 13 58 35 0d fc 42 bb c4 a8 85 39 45 2f bf ba
       8.0494647e-07 -0.0029752285 0.00025493477 -0.0014586231
000060 5c 44 0b 38 0a b1 37 3b 30 be 12 bb 86 7f 8c 3a
       3.3203847e-05 0.0028029107 -0.0022391193 0.0010719157
000070 fb bb 69 ba 69 60 15 bb f7 cf 8f 37 e8 cc 45 b7
       -0.0008916256 -0.002279306 1.714377e-05 -1.17898235e-05

sequential_18/dense_47/BiasAdd/ReadVariableOp/resource f4 [16]
000000 3e 75 5e bb 92 c8 c4 bb a3 36 c5 ba c0 03 3d bb
       -0.0033944394 -0.006005355 -0.001504619 -0.0028841347
000010 42 9a 95 ba 1f cc 5e bb be c7 3b ba 25 22 03 bb
       -0.001141377 -0.0033996177 -0.0007163248 -0.0020009365
000020 7c 77 2b bb c7 30 36 3c 27 80 15 3b 94 64 9a 3a
       -0.0026163748 0.011120028 0.002281198 0.0011779242
000030 09 53 81 ba 6e af 38 3b 17 fc bb 3b 88 e3 06 bb
       -0.0009866665 0.0028180736 0.0057368386 -0.0020582397

sequential_18/dense_47/MatMul f4 [16, 2688]
000000 d1 af e4 3c d6 57 f8 bc e2 08 34 bc 6e 1c 34 bd
       0.027915867 -0.030315321 -0.010988446 -0.043972425
000010 73 44 dd bc 4c 1c b1 3b 56 e2 a2 bc e0 dd 84 bc
       -0.027010178 0.0054049846 -0.019883316 -0.01621908
000020 41 ef 29 bd 6d 8d be bc 48 07 9d bc 19 96 2a 3d
       -0.041487936 -0.023260796 -0.019168511 0.04164705
000030 1e b1 8f 3c 93 bf 83 3c b8 86 1f bd 9f d5 88 bc
       0.01754051 0.01608256 -0.038946837 -0.016703425
000040 fb 2d 85 3c 8c a6 95 bc 02 c9 00 bc dd 6e 16 bc
       0.016257277 -0.018267892 -0.007860424 -0.009181705
000050 55 72 cf 3c a4 97 1c bd 0f d6 60 3c 8e 2f 11 bd
       0.025323072 -0.038230553 0.013722911 -0.035445742
000060 94 46 1b bd db 52 a0 3c 8a e2 ac bc 30 0e f4 bb
       -0.037909105 0.019570759 -0.021104116 -0.0074479803
000070 b1 a7 17 bd 20 b4 51 bc 4e 22 e6 bb bf 32 44 bd
       -0.037025157 -0.012799293 -0.0070231324 -0.047899958
000080 7c ae 45 bd 8a d1 07 3d 23 08 01 bd a9 1f 2c 3c
       -0.048262104 0.033158816 -0.0315019 0.010505595
000090 14 fa bc 3c b5 bf e7 3c bb 9d bb 3c 30 cb 2a bb
       0.023068465 0.028289655 0.02290236 -0.002606105
0000a0 ed f0 4c bc 84 e3 17 3d 5e 23 22 bc 63 49 11 bd
       -0.012508613 0.03708221 -0.0098961275 -0.035470378
0000b0 6e 31 35 bd 5f b0 06 3d f8 42 f5 3c ae cc e8 bc
       -0.044236593 0.032883044 0.02993916 -0.028417911
0000c0 a6 56 1e bd 3f 8f 2f 3d 43 76 20 bd 28 6c da 3c
       -0.038656853 0.04286122 -0.039175283 0.026662901
0000d0 4e 5f e2 bb 23 8d 88 3c 3c d6 1a bd e7 24 e4 3c
       -0.006908334 0.016668862 -0.037801966 0.027849628
0000e0 ca 7a 15 3d 2f 5f 1b 3d 55 0b 42 3c b0 6c 0f bd
       0.036494054 0.03793257 0.011843522 -0.03501576
0000f0 35 79 84 3c 41 86 20 bc ea 44 26 bd 38 c8 f7 3b
       0.016171077 -0.009797634 -0.040593065 0.0075617097
000100 5d fc 1c bd e5 2f ec bc a7 fd 56 bc cf fe e9 3b
       -0.03832661 -0.028831432 -0.013121999 0.0071409713
000110 1f e9 9d 3b 0a ef 11 ba db 35 a1 bb a0 4a 96 3b
       0.00481905 -0.00055669306 -0.00491975 0.0045865327
000120 fb 0e 44 bd 0d 8f 32 3d 6d b8 fd bc 4b b8 03 3b
       -0.04786585 0.043593455 -0.03097173 0.002009886
000130 d6 e2 e3 3c 78 57 fc 3c f7 7d 9b 3b 77 67 e4 bc
       0.027818125 0.030803427 0.004745241 -0.027881367
000140 44 92 28 3d 40 2c fa 3c 7e d3 97 ba 75 0d f7 39
       0.041155115 0.030538678 -0.0011583415 0.00047121538
000150 68 f2 90 3c 69 ef a3 bc 3e de 2b 3b 9d ef c3 bc
       0.017693713 -0.02001162 0.0026224996 -0.023917967
000160 76 b0 36 bd b5 ac e5 bc 34 e8 e0 3b 8a 47 10 39
       -0.04460188 -0.028036455 0.0068636183 0.0001375956
000170 ef 3e 59 3c 9b 31 2f bd 74 b4 f5 3b ae dc 72 3b
       0.013259633 -0.042771917 0.0074983183 0.0037057805
000180 0f 72 12 3c ed 6d ad bb 0d 36 df 3c ee ff 1b 3d
       0.0089383265 -0.005292645 0.027247453 0.03808587
000190 2a 01 94 3c e1 b6 07 bc 0d 2b 2f bd 47 41 ef 3c
       0.018066961 -0.008283348 -0.042765666 0.029205931
0001a0 bd c8 a6 bc 1e 57 c5 bc 3c c8 19 bd 72 04 cf bc
       -0.020359391 -0.024089392 -0.037544474 -0.025270674
0001b0 8c 30 36 bd 66 b0 bf 3c a0 1d 13 bd d5 49 be 3c
       -0.04447989 0.023399543 -0.035916924 0.023228565
0001c0 2e 4b c5 3c a8 16 1b 3d b9 4f 08 3d 9c 19 f1 3c
       0.0240837 0.037863404 0.033279154 0.029431157
0001d0 47 4c 97 3c 10 75 e7 bb 7e 46 36 3d 24 f2 c4 3c
       0.018468989 -0.0070635155 0.04450082 0.024041243
0001e0 7c 3e c0 bc 0c c4 0a bd ec af eb 3c fc ca 00 3d
       -0.023467295 -0.03387837 0.02877041 0.03144358
0001f0 a9 36 d5 bc 35 8f fb 3b 06 62 42 3d 56 d8 86 bc
       -0.02602704 0.0076769837 0.047456764 -0.016460579
000200 e0 de f4 3c 18 53 2f 3d 6e 44 11 bd 81 d1 0f 3d
       0.029891431 0.042803854 -0.03546565 0.035111908
000210 62 6a 1a bd 64 73 10 3c e9 10 a7 3c d7 69 05 3d
       -0.03769911 0.008816574 0.020393806 0.03257164
000220 1f 58 be bc ce ba 50 3c 4d 49 23 3d d9 7c b4 bc
       -0.023235379 0.01273985 0.039864827 -0.022032188
000230 08 98 42 3c 2a f1 4d 3c b1 2f c6 3c a6 93 6c bc
       0.011877067 0.012569705 0.024192663 -0.014439499
000240 e8 bd 3f bc 89 45 d1 3c ba fb 06 bd 02 c0 79 bc
       -0.011702992 0.025545852 -0.03295491 -0.015243532
000250 6e 3a 10 ba cc c7 dc bc 58 5d 8c 3c fb 62 b3 3c
       -0.0005501871 -0.02695074 0.017134354 0.021897784
000260 68 86 25 bd 16 69 89 3c 39 c6 f9 bb 30 9f c6 3c
       -0.040411383 0.016773742 -0.007622507 0.024245828
000270 bc 8f 27 3d db 23 54 3b 29 64 58 3b fb 06 a3 bc
       0.04090856 0.0032370004 0.0033018684 -0.01990079
000280 16 d1 c6 3c 08 e2 18 bc 66 79 22 bd 20 da ea 3b
       0.024269622 -0.009331234 -0.039666556 0.007167116
000290 b4 6f e8 bc d8 2f 65 3c 9c 3c 4a bd c4 59 96 bb
       -0.028373577 0.013988458 -0.049374208 -0.0045883376
0002a0 29 21 0b bd 73 17 91 bc e1 df c4 bb 69 e9 1a 3d
       -0.03396717 -0.017711377 -0.0060081338 0.037820254
0002b0 37 94 50 3c db e4 29 3c 44 5b 0a bd 67 cd d3 3c
       0.01273065 0.010369505 -0.033778444 0.02585478
0002c0 fe 48 c4 bc d2 b8 2b bc f2 9c 0c bd eb e0 f5 bc
       -0.023960587 -0.010481076 -0.034329362 -0.030014476
0002d0 11 32 30 3d c2 3b 08 3d f2 23 ad bc 06 0c 00 bd
       0.043016497 0.033260114 -0.021135304 -0.031261466
0002e0 48 99 91 bc 3a 28 05 bd 5f df 33 bd 52 28 3a 3d
       -0.017773286 -0.032509066 -0.043914195 0.04544861
0002f0 c7 05 ea bc b0 dc e8 3c c4 74 2d bd 81 be 95 3c
       -0.028567208 0.028425545 -0.042347685 0.018279316
000300 d5 2a 7b bc 3f 4d 42 bd f0 d0 02 3d 83 23 1d bd
       -0.015330036 -0.04743695 0.03193754 -0.038363945
000310 89 1d 91 bc 96 57 a1 3c 2d f8 27 bd 75 b2 00 bc
       -0.017714279 0.019695085 -0.041008163 -0.0078550475
000320 bd 18 e6 3c 28 8a 44 3d e9 05 11 3c 15 ca 88 39
       0.028087968 0.04798332 0.008851507 0.00026090504
000330 1e 7d 80 3c 90 d2 b0 3c 26 b0 24 3b 3e 4a 3e 3d
       0.01568466 0.021584779 0.0025129407 0.04645752
000340 6a 27 b0 bb 93 81 b2 3c 36 1b 36 bc 71 81 4b 3b
       -0.0053757923 0.021790301 -0.011114886 0.0031052495
000350 94 cf 0b bb 23 18 17 3d c4 43 bd 3a cd 16 ce bb
       -0.0021333443 0.036888253 0.0014439751 -0.006289339
000360 2a 8b 95 3c c4 d3 d1 3b 4f 37 c2 bb 28 b6 95 ba
       0.018254835 0.0064034183 -0.0059270035 -0.0011422085
000370 73 49 e7 bb 99 e4 c6 39 08 aa 41 3d 79 f4 30 bc
       -0.0070583164 0.00037935821 0.047281295 -0.010800474
000380 a7 c4 ff bc cf 6e 80 3c 9b 4c 0c bd 66 b6 00 bc
       -0.0312217 0.015677838 -0.034252744 -0.007855987
000390 12 9a b0 bb da 39 bb 3c 31 7d 9a bb 3a 1e 2e bd
       -0.0053894604 0.022854734 -0.004714631 -0.042509295
0003a0 0d 88 e4 3c 56 4f 1b bd 31 60 47 bd 65 ba 18 3d
       0.027896905 -0.037917458 -0.04867572 0.037287135
0003b0 bd af c0 3c 15 4f 00 bd 12 d3 1a bc 61 04 17 3d
       0.023521299 -0.03132542 -0.009449737 0.03686941
0003c0 95 14 09 3d 1b 58 85 bc c0 60 0e bd 1e c5 9c bc
       0.033466894 -0.016277364 -0.034760237 -0.019136962
0003d0 e3 ec c4 3c 75 64 e9 bc d0 1a 03 bd f8 18 5a bb
       0.024038738 -0.028490284 -0.032007992 -0.0033279043
0003e0 3f 8b 32 bd 42 5c 5c ba 5f 78 38 bd 1c a5 03 bd
       -0.043589827 -0.00084060815 -0.04503667 -0.032139882
0003f0 8d 55 30 3b 5f 7d 25 ba 40 47 87 ba 27 ec a6 bc
       0.002690646 -0.0006312932 -0.0010320917 -0.020376278

sequential_18/dense_48/MatMul f4 [1, 16]
000000 53 76 0c 3f d3 b0 00 3f 62 93 95 3e 95 bd b2 3e
       0.5486805 0.5026981 0.29214007 0.34910265
000010 4b 69 04 bf 16 c9 01 3f 1f e9 ea be ed 62 43 3e
       -0.51723164 0.5069746 -0.45880982 0.19080706
000020 e8 44 13 3f 68 c3 fe be b6 91 c5 bd cd 62 78 bd
       0.5752702 -0.49758458 -0.09646933 -0.0606411
000030 c3 84 fb be 2a 5f 04 bf b7 5d b6 be b7 24 81 3e
       -0.49124727 -0.5170771 -0.35618374 0.25223324

sequential_18/conv2d_67/Conv2D f4 [32, 3, 3, 1]
000000 0d 3c a5 bd 57 6a 1a bd 9d 63 bc bd 55 ad 17 3c
       -0.080680944 -0.03769907 -0.09198687 0.009257634
000010 38 28 fe bd 7d 8a 3f bd 29 a3 59 bd 32 67 17 bd
       -0.12410015 -0.046762932 -0.053134117 -0.03696365
000020 4a 01 a5 3d 3b 6f 2b 3d 29 c5 df 3c 60 1c a7 3d
       0.080568865 0.041854125 0.027315693 0.08159709
000030 14 e1 7b 3d 8e 5a f8 3d 5f 7c dc 3b 50 3c 81 3d
       0.061493948 0.12126647 0.0067286934 0.06310332
000040 99 23 f9 3c ac 6b ab bc 39 b9 1e 3d ad 98 9f bb
       0.030412482 -0.020925365 0.03875086 -0.0048704953
000050 c9 ed ae bc 94 6e a7 bd 6b 4a 65 3d 68 46 dd 3d
       -0.02135362 -0.08175388 0.055979174 0.108044446
000060 43 91 cc bd 22 53 f9 ba 2d 82 14 be 7c 5c e7 bd
       -0.09988644 -0.0019021968 -0.14502783 -0.11296937
000070 c2 1d 0a 3a bc c8 e2 bd 8a 2f 31 3d 5d f6 be 3b
       0.00052687165 -0.11073443 0.043258227 0.0058277086
000080 6f 5c e2 bd ce a9 1e be 91 0a 90 3d e3 dc fa bc
       -0.110527866 -0.15494463 0.070332654 -0.030622905
000090 e3 8b 05 be c8 0d 89 3c 0d 73 dc 3d 7f e6 f7 3c
       -0.13041644 0.016730204 0.10764132 0.030261276
0000a0 3a a1 85 bd 10 cc f2 3d 91 dc eb 3c d6 61 05 be
       -0.06524892 0.11855328 0.028791698 -0.13025603
0000b0 80 a0 61 bd 7a 62 75 3d fd c3 04 be 97 fa 92 bc
       -0.055084705 0.059908368 -0.12965389 -0.017941756
0000c0 38 97 86 bd 80 66 69 bc 22 24 cd bd f7 90 63 3d
       -0.065718114 -0.014245629 -0.100166574 0.05555817
0000d0 e5 95 07 be dd 6d 18 3e fc 17 04 3e cb a5 f9 3d
       -0.13240774 0.1488566 0.12899774 0.121898256
0000e0 33 31 8f 3d 60 2f 19 3e 31 e0 a8 bc ca c7 7e 3b
       0.06991806 0.14959478 -0.020614715 0.0038876408
0000f0 ac 76 04 3e 60 c3 c0 bd c3 ea ca 3b ef ee b4 3d
       0.12935895 -0.09412265 0.0061925366 0.088346355
000100 77 6a 08 bd a7 ac 4f bd 30 2a c7 bd 5e df e5 3c
       -0.033304658 -0.050701763 -0.097248435 0.028060611
000110 8e c8 9c bd 8c f0 0b 3d 09 92 fd bd da 51 a2 bd
       -0.0765544 0.03416495 -0.123813696 -0.07925768
000120 df d6 cb 3d a0 16 6f bc 03 0e e3 3d ce 69 e8 bd
       0.09953093 -0.014592797 0.11086657 -0.11348306
000130 a8 60 ea 3d 7b 24 0d bd 16 2d a0 bd e1 8b 47 bd
       0.11444217 -0.03445862 -0.078210995 -0.048717383
000140 d0 bc c5 3c 81 b9 80 bd f6 30 f0 bd 18 a8 99 3d
       0.024137884 -0.06285382 -0.117280886 0.075027645
000150 c9 98 a2 bd 6b 45 b2 bd cf 73 58 3d c1 61 3b 3d
       -0.07939298 -0.08704647 0.05284482 0.045747522
000160 5e 16 7c bd 93 01 75 3d e2 4e 99 bd 76 8b aa bd
       -0.06154477 0.059815954 -0.07485749 -0.08327381
000170 69 89 5c bd f7 62 d5 3d 27 e8 68 3d 4b 34 cd 3d
       -0.053841982 0.10419267 0.056862023 0.1001974
000180 4d cf 03 bd 82 d5 ad 3c eb 9e a2 3d b3 d2 8a 3d
       -0.03218012 0.021219973 0.079404674 0.06778469
000190 1d bf 52 3d 61 87 51 bc f8 10 45 3d 85 4a 07 be
       0.05145179 -0.0127886245 0.048111886 -0.1321202
0001a0 30 a2 ff bd 59 ba d5 bd c1 c2 81 3d f6 0e ca 3c
       -0.12482107 -0.104359336 0.063359745 0.024665337
0001b0 c4 55 51 3b be 01 b4 3d 5c 2f 89 bd 2c 31 ad bd
       0.003194199 0.08789395 -0.06698486 -0.084566444
0001c0 bd 84 98 bc bf 40 dc bd b5 bb bf 3d 07 c8 e3 bd
       -0.018617982 -0.10754537 0.09361974 -0.111221366
0001d0 41 e1 ca 3c 26 3c d2 3d dc 43 7a bc 4c 7d a9 bd
       0.024765613 0.10265379 -0.015274968 -0.082758516
0001e0 17 f5 ca 3c 91 c1 27 bd 56 14 d6 3d fc b7 a3 bd
       0.024775071 -0.040956084 0.104530975 -0.079940766
0001f0 8b 21 c2 bd be a6 80 bd 72 2f e1 3d e4 7d 80 bd
       -0.09479054 -0.062818035 0.109953776 -0.06274012
000200 de 71 ac 3d 9d 98 8b 3d 35 5f 43 bd 9c a4 7f bc
       0.08420156 0.06816218 -0.04769822 -0.015603211
000210 49 0a e8 3d ba ed 65 3d 34 66 6f bd 98 dd d1 3d
       0.11330087 0.056134917 -0.058447078 0.10247344
000220 df 8d 9a 3c 64 cb a1 3c e8 b4 1c bd 6c e5 61 bd
       0.018866478 0.019750305 -0.038258463 -0.055150434
000230 16 80 d3 bd ac 6a 31 bd 7c 85 b5 bd 67 4a d2 bd
       -0.10327165 -0.04331462 -0.08863351 -0.10268097
000240 56 14 56 3b de 26 f3 bd 72 c7 9a 3d 02 14 a0 bc
       0.003266593 -0.11872648 0.075575724 -0.01954079
000250 d8 98 fb bd 0d e2 32 3d ef 3b af bd 40 0d 71 3d
       -0.12285012 0.04367261 -0.08556353 0.058850527
000260 b6 7f 06 3e 6e 05 a7 3d 55 8c 7a bd 66 fe 77 bc
       0.13134655 0.081553325 -0.061168987 -0.015136337
000270 c7 61 af 3d 35 27 76 3c d2 99 93 bd ad 46 3a 3d
       0.085635714 0.015023996 -0.07207073 0.045477558
000280 7b cc b9 3d bc 49 b8 3d 38 e8 ab 3d b9 9c c5 bd
       0.09072205 0.08998439 0.083939016 -0.09649033
000290 e1 a2 b3 3d df 67 df bd 3c bb be 3d 76 99 ea 3d
       0.08771301 -0.10908484 0.09313056 0.114550516
0002a0 43 bc ea bc 98 a5 ef 3c f0 a4 d9 bb 9e 81 44 bd
       -0.028654223 0.029253766 -0.0066419765 -0.047975175
0002b0 dc a3 f1 bd 7e 2a dc 3d ce 99 83 3d fe 29 05 3e
       -0.11798832 0.10750292 0.0642582 0.130043
0002c0 bc 4f 84 bd 21 66 c7 3d e7 37 b1 bd 88 77 5e 3d
       -0.064605206 0.097362764 -0.08653241 0.054313213
0002d0 d8 29 e7 3d d1 2e 88 3c 96 ec 18 be 08 7a a5 bd
       0.11287278 0.016623886 -0.14934 -0.08079916
0002e0 57 c5 6b bc 9b b1 fa bd 96 8f 19 3e 0c a2 31 3d
       -0.014390311 -0.12240907 0.1499618 0.04336743
0002f0 70 51 2f bd 45 86 f1 3d b5 5e e9 bc 6a f3 55 bd
       -0.042802274 0.11793188 -0.028487543 -0.05223409
000300 b1 1f 07 bd 3e af 10 bd 4a 0f 03 3e cc 76 12 bd
       -0.032989208 -0.035323374 0.12798801 -0.035757825
000310 87 df 6b bd c4 b0 99 3d dd e7 1c bd 04 cd 06 3e
       -0.05758622 0.075044185 -0.03830706 0.13164145
000320 7a 2c f6 bd 6a 0e dc 3d 0e 60 72 3d 73 b1 12 be
       -0.12020202 0.10744937 0.059173636 -0.14325504
000330 27 11 d9 bd c5 58 85 3d 53 e9 b7 bd 94 bd fe 3d
       -0.10598975 0.06511072 -0.0898005 0.12438503
000340 ff 3d dc bd b3 67 c8 3d 08 7d fd bd f2 ad f1 3d
       -0.10754012 0.09785404 -0.123773634 0.118007556
000350 2c 7b 7c bd d3 53 ee 3c 52 f4 24 bc 47 94 16 bd
       -0.061640903 0.029092705 -0.010068016 -0.036762502
000360 95 af 98 3d 9d 67 a3 3d 4c b7 b3 bc 95 85 e6 bd
       0.074553646 0.07978747 -0.021937989 -0.112559475
000370 b1 d8 15 3e cf ad 43 3c b4 2c 9a 3d 29 0b ab 3c
       0.14633442 0.011943295 0.07528058 0.020879345
000380 bf 0d 30 3d fa 9e d1 bd 4c 52 00 3e 81 10 01 3c
       0.04298186 -0.102354005 0.12531394 0.00787747
000390 c0 8e 05 be 24 2b 14 3e 7a 3e ff 3b 4b 46 bc 3c
       -0.13042736 0.14469582 0.00778943 0.022982737
0003a0 a6 2b 66 3d 4a 2f 6e 3d 88 88 e5 3d 23 44 89 3d
       0.05619397 0.058150567 0.11207682 0.06702449
0003b0 f8 43 34 3d cf 9b 01 3e 1f 7a 36 bd 25 ae 98 3c
       0.044010133 0.12657093 -0.044550058 0.018637726
0003c0 da 31 fe bd 43 25 c2 3d 8f 38 49 bd 16 06 85 3c
       -0.12411852 0.09479763 -0.049126204 0.016238254
0003d0 07 ae 80 bc 90 33 ea bd bc 2f 28 bd 95 93 b0 3c
       -0.015707983 -0.11435616 -0.041061148 0.021554748
0003e0 2f 36 50 3d b0 f6 a8 3d c5 22 e4 3d 03 8c c4 3d
       0.050832924 0.08250177 0.11139444 0.095970176
0003f0 8e 53 fa bd be 4d 19 3d 0e fb 8d 3c be f2 81 3c
       -0.12222968 0.037427656 0.017331626 0.015862819

sequential_18/conv2d_68/Conv2D f4 [64, 3, 3, 32]
000000 77 03 63 3d 33 da 9e 3d d3 0c 94 bd db 4d 5e bd
       0.055423226 0.07756462 -0.072290085 -0.054273468
000010 e5 c4 7c bd 4b d0 ef bb 0c c3 81 bc 29 1f 8f bd
       -0.06171121 -0.0073185316 -0.015840076 -0.06988365
000020 45 2e 0a 3c bd 4b d0 bc a0 e7 0b 3d 40 09 c6 bc
       0.008433883 -0.02542674 0.03415644 -0.024174333
000030 57 8c ad 3c 90 13 11 bc 13 d4 3b bd 72 f6 ec 3c
       0.021185083 -0.008854762 -0.045856547 0.028926108
000040 b4 eb 16 3c 72 42 80 bd 21 c6 8a bd 6b 72 16 bd
       0.009211469 -0.062626734 -0.06776071 -0.03673021
000050 4e 7b b1 bc 92 94 68 bc 82 7d 8d 3d db 14 69 bd
       -0.021665242 -0.014195578 0.06908704 -0.056904655
000060 26 c8 1b bd e8 c3 0f bd 8d 0b 05 bd a9 8f 4d bc
       -0.038032673 -0.03509894 -0.03248172 -0.012546458
000070 db 8d 8f bd 2d 17 57 bd 7f 4b 9a 3d 74 21 22 bc
       -0.07009479 -0.052512337 0.07533931 -0.009895671
000080 cd 8d 97 bc f3 8e 18 bd 97 46 d3 bc f2 c1 ba bc
       -0.018500233 -0.037245702 -0.025790496 -0.022797558
000090 8f 5a 2f bc ad 12 47 3d f4 cb 1d 3d bf 60 69 3d
       -0.010702743 0.048601795 0.038524583 0.05697703
0000a0 4b 63 ef 3c 34 66 a8 3d ff 9a 89 bd 53 d8 8e bc
       0.029222151 0.08222619 -0.06719016 -0.017437136
0000b0 5d de e2 3c 3f ee 67 3d f5 7b 8f bd 10 bd c3 bc
       0.027693922 0.056623694 -0.07006065 -0.023893863
0000c0 93 7e be 3b 56 fc a2 bd 26 1c 3c 3c 5c 1a 87 bc
       0.0058134287 -0.079582855 0.0114813205 -0.016492061
0000d0 93 e3 51 3d 67 ca b9 3a fe ae 82 3b 14 a9 ad 3c
       0.051242422 0.00141747 0.003988146 0.021198787
0000e0 04 f3 38 bd 22 af 6a 3d aa 22 24 bd 13 32 33 bd
       -0.045153633 0.057295926 -0.04007212 -0.043748926
0000f0 a3 99 91 3d 6d 14 39 bd fc ea 5c bd bf b6 b0 bc
       0.07109382 -0.045185495 -0.053935036 -0.021571515
000100 bd f8 11 bc f9 7a f0 3b 37 69 e1 3c 8f 43 08 bd
       -0.0089094015 0.0073388782 0.02751599 -0.033267554
000110 0a 70 86 bd af 39 8f 3c 77 e4 97 3d 18 ef 45 bd
       -0.065643385 0.01748356 0.07416623 -0.04832372
000120 3a 3e fe bb 41 df 9a 3b 94 70 d8 3c a2 65 e2 bc
       -0.007758883 0.004726321 0.026420869 -0.027636353
000130 4e 86 e2 3c 65 cd 90 3d 70 0b 83 bd 9d ec 81 bd
       0.027651932 0.07070426 -0.06398666 -0.063439585
000140 65 e5 0e 3c 60 fb ce 3c a6 c2 17 3d cc 7d c7 bb
       0.008721684 0.02526635 0.037050866 -0.006087994
000150 e0 e2 8e 3d 40 64 8b bd 4a 7a 87 bd 19 b5 5c 3b
       0.06976867 -0.068062305 -0.06615122 0.0033677279
000160 74 95 9a bd 97 bc 9e bd 37 98 19 3d 32 6a 38 3d
       -0.07548037 -0.077508144 0.03749868 0.04502315
000170 9d cd d2 bc 30 4f 4f 3d 82 9b d4 3c 43 2b 36 3c
       -0.02573281 0.05061263 0.025953058 0.011118713
000180 44 61 8c bd 10 d5 88 3c 75 ad 49 bc bc c8 01 bd
       -0.068544894 0.016703159 -0.012309422 -0.031685576
000190 cc b9 54 bd cb 44 5f 3d f0 6c 7a 3c 57 43 34 3d
       -0.051935002 0.054508965 0.015284762 0.044009533
0001a0 52 b5 0f bd 1b 98 97 3c 96 34 65 bd 77 28 cb 3c
       -0.03508503 0.018505147 -0.055958353 0.024799569
0001b0 42 1a a7 3d be 91 5f bd 8d 2d 35 3d a6 80 5b 3d
       0.08159305 -0.05458235 0.044232894 0.053589486
0001c0 1e ae 87 3d 23 68 5b 3c eb e4 7f bd fb 3a a7 3d
       0.06625007 0.013391527 -0.062474173 0.081655465
0001d0 8e 62 af bc df a2 5d bd eb a7 d5 3c 95 02 64 3d
       -0.0214093 -0.054110404 0.026081046 0.055666525
0001e0 31 33 d5 bc f9 f7 cb 3a 1b 9e 6e 3b 20 fa b9 bc
       -0.026025387 0.0015561573 0.0036410156 -0.022702277
0001f0 f3 30 4a 3d 74 09 fd 3c c5 64 82 bd 1c 3d a6 3c
       0.049363088 0.030888297 -0.063668765 0.020292811
000200 eb 4d 94 3d e4 e8 7d bd b9 f7 37 3d b0 18 17 3c
       0.07241424 -0.06198968 0.04491398 0.009222195
000210 1e 32 52 3d 97 a6 3c 3d 5a 25 db 3c 9c e9 38 3b
       0.051317327 0.04605731 0.026751209 0.0028215414
000220 84 d4 f6 bc e1 e4 0b 3d 64 2b 94 bc f9 22 80 3d
       -0.030130632 0.034153823 -0.018087097 0.062566705
000230 04 83 47 bd bb f5 a2 3d 5a e7 e4 bc 89 38 0d bd
       -0.04870893 0.079570256 -0.027942348 -0.034477744
000240 9d b3 fb b9 c9 5f a9 bd 81 0e 0d bc 03 6d eb b9
       -0.00048008273 -0.08270223 -0.008609415 -0.00044903913
000250 4b a4 65 bd 58 96 8c bd 94 33 3a bd 45 34 eb bb
       -0.056064885 -0.06864613 -0.045459345 -0.007177862
000260 31 2d 81 bb f9 af 2c bd fd 56 ea bb d7 22 6f 3c
       -0.003942155 -0.042160008 -0.007151483 0.014595709
000270 fc 43 77 3d 86 ac a0 bd ad b7 dd 3b ef 37 9e bd
       0.06036757 -0.07845406 0.0067662806 -0.07725512
000280 ae ee 9e 3d b8 1a 88 3d 74 d3 67 3d 4b 9a 40 3d
       0.07760368 0.06645721 0.05659814 0.047022145
000290 93 8d 4e 3d 4b 8b 7c 3d 6b f4 6d 3b 87 8b 9e 3b
       0.050427984 0.061656278 0.0036309015 0.0048384103
0002a0 35 2f 5c 3d 6d 9c 63 bb ad 51 a5 3a b2 0a ce bb
       0.053755958 -0.0034730688 0.0012612842 -0.006287896
0002b0 4e b5 97 3c 1b b5 6a bd 77 c4 6c bc 0b b3 a3 3d
       0.01851907 -0.057301622 -0.014451138 0.07993134
0002c0 b8 a0 92 bd 35 3a 8c bd ae 2f 99 bc 63 ad 38 bd
       -0.07159561 -0.068470396 -0.018699493 -0.04508723
0002d0 fb 13 31 bd 88 3c 81 bd 02 9e 61 3d 7a 30 1c 3d
       -0.043231945 -0.063103735 0.05508233 0.03813217
0002e0 0c 4b 8d bd ca 9f 00 bb 67 34 76 bd 28 4f 8e bd
       -0.0689908 -0.0019626492 -0.06010857 -0.069486916
0002f0 93 7e a7 3d 87 0e 0d bd aa 1e 83 3d 00 ac a7 ba
       0.08178439 -0.034437682 0.06402333 -0.0012792349
000300 ef 1c ac 3d 51 d5 91 3d cd 5f 48 3d ce 53 8f 3c
       0.08403956 0.07120765 0.048919488 0.017496016
000310 20 ab 89 bd f9 17 20 3d f1 74 e2 bb 4c 0a 0c 3d
       -0.06722093 0.039085362 -0.006910913 0.034189507
000320 a2 b5 9d 3d d2 69 87 3d e0 1a 81 3c 9e 3c 17 bd
       0.07700659 0.066119805 0.015759885 -0.036923043
000330 53 23 1c bd 92 4d 28 3d 97 bb 6c 3c 2c 49 8f 3d
       -0.038119625 0.0410896 0.014449022 0.06996378
000340 74 a3 8a 3d 13 19 8a bd 57 eb 53 bd 8b 71 8a bd
       0.067694575 -0.06743064 -0.05173811 -0.06759938
000350 6c bb 87 bd d3 12 a8 3d 3d a0 9f bd cc 38 02 bd
       -0.06627545 0.082067154 -0.07794235 -0.031792447
000360 35 9a 92 bd ef 5d f8 3c ae 11 69 3d 41 e7 ab bc
       -0.07158319 0.030318229 0.056901626 -0.020984294
000370 fa ae 84 bd 91 2a 81 bd ac a5 11 bd 2c ac ee bc
       -0.06478687 -0.06306947 -0.035558388 -0.029134832
000380 c3 e7 54 bd b1 8d a7 bd 18 c1 9c bd f6 62 86 3c
       -0.051978838 -0.08181322 -0.07654017 0.01640461
000390 50 df 8a 3d 59 e4 15 bd 44 7e 03 bc 31 7c 97 bd
       0.06780875 -0.036594722 -0.00802571 -0.073967345
0003a0 2d 93 a0 bd cd e1 e3 3c dc 74 8d bd a1 e7 05 bd
       -0.078405716 0.027817631 -0.06907055 -0.0326916
0003b0 bb be 9b bc f3 3e 0b 3c 94 38 94 bd ff 4d 93 bd
       -0.019011846 0.008498895 -0.07237354 -0.07192611
0003c0 3d f8 4e bd 31 8b d4 3a b4 38 9d bc 79 3e a5 3c
       -0.050529707 0.0016215799 -0.019192077 0.02017139
0003d0 b3 38 24 3d 7e 14 50 3d e4 64 b3 3c a8 5b 83 bc
       0.040093135 0.050800793 0.021898694 -0.016034916
0003e0 f7 d6 21 bc 45 1f 9c 3d 0a 75 4b 3d 14 e6 f0 bc
       -0.009877912 0.07623152 0.049672164 -0.029406585
0003f0 b7 19 97 3d 02 6e 04 bd 99 30 40 3d b6 c9 af 3b
       0.073779516 -0.032331474 0.046921346 0.005364622

sequential_18/conv2d_69/Conv2D f4 [32, 3, 3, 64]
000000 4e ea 30 bd 42 74 de bc 06 78 37 3d b6 77 da bc
       -0.0431922 -0.027155045 0.044792198 -0.02666841
000010 e6 1a c5 bc a8 ac 2b bd 78 c0 5c bc a7 63 6f 3d
       -0.024060678 -0.041912705 -0.0134736225 0.058444645
000020 68 61 95 bd 51 fc 65 3d 88 69 18 bb fc 2e c8 bc
       -0.072939694 0.05614883 -0.002325626 -0.024436466
000030 21 ae 2d 3c e3 34 f1 bc 3e 26 8f ba 03 d6 99 bd
       0.010600598 -0.029444164 -0.0010921431 -0.075115226
000040 33 fb 34 3d 5b d2 5c bd 93 d2 b0 3c e0 e9 7a bd
       0.044184875 -0.053911548 0.021584785 -0.061258197
000050 14 e8 94 bd af 4c 4b bb 57 d2 7a bc 4d b4 9e 3d
       -0.07270828 -0.0031021049 -0.015308938 0.077492334
000060 68 10 09 3d 99 3d eb bc 52 72 46 39 a5 63 87 3c
       0.03346291 -0.028715895 0.00018925339 0.016527006
000070 e2 9a 38 bd 5c 95 85 3d e3 28 2a 3d 46 36 91 bd
       -0.045069583 0.06522629 0.0415429 -0.0709043
000080 6e 4f 65 3d 56 a2 8e bd 4a a0 ec bc 70 5d 07 3d
       0.055983953 -0.06964557 -0.028885026 0.033048093
000090 71 d7 a4 bc 42 b2 24 3d f0 3a 3c bb 44 17 a9 3d
       -0.020122262 0.040209062 -0.0028721653 0.08256391
0000a0 e7 51 9b bd 5e fb aa 3b 4f f5 f4 3a be f2 9a 39
       -0.07583981 0.0052179536 0.001868883 0.00029554026
0000b0 18 c7 d7 3c c5 9b d4 bc 4b f8 30 3d c7 25 f7 3c
       0.026340052 -0.025953183 0.04320554 0.03016938
0000c0 98 8e 01 3d 16 e3 38 bc 36 62 d4 bb 06 95 66 3d
       0.03163013 -0.01128461 -0.006481434 0.056294464
0000d0 15 37 28 3d 4d 6e 91 bd 02 5a 28 bc f9 c0 36 bd
       0.041068155 -0.07101116 -0.010275366 -0.044617627
0000e0 a9 82 84 bd d5 f6 8e bd be 89 5b 3d cf b6 08 3d
       -0.06470234 -0.06980673 0.053598158 0.033377465
0000f0 98 8f 3d 3d a8 37 9c bc 21 a4 b2 bc bd 62 14 3d
       0.04627952 -0.019069508 -0.021806778 0.036226977
000100 2c df 6f bd 7d dc cd 3c e6 7d 47 3d 3c 2e a1 bc
       -0.058562443 0.025129551 0.04870405 -0.019675367
000110 64 90 16 bd eb 7b 83 bc ff a9 34 3d bf c7 01 3d
       -0.036758795 -0.0160503 0.044107433 0.031684633
000120 e6 92 0a 3d 5f c9 e1 3c 21 a1 7d 3d 63 d0 9b 3d
       0.0338315 0.027561842 0.061921243 0.07608106
000130 13 fa 95 bc e7 00 78 3c 2d 38 22 3d e5 64 64 bd
       -0.018307721 0.015136934 0.039604355 -0.055760283
000140 e7 a9 94 bd c6 c1 8f 3d 32 c7 81 3d 24 00 32 3d
       -0.07258969 0.07019381 0.063368216 0.043457165
000150 81 d5 9f 3d 27 5f ed bc c8 81 ea bc 13 85 6a bd
       0.078043945 -0.028976036 -0.028626338 -0.057255816
000160 31 e6 2f 3d e4 bf a6 3c 25 a2 98 bd 3a fb 8e bd
       0.042944137 0.020355172 -0.074528016 -0.069815114
000170 9a e3 a9 bd ea c2 9d 3d e8 f4 9c 3d 04 b3 3f bc
       -0.08295365 0.077031925 0.076639 -0.0117003955
000180 25 98 77 bd 13 04 34 3d 7a 15 2a 3d dd 1f 76 3c
       -0.06044783 0.043949198 0.041524388 0.015022245
000190 25 48 4d 3d 42 9a d6 bc 3d c4 9d bd 88 9a af 3c
       0.05011763 -0.026196603 -0.07703445 0.02143599
0001a0 e6 c2 55 3d 4c 78 6c bb 84 43 18 3d b3 96 7f bd
       0.052187823 -0.0036082445 0.037173763 -0.062399577
0001b0 7a 3e 9f bb a8 04 5f 3d 2e fd 89 bc 82 7d 1e bd
       -0.0048597427 0.0544478 -0.016844358 -0.038693912
0001c0 bf 2e c3 3c f1 94 02 bd 82 d2 a5 bc 4f 67 91 3d
       0.023826001 -0.031880323 -0.02024198 0.07099783
0001d0 69 79 81 3c 5f e0 8b bd e5 68 77 bd 19 e5 46 bd
       0.015804963 -0.06829905 -0.06040277 -0.04855833
0001e0 18 81 75 3d e3 f8 73 bc 5b 5c 24 3d 7c 04 88 3d
       0.059937567 -0.014890882 0.04012714 0.0664148
0001f0 fa a5 77 3d 4f 1f 16 3d 9d 96 77 3d 6c 0d 7e bc
       0.060461022 0.036650952 0.06044637 -0.01550613
000200 f4 d5 cc bc bc 0b 30 bd c6 a6 fd 3c 49 12 a0 bd
       -0.025004365 -0.04297994 0.030963313 -0.078159876
000210 fa 73 78 3a 6f 39 2c bd 5a 5b 7f 3d 97 ca f1 bc
       0.0009477731 -0.04204696 0.06234298 -0.029515548
000220 4e 1c 70 3d 61 1d 57 3d 5c fd 5a 3d 39 ec f2 bc
       0.058620743 0.052518252 0.05346428 -0.029653655
000230 ab ad f6 bc a7 55 84 3d 59 c5 2f 3c e4 58 a1 3c
       -0.030112108 0.064616494 0.010728204 0.019695707
000240 11 de 88 bd 64 f2 19 3d 10 ec 8f bd b9 8a ec bc
       -0.06682981 0.037584677 -0.07027447 -0.028874742
000250 8c 72 eb 3b 7a e2 d6 3b 4a 0c 14 3b 01 d6 7a bd
       0.007185286 0.00655776 0.0022590333 -0.061239246
000260 a7 cd 11 3c 41 70 4b bd 4d 6b 00 bd 6a 86 41 3d
       0.008899129 -0.0496676 -0.03135233 0.047247328
000270 f9 fe a0 3d 57 4b cb bc 26 be 59 3c 30 bf 95 bd
       0.07861132 -0.024816198 0.013289964 -0.07311857
000280 40 4d 33 3b 26 f4 47 3c 2c f7 7e 3d a3 67 9b 3d
       0.0027359277 0.012204206 0.06224744 0.075881265
000290 37 b9 61 bd 96 a5 92 bd e9 c9 99 3c 8a a8 8f bd
       -0.055108275 -0.07160489 0.018773036 -0.07014568
0002a0 18 7b 23 3d cb f7 84 bd ea e0 14 3d 28 d6 a0 bd
       0.039912313 -0.06492575 0.036347307 -0.07853347
0002b0 7a 2d 31 3d 3f 9b 9c bd ef 9b f5 bc bc 04 03 3d
       0.04325626 -0.07646798 -0.029981581 0.031986937
0002c0 dd 7c 33 bd 28 b0 63 3d 2f f3 b8 3c a3 80 ff bb
       -0.04382025 0.055587918 0.022576896 -0.007797317
0002d0 90 cc ae bd b0 34 8f bd b2 65 ac 3c 27 0f 83 3d
       -0.08535111 -0.06992471 0.021044586 0.063993745
0002e0 be ad dc bc 77 eb 0a 3d 8f 7e e8 3b 09 00 0e 3d
       -0.026938315 0.033915963 0.007095165 0.034668002
0002f0 7f 76 98 3c 6b ed 4e 3d 26 6b a3 bd f9 12 83 3b
       0.01861119 0.05051939 -0.07979421 0.0040000645
000300 d3 de 8e 3d e1 34 36 3d 23 53 92 bd a2 11 b8 3c
       0.06976094 0.044484023 -0.07144763 0.022469345
000310 fd cd d9 bc c2 86 15 bd ec d3 e4 3c a3 3e 26 bc
       -0.02658748 -0.03650547 0.027933083 -0.01014677
000320 9b d7 64 3d 0d a9 9c bd c0 58 75 bb fd 67 a2 bd
       0.05586968 -0.076494314 -0.0037436932 -0.079299904
000330 d4 21 44 bd 3b a6 5f 3d a9 14 2b bd 32 6d 6a 3d
       -0.047883824 0.05460189 -0.04176775 0.057233043
000340 b6 d1 73 3d 7f d3 a5 3d 18 9a 03 3d 95 40 7a 3d
       0.059526168 0.0809698 0.032129377 0.061096746
000350 f0 ed 29 bd 5f a4 82 bd 5e a2 ac 3d 9e bd 75 3c
       -0.04148668 -0.063790075 0.084294066 0.014998822
000360 ad 3d 04 3c 42 f1 3c bd dd 70 9e bd d0 e8 ff 3c
       0.008071345 -0.04612852 -0.07736371 0.031238943
000370 de 1b 82 3d 8b 3b 6d 3d b7 61 ab bd 4c 5d 1b 3d
       0.063529715 0.057918113 -0.08368247 0.03793077
000380 09 78 2e 3d 2e 63 9f bd b3 ba 8a bd d8 f2 88 bd
       0.042594943 -0.07782589 -0.06773891 -0.06686944
000390 06 fe 89 3d 79 ed d6 3c ef 34 9d bd 5e 62 36 bd
       0.06737904 0.026236283 -0.07676112 -0.044527404
0003a0 fe be 7f bd 19 ad d9 3b 3b aa 2a 3d 15 23 a0 3d
       -0.062438004 0.0066429493 0.04166625 0.07819191
0003b0 ff 2c 3b bc 17 65 0e bd 74 5b 29 bb 44 7e 1c bd
       -0.011424302 -0.034764376 -0.0025841864 -0.038206354
0003c0 cd 54 94 3d c2 68 3c bd bc 89 26 3b 60 b4 6c bd
       0.07242737 -0.045998342 0.0025411686 -0.057789207
0003d0 18 9f 9a 3d aa c4 7a bc 9f ed 40 bd b2 db b2 3c
       0.07549876 -0.015305677 -0.047101613 0.021833275
0003e0 17 0d 62 3d c1 ac 99 bd ec d1 3f 3c 7a fa 1e bd
       0.055188265 -0.07503653 0.011707764 -0.03881309
0003f0 44 0f ab bd b2 47 6b bd fc 00 cc bb da 2a 0a bd
       -0.08352521 -0.05744142 -0.0062257033 -0.033732273
