app/app/src/main/assets/sound_detection.tflite (tflite, 922116 bytes, 14 tensors)

sequential_20/conv2d_75/BiasAdd/ReadVariableOp/resource f4 [128]
0.0008022583 -0.00041258737 0.00046046436 -0.002313119 0.002718971 0.0021943534 0.0015372515 0.0030200956
-0.006397634 -0.0023147992 0.0001472969 -0.0010541925 0.0018618902 0.0019647726 0.00027157716 0.005267461
-0.0008050329 0.00056073477 -0.0045060874 0.00072222034 0.0019611816 0.0010465 0.00091212295 -0.0035317584
0.0026089663 0.002538703 -6.535046e-05 -0.00201356 -0.0013068491 0.0018254283 0.0013007942 0.0014775327
0.0013350717 0.002695877 0.00049170793 -0.0027177287 0.00059288583 0.0041829203 0.0037154895 0.0002778768
-0.0016217219 0.0039291526 0.0030096502 -0.0008811694 -0.00081025955 0.0022560211 0.00038658254 -0.0038506745
-1.1486574e-05 0.0024594902 -0.0027641945 0.00045010558 -9.290702e-05 0.0030125699 0.0013655687 -0.0020041978
-0.0003418013 -0.0026966843 -0.005112574 0.0039455537 -0.0029776704 5.3358403e-05 -0.0022299117 -0.0023108409
-0.0019830787 0.0010218235 0.002338964 -0.0012271553 0.0030834288 0.0016125309 -0.0029955318 0.0008528621
0.0021878718 0.004470249 0.0014343475 0.0025349387 -0.0002596234 -0.0005584299 0.001383361 -0.0029949986
0.003122567 -0.0015161815 0.0007772613 -0.00040292577 -0.0059662852 0.0024252213 0.0022833678 3.3012537e-05
0.003758791 -0.001067955 0.0012769748 0.0030537073 -0.0035865917 0.004017415 0.00050963456 -0.0005107326
-0.0005521764 -0.0021229186 0.00011845544 1.151602e-05 0.0022620999 0.0039855517 0.0061128926 0.00043586298
-0.0011015112 0.0039196825 0.00096146757 -0.0016412395 0.0005277873 -0.0005940546 -0.002784228 0.0011277446
0.0011768528 0.0016587902 0.00030208039 -0.0009188091 -0.0008274991 -0.0041265218 2.710737e-06 -0.0024599321
-0.0012298406 -0.0011842094 0.0021396035 0.0033972077 -0.0016923494 0.0014031376 0.00029749 0.0037648396
00000000: a54e 523a 8a50 d8b9 7b6a f139 b297 17bb
00000010: c430 323b 24cf 0f3b 9a7d c93a ccec 453b
00000020: 3ea3 d1bb e3b3 17bb b673 1a39 d52c 8aba
00000030: ab0a f43a 6ac3 003b 7862 8e39 aa9a ac3b
00000040: d808 53ba 46fe 123a cda7 93bb 6353 3d3a
00000050: 2b87 003b b72a 893a 891b 6f3a 1375 67bb
00000060: 31fb 2a3b 5e60 263b c30c 89b8 eef5 03bb
00000070: 944a abba 3643 ef3a 697f aa3a c5a9 c13a
00000080: 93fd ae3a 50ad 303b f6e5 003a ec1b 32bb
00000090: e56b 1b3a e110 893b 927f 733b feaf 9139
000000a0: f58f d4ba 1fc0 803b 8d3d 453b 47fe 66ba
000000b0: 9967 54ba c1d9 133b 3bae ca39 995b 7cbb
000000c0: 76b6 40b7 662f 213b 7d27 35bb 26fc eb39
000000d0: 14d7 c2b8 896e 453b e2fc b23a dc58 03bb
000000e0: cb33 b3b9 dbba 30bb 6187 a7bb b449 813b
000000f0: 0525 43bb 26cd 5f38 b623 12bb 7a71 17bb
00000100: 8af6 01bb b5ee 853a 4e49 193b 80d8 a0ba
00000110: 5a13 4a3b 8f5b d33a af50 44bb 9b92 5f3a
00000120: 6662 0f3b 2b7b 923b b700 bc3a 3721 263b
00000130: 101e 88b9 9963 12ba e551 b53a bd47 44bb
00000140: fba3 4c3b 9cba c6ba 1fc1 4b3a c83f d3b9
00000150: d480 c3bb 76f0 1e3b 8ea4 153b f176 0a38
00000160: 0c56 763b a0fa 8bba 2a60 a73a b520 483b
00000170: 060d 6bbb 85a4 833b ff98 053a afe2 05ba
00000180: eebf 10ba aa20 0bbb 486b f838 ee34 4137
00000190: bd3f 143b 3b99 823b a94e c83b 8a84 e439
000001a0: 9560 90ba ae70 803b ff0a 7c3a dc1e d7ba
000001b0: 355b 0a3a 54ba 1bba 9877 36bb d4d0 933a
000001c0: a140 9a3a c36b d93a 8b60 9e39 3cdc 70ba
000001d0: 86ec 58ba c637 87bb 1bea 3536 d036 21bb
000001e0: 9a32 a1ba 7937 9bba 9738 0c3b b0a3 5e3b
000001f0: d3d1 ddba 7ce9 b73a 6ff8 9b39 87bb 763b

sequential_20/conv2d_76/BiasAdd/ReadVariableOp/resource f4 [64]
0.0022966145 -0.00459498 -0.006314171 0.0037197154 0.000637832 0.00014071501 -0.00023450151 -0.0024795127
0.0034149126 -0.0012582433 0.0026711419 0.0017768003 0.00075965066 0.0045687673 0.00046682282 0.0061885603
-0.001124935 -0.00048779175 0.0054566483 0.0063724048 -0.0026099924 -0.0044519957 0.0014512785 -0.0051028603
0.0007130322 -0.0031094565 0.0028422477 0.0024681406 -0.001289979 -0.004842799 0.0014129616 -0.0017737292
-0.00093871524 0.0011631326 -4.6973477e-05 0.0010754465 0.0026582165 0.0027546063 0.00029011237 0.006540323
-0.006033603 -0.007347466 0.0060977563 -0.0003768049 -0.0008127362 -0.0008471281 -0.00044043316 -0.0017068485
0.00083725434 -0.00028007617 -0.0012648357 -0.00027065826 0.0034202903 0.00064556807 0.003050645 -0.0025808492
-0.003727072 -0.00067015045 -0.002548547 0.0009611533 0.00020107705 -0.0008578417 -0.0053156298 0.0023468777
00000000: cc82 163b 7c91 96bb 1be7 cebb 78c6 733b
00000010: 2e34 273a e68c 1339 85e4 75b9 527f 22bb
00000020: bacc 5f3b a4eb a4ba 530e 2f3b 86e3 e83a
00000030: 4b23 473a 99b5 953b e6bf f439 68c9 ca3b
00000040: 8e72 93ba 4dbe ffb9 afcd b23b 9bcf d03b
00000050: 680c 2bbb 0ce2 91bb d338 be3a e535 a7bb
00000060: c8ea 3a3a 06c8 4bbb 0145 3a3b 87c0 213b
00000070: 8314 a9ba 58b0 9ebb 2033 b93a 7a7c e8ba
00000080: 1d14 76ba 4174 983a 6305 45b8 fff5 8c3a
00000090: 7935 2e3b a086 343b 391a 9839 3550 d63b
000000a0: 88b5 c5bb 03c3 f0bb b0cf c73b e68d c5b9
000000b0: ce0d 55ba ce11 5eba f0e9 e6b9 55b8 dfba
000000c0: 307b 5b3a 30d7 92b9 d8c8 a5ba 23e7 8db9
000000d0: f326 603b 573b 293a 55ed 473b 7723 29bb
000000e0: e441 74bb 09ad 2fba 8605 27bb e8f5 7b3a
000000f0: 36d8 5239 c8e0 60ba bc2e aebb 13ce 193b

sequential_20/conv2d_77/BiasAdd/ReadVariableOp/resource f4 [64]
-0.006364543 0.007481885 -0.0030786896 0.0017030607 0.004429858 -0.0010319321 -0.010565091 -0.00043753523
-0.00072105747 3.0498712e-05 -0.004543662 0.00042663037 0.0028657862 -0.00036768318 -0.00028770056 -0.0011970567
-0.0007255366 -0.0017352578 -0.006203368 0.0016339397 -0.0026370448 -0.0010355054 -0.00373944 -0.002342321
-0.0006952163 0.0017225777 0.007793281 0.00018362245 0.002029163 0.0045810803 -0.002184461 -0.005152575
-0.0006342209 2.1102825e-05 -0.0020085308 -0.003483537 0.001134085 -0.0029142778 2.5832149e-05 0.0028110966
-0.003969519 -0.00070295756 -0.00021995453 0.0016954637 -0.0029731554 -0.000295421 -0.004524156 -8.510701e-05
-0.00010740609 -0.00010091697 -0.0056331293 0.009388258 0.0029649138 -0.0017622478 0.00050710456 -0.0032026237
0.0057523875 -0.0045905584 0.0023981747 0.0042106286 0.00072037644 -0.0013433794 0.00082999776 -0.0014767632
00000000: a88d d0bb 9a2a f53b d7c3 49bb 3c39 df3a
00000010: 5828 913b e541 87ba 3419 2dbc fc64 e5b9
00000020: 5905 3dba 7cd7 ff37 00e3 94bb 5cad df39
00000030: eacf 3b3b 9ac5 c0b9 84d6 96b9 8fe6 9cba
00000040: f031 3eba 9771 e3ba 9f45 cbbb eb29 d63a
00000050: 45d2 2cbb ccb9 87ba 6511 75bb a081 19bb
00000060: 2d3f 36ba 1ec8 e13a c85e ff3b c78a 4039
00000070: b5fb 043b e31c 963b 2d29 0fbb efd6 a8bb
00000080: d841 26ba f905 b137 8ea1 03bb 0d4c 64bb
00000090: 94a5 943a 78fd 3ebb 1eb2 d837 603a 383b
000000a0: bd12 82bb af46 38ba 98a3 66b9 523a de3a
000000b0: 45d9 42bb bce2 9ab9 5f3f 94bb 7a7b b2b8
000000c0: 353f e1b8 63a3 d3b8 1d96 b8bb 35d1 193c
000000d0: 004f 423b 39fb e6ba 36ef 043a 1ce3 51bb
000000e0: 867e bc3b 656c 96bb b22a 1d3b 50f9 893b
000000f0: a5d7 3c3a 5514 b0ba 3594 593a f38f c1ba

sequential_20/conv2d_78/BiasAdd/ReadVariableOp/resource f4 [32]
-0.00056751125 -0.0013012904 -0.00057878677 -0.004004672 -0.0045137196 -0.0077235308 -0.002950956 -0.0007549654
0.006805919 0.0022475868 -0.00017110333 -0.00018617755 -0.011682171 -0.0015593744 -0.0016330789 -0.001055914
-0.00056315534 -0.008780027 -0.003445876 -0.005562687 -0.0017062151 -0.0003600354 0.0036599068 -0.0019294654
-0.008674736 0.006504119 -0.0062951455 0.00048053777 0.00052891264 -0.012346262 0.0028296069 -0.0005002182
00000000: 09c5 14ba 0f90 aaba b9b9 17ba a039 83bb
00000010: d3e7 93bb ac15 fdbb d464 41bb dfe8 45ba
00000020: 3004 df3b 404c 133b 336a 33b9 a838 43b9
00000030: 9466 3fbc ec63 ccba 090d d6ba 9866 8aba
00000040: b7a0 13ba 1ada 0fbc 35d4 61bb 3347 b6bb
00000050: 14a3 dfba 22c3 bcb9 0cdb 6f3b 1ee6 fcba
00000060: 7b20 0ebc 8120 d53b 8247 cebb b0f0 fb39
00000070: baa6 0a3a fa47 4abc ed70 393b 1321 03ba

sequential_20/dense_44/BiasAdd/ReadVariableOp/resource f4 [256]
-0.002450202 0.0045949244 0.0027199262 0.0013352861 0.0033630235 0.00096018537 0.0044304165 0.0017928852
0.00023909933 -0.0011555278 0.00014396018 0.0005465325 -0.0010220605 0.0001830363 -0.0003554139 0.0015915436
0.0036979965 0.00012352077 0.0007295501 0.0012391793 -0.002941654 -0.0021182355 -0.00076930056 -0.0024111243
0.00035939444 0.0027324706 -0.0028609147 -0.0006969324 0.0039698505 0.00016105114 0.0022235296 0.0032994836
0.00039499855 -8.675129e-05 0.0027546687 -0.0037265096 -0.002250713 -0.0031461136 -0.0026582382 0.00097644643
-0.0001747983 0.0019485676 -0.0014601494 0.0007456193 0.0008276049 0.00054178503 -0.0005725458 -0.00044606405
0.00017476495 0.0018030318 0.0004842587 -0.0015842847 -0.0005621693 0.0029552414 0.00051910005 0.0056032357
0.0023927083 -0.0006192276 -1.5907759e-05 -0.00034607848 0.0055445163 0.00095291005 9.4799885e-05 -0.00015420385
0.00070370396 0.0007993712 0.0008899167 -0.0012718474 0.003048887 -0.0014221192 -4.400084e-05 0.00014085711
0.0014182527 -0.0012044631 0.0062141153 0.0029550893 -0.0016055037 0.00048231683 0.0028080046 -0.0019447443
0.0004993348 0.0023816559 0.0016995472 0.0011334509 0.003094595 -0.00021993401 0.000118908465 -0.00027159954
-0.0021704792 4.606608e-05 0.003021662 -0.0004071145 0.003483868 0.00088986004 0.0031705627 6.412502e-06
0.0017111578 0.0047289273 0.0018996678 -0.0011845232 0.0043012677 0.0014059275 0.00074062496 0.0011533381
0.0030206174 0.0017164033 0.0034622066 0.00014895479 -0.0060297623 0.0029760252 0.0020165646 0.00014727301
-0.002027782 -0.0010210669 0.00011547816 0.00021266316 0.0015898724 0.0006320637 0.0019381823 0.0024200967
-8.509404e-05 -0.00039505988 0.00084411865 -0.0006549559 -8.0940496e-05 -0.0009684855 -0.0025917052 0.0017002935
0.0034822538 -0.00011833425 -2.163228e-05 0.0050414186 0.0019035573 -0.0011214318 8.0504644e-05 -0.0009916346
-0.0006118882 -5.6365574e-05 0.0013309513 0.0029086643 -0.0017954296 0.0010782648 -0.0030139773 0.005901875
0.0033223152 -0.0008271552 0.0010846897 0.00052800664 0.0053609293 0.0013939963 -0.00028081093 -0.00027016122
0.0070577906 0.0037966068 -0.0006887064 -0.00095288316 -6.0315266e-05 -0.00262196 0.00059402466 0.004150031
-3.653224e-05 -0.00060076016 0.0019138139 -9.1288704e-05 0.00028770094 0.0008994137 0.0016334327 0.0020342374
0.00052782963 -0.0011038296 -1.0090436e-05 0.0009209461 -0.001622073 -5.042892e-05 -0.000493632 -0.0002972793
-0.0018926411 -0.000506255 -0.0012222388 -0.0025051285 0.0016420851 -0.0005031336 -0.0011760351 -0.0015501301
0.00046251924 0.0036794425 -0.0020768773 -0.0011321517 0.00016763108 0.0009401985 -0.00081233383 0.0017333319
0.00050885987 -0.0029696564 0.0016421117 0.002700044 0.0018141355 0.00011793578 0.002004855 -0.0023150083
-7.2601375e-05 0.0005474373 0.001131521 0.0007001424 0.0012600356 0.0020786314 -0.001015665 0.00019076266
0.0009304432 0.00032743058 5.0686256e-05 -0.00060785725 0.0006848173 3.6074838e-05 0.0010714674 -0.0012159188
-0.00022655928 -0.0012277726 0.0033255145 -0.0014800242 -0.0039223963 -0.00036719925 0.00021763495 0.0007817568
0.0012152498 -0.00061497086 0.00077207724 0.0007557259 0.0026858076 0.0065203873 -0.0014549688 -0.0008261485
0.00650861 0.003448095 0.0025679406 0.00020033031 -0.000659928 0.00045581558 -8.516839e-05 -0.0004477112
-0.0014626931 -0.001976389 0.0035591132 -0.00017126894 0.00054202107 -0.00075725623 -0.0008138957 -0.0008102644
-0.0005662008 -0.000657649 0.00036778912 0.001643073 0.00086518336 0.0025733812 -0.0002955227 -0.002814396
00000000: 9193 20bb 0591 963b ca40 323b c404 af3a
00000010: 2c66 5c3b f3b4 7b3a 072d 913b 3fff ea3a
00000020: bdb6 7a39 1475 97ba 04f4 1639 2d45 0f3a
00000030: a9f6 85ba 6fed 3f39 d956 bab9 579b d03a
00000040: 165a 723b 5b85 0139 473f 3f3a f56b a23a
00000050: c4c8 40bb 18d2 0abb e3aa 49ba f403 1ebb
00000060: 1b6d bc39 4013 333b 2f7e 3bbb 57b2 36ba
00000070: 8515 823b d6df 2839 a3b8 113b 263c 583b
00000080: cf17 cf39 3fee b5b8 ac87 343b 7538 74bb
00000090: b380 13bb 072f 4ebb d635 2ebb 36f8 7f3a
000000a0: 104a 37b9 1467 ff3a 7c62 bfba aa75 433a
000000b0: a0f3 583a 9406 0e3a e616 16ba b4dd e9b9
000000c0: 1c41 3739 b553 ec3a 1ae4 fd39 c6a7 cfba
000000d0: 8b5e 13ba b9ac 413b 3714 083a 599b b73b
000000e0: fcce 1c3b a953 22ba a771 85b7 de71 b5b9
000000f0: c6ae b53b b6cc 793a 4dcf c638 c8b1 21b9
00000100: c678 383a e58c 513a 4c49 693a 1eb4 a6ba
00000110: d6cf 473b 6766 baba 8b8d 38b8 0bb3 1339
00000120: aae4 b93a 13df 9dba c79f cb3b 2caa 413b
00000130: c46f d2ba 78df fc39 8006 383b cae6 feba
00000140: cbe5 023a 8e15 1c3b 57c3 de3a 4d90 943a
00000150: b0ce 4a3b 169e 66b9 7f5e f938 7965 8eb9
00000160: 993e 0ebb 1437 4138 1307 463b fc71 d5b9
00000170: 9b51 643b 7f45 693a 37c9 4f3b f92a d736
00000180: ee48 e03a 1ef5 9a3b 46fe f83a 0142 9bba
00000190: a6f1 8c3b 1947 b83a 8026 423a 9b2b 973a
000001a0: 8df5 453b f0f8 e03a 30e6 623b bf30 1c39
000001b0: 5095 c5bb 6b09 433b 5728 043b 4c6d 1a39
000001c0: 89e4 04bb 52d5 85ba dd2c f238 55fe 5e39
000001d0: 4463 d03a 14b1 253a 9b0a fe3a 7c9a 1e3b
000001e0: 8474 b2b8 0a20 cfb9 d847 5d3a 59b1 2bba
000001f0: 99be a9b8 f6e1 7dba 99d9 29bb 62dc de3a
00000200: 8636 643b 372a f8b8 f876 b5b7 7c32 a53b
00000210: c980 f93a 02fd 92ba 9ad4 a838 bcf9 81ba
00000220: 1f67 20ba 136a 6cb8 5173 ae3a 4a9f 3e3b
00000230: 9f54 ebba 9054 8d3a 2686 45bb 8464 c13b
00000240: 33bb 593b 72d5 58ba 262c 8e3a ed69 0a3a
00000250: bcaa af3b c1b6 b63a ce39 93b9 6da4 8db9
00000260: 0a45 e73b 7ed0 783b 4e8a 34ba e8ca 79ba
00000270: 06fb 7cb8 30d5 2bbb 52b8 1b3a fcfc 873b
00000280: 323a 19b8 557c 1dba f0d8 fa3a 4072 bfb8
00000290: 91d6 9639 a2c6 6b3a e818 d63a d750 053b
000002a0: 0c5e 0a3a 60ae 90ba 184a 29b7 a66b 713a
000002b0: bd9b d4ba a483 53b8 1567 01ba 27dc 9bb9
000002c0: 7f12 f8ba 33b6 04ba 8733 a0ba 152d 24bb
000002d0: 3c3b d73a b9e4 03ba 3125 9aba bc2d cbba
000002e0: 487e f239 cd22 713b 381c 08bb b564 94ba
000002f0: 20c6 2f39 a777 763a cdf2 54ba f830 e33a
00000300: 0265 053a 919e 42bb 203c d73a 39f3 303b
00000310: 49c8 ed3a 4a54 f738 e363 033b 65b7 17bb
00000320: 9141 98b8 e581 0f3a 8b4f 943a c389 373a
00000330: c727 a53a a639 083b 1020 85ba 7607 4839
00000340: fce8 733a fdaa ab39 f497 5438 9c58 1fba
00000350: 5085 333a 104f 1738 7b70 8c3a 775f 9fba
00000360: 8b90 6db9 36ed a0ba e0f0 593b 5ffd c1ba
00000370: 7287 80bb a684 c0b9 f034 6439 d0ee 4c3a
00000380: 0449 9f3a ff35 21ba 3a65 4a3a e81b 463a
00000390: 6004 303b f9a8 d53b a7b4 beba e391 58ba
000003a0: 2e46 d53b 6ff9 613b e54a 283b c20f 5239
000003b0: 05ff 2cba 88fa ee39 6e9c b2b8 c8ba eab9
000003c0: d6b7 bfba 4e86 01bb 0340 693b a896 33b9
000003d0: 6b16 0e3a 9b82 46ba 9e5b 55ba ec67 54ba
000003e0: 186d 14ba 1466 2cba d2d3 c039 625c d73a
000003f0: 79cd 623a 2ca6 283b 63f0 9ab9 bb71 38bb

sequential_20/dense_45/BiasAdd/ReadVariableOp/resource f4 [64]
-0.00016824137 -0.002683275 -0.0014919447 -0.0038022965 0.0025019716 -0.000526304 0.0026748488 0.0027188251
6.305274e-05 -0.0056259953 0.00199163 0.002001554 -0.0036036759 0.0030181832 -0.0004270455 -0.009440609
0.00024990467 -0.0014192763 -0.0027104784 -0.00091974094 0.0017963221 0.014228293 -0.00022967103 -0.0031158377
-0.0010789239 0.0006206882 0.0077091344 0.010489608 -0.0025276758 0.0032981038 0.0004894145 0.00887296
0.0069978777 0.0107320575 -0.0018254222 -0.0016570053 -0.0005646805 2.2624074e-06 0.010485906 -0.000103427774
-5.820043e-06 1.1611244e-05 -3.0274303e-05 -0.0025732417 -0.00046007131 -0.005412651 -6.566204e-05 0.00035486015
-0.001652307 -0.0021537293 -0.0031546927 0.014347685 -0.0004308389 -0.0010451141 0.0009540298 0.004871023
0.010229703 0.0050203297 0.009903679 0.006217452 -0.0046423087 0.0017680619 -0.00019550198 -0.0062201605
00000000: f369 30b9 e2d9 2fbb 5b8d c3ba f32f 79bb
00000010: 1ef8 233b aaf7 09ba 844c 2f3b 512e 323b
00000020: 2f3b 8438 455a b8bb 0286 023b 812c 033b
00000030: a62b 6cbb b6cc 453b 14e5 dfb9 c9ac 1abc
00000040: a305 8339 0307 baba 48a2 31bb c51a 71ba
00000050: 9172 eb3a c91d 693c d9d3 70b9 1533 4cbb
00000060: ae6a 8dba aeb5 223a e89c fc3b 9bdc 2b3c
00000070: 5da7 25bb 0025 583b 0d4c 003a e45f 113c
00000080: 744e e53b 83d5 2f3c 0143 efba df2f d9ba
00000090: 1107 14ba ddd3 1736 14cd 2b3c 5de7 d8b8
000000a0: ca49 c3b6 eacd 4237 92f5 fdb7 d5a3 28bb
000000b0: ba35 f1b9 9c5c b1bb 0ab4 89b8 860c ba39
000000c0: 3992 d8ba 9525 0dbb f6be 4ebb 8d12 6b3c
000000d0: 38e2 e1b9 36fc 88ba db17 7a3a 1a9d 9f3b
000000e0: 7c9a 273c 9481 a43b 0a43 223c c5bb cb3b
000000f0: 821e 98bb 50be e73a aaff 4cb9 7dd2 cbbb

sequential_20/dense_46/BiasAdd/ReadVariableOp/resource f4 [4]
-0.004467 -0.020166833 -0.0072496627 0.031883482
00000000: e95f 92bb ea34 a5bc 948e edbb 4198 023d

sequential_20/dense_44/MatMul f4 [256, 320]
0.052047335 -0.036760043 -0.032678314 -0.047794532 0.057568673 -0.07225771 0.012008783 -0.0030553874
-0.044197533 -0.08315803 0.07794037 0.03160735 -0.02082354 0.003916997 0.010678536 -0.07721801
-0.014091927 0.068261296 0.0017133205 0.013261442 -0.012271982 0.006209428 0.09310195 0.023103302
-0.0027373412 -0.0021507428 -0.012669739 0.08522481 0.05083067 -0.05108593 -0.08511917 0.03650496
-0.07885252 -0.07499307 -0.0053701033 -0.09960704 -0.066485934 -0.050392568 0.06379449 0.08907391
-0.0642401 -0.006641034 -0.034318082 -0.0051151915 -0.10385693 -0.03034731 -0.011053413 -0.020270795
-0.020184195 -0.022144858 0.0672569 -0.058822297 0.08994193 0.09743697 -0.026424507 0.05344456
0.07448418 -0.011266844 0.025465477 0.035497624 0.096479096 0.017587211 0.0034311647 -0.08143604
-0.011413939 -0.03409413 0.033892807 -0.035878036 -0.06852849 -0.024383312 -0.08605267 -0.035941634
-0.017214369 -0.09784064 -0.10563829 0.07726579 -0.07545254 -0.08968612 -0.09515269 0.012475696
0.026431102 -0.06539505 0.08986513 0.08779723 -0.020353924 -0.021171974 -0.07014259 0.04503494
-0.014722925 0.043972965 0.093037605 -0.064818576 0.043503877 -0.08153506 0.06567252 0.045725238
-0.05261678 0.03680143 -0.06699274 -0.09706448 -0.0498773 -0.1020103 0.035933413 0.09658589
-0.09322885 0.08324345 -0.006378422 0.010139305 0.05439416 -0.008171781 0.07731313 -0.0010932994
-0.090903886 0.07710202 -0.015810454 -0.07308096 0.028184803 -0.020981861 -0.04211531 -0.016828181
0.08431756 0.027946483 -0.00089006196 0.07985008 -0.08552356 -0.03076661 0.092952654 0.023858046
-0.09938089 0.032509655 -0.012511742 -0.09433005 0.06865984 0.040586375 0.052698705 -0.06542546
0.051339347 -0.005631069 0.06721482 -0.09195365 -0.017152416 -0.06989365 -0.051205326 -0.10120193
0.01141321 0.08161746 0.05075144 -0.049828585 -0.10187652 -0.0007160665 -0.07326092 0.007013204
-0.03364432 -0.013143113 -0.06383328 -0.08404665 -0.08999789 0.061289996 -0.043100346 0.047497798
0.022466011 0.07211197 -0.101020895 0.086663134 0.038045477 -0.09574613 0.036547434 -0.017460313
0.00072865235 -0.06142953 0.059273276 -0.086960986 -0.08435424 -0.0008060716 0.061797343 0.05626056
0.09122604 -0.06777209 0.08008868 -0.07497663 0.08070394 0.073975965 0.0325169 -0.05599527
0.042724162 -0.035093144 -0.005698691 0.044711243 -0.051428866 -0.040612668 -0.025593225 -0.024448624
-0.093187906 -0.0044552977 0.030243156 0.06196861 0.006078641 0.05151149 0.0027254291 0.030116983
-0.0004536685 -0.0026205576 0.07216078 0.00931769 0.023480406 -0.064357966 -0.05063163 0.013377179
-0.06817287 0.085864246 -0.08791277 0.087511145 -0.05158157 0.051312897 -0.08758406 -0.082234845
-0.100862585 -0.02381641 -0.061775945 -0.00646306 0.012157627 -0.01721731 -0.057240937 -0.009120458
0.07170818 -0.05363896 -0.091222346 0.065523565 -0.093714416 -0.072151124 0.023159858 -0.10094602
0.03485379 -0.093522236 0.035537925 0.0996477 -0.030503495 0.07786114 0.015064293 0.056360636
0.0013479299 -0.05198465 0.013198654 -0.035243697 0.025210192 -0.0031954497 -0.021154007 0.075990334
-0.05732341 0.09741389 0.015258609 0.07730531 0.012387707 -0.073195964 -0.07666108 0.02813549
00000000: 962f 553d b391 16bd b2d9 05bd 33c4 43bd
00000010: 21cd 6b3d dafb 93bd 7dc0 443c e53c 48bb
00000020: 7908 35bd c24e aabd 339f 9f3d b576 013d
00000030: 2196 aabc 275a 803b 07f5 2e3c 7a24 9ebd
00000040: d3e1 66bc 94cc 8b3d 7f91 e03a 8546 593c
00000050: 6c10 49bc 7578 cb3b 3cac be3d 2343 bd3c
00000060: f764 33bb 7af3 0cbb bd94 4fbc 588a ae3d
00000070: d233 503d 7b3f 51bd f652 aebd 3a86 153d
00000080: 6e7d a1bd f795 99bd b1f7 afbb c7fe cbbd
00000090: c729 88bd 7068 4ebd b0a6 823d 626c b63d
000000a0: 5090 83bd 089d d9bb 1e91 0cbd 569d a7bb
000000b0: f1b2 d4bd ec9a f8bc 6019 35bc f00e a6bc
000000c0: 5359 a5bc 2269 b5bc fcbd 893d a6ef 70bd
000000d0: 7933 b83d 098d c73d 3578 d8bc afe8 5a3d
000000e0: 298b 983d 9298 38bc fa9c d03c f565 113d
000000f0: d596 c53d 0e13 903c 64dd 603b f0c7 a6bd
00000100: 8801 3bbc 49a6 0bbd 2fd3 0a3d d9f4 12bd
00000110: aa58 8cbd 83bf c7bc 623c b0bd 8937 13bd
00000120: 2605 8dbc ac60 c8bd e358 d8bd 873d 9e3d
00000130: dc86 9abd 5bad b7bd 6adf c2bd dd66 4c3c
00000140: 0a86 d83c d7ed 85bd 360b b83d 09cf b33d
00000150: 46bd a6bc d970 adbc eba6 8fbd 8f76 383d
00000160: 6c38 71bc ff1c 343d 808a be3d 9abf 84bd
00000170: 1f31 323d dbfb a6bd 507f 863d 634a 3b3d
00000180: b184 57bd 19bd 163d 7d33 89bd bec9 c6bd
00000190: 244c 4cbd c7ea d0bd ea2e 133d d3ce c53d
000001a0: c4ee bebd 8b7b aa3d 1502 d1bb 541f 263c
000001b0: 69cc 5e3d efe2 05bc 5956 9e3d 0a4d 8fba
000001c0: d12b babd aae7 9d3d ed84 81bc 78ab 95bd
000001d0: d1e3 e63c 27e2 abbc 1a81 2cbd 41db 89bc
000001e0: afae ac3d 06f0 e43c 0c53 69ba 7088 a33d
000001f0: fa26 afbd 420a fcbc f65d be3d f371 c33c
00000200: 3588 cbbd d828 053d 0dfe 4cbc 1d30 c1bd
00000210: 889d 8c3d e63d 263d 99da 573d c9fd 85bd
00000220: 3549 523d d584 b8bb eca7 893d 3252 bcbd
00000230: 3983 8cbc 6724 8fbd adbc 51bd f542 cfbd
00000240: 79fe 3a3c 0e27 a73d bee0 4f3d 0f19 4cbd
00000250: a3a4 d0bd 69b6 3bba d209 96bd 05cf e53b
00000260: a0ce 09bd 3656 57bc 06bb 82bd a620 acbd
00000270: d050 b8bd 380b 7b3d fd89 30bd 0d8d 423d
00000280: a40a b83c 71af 933d 0be4 cebd 717c b13d
00000290: 93d5 1b3d 8c16 c4bd c3b2 153d ee08 8fbc
000002a0: 0803 3f3a 889d 7bbd 89c8 723d 9a18 b2bd
000002b0: eac1 acbd 8d4e 53ba 361f 7d3d 7971 663d
000002c0: b8d4 ba3d 18cc 8abd 8905 a43d 598d 99bd
000002d0: 1b48 a53d b680 973d 7130 053d 4c5b 65bd
000002e0: 88ff 2e3d d4bd 0fbd 16bc babb 2323 373d
000002f0: 13a7 52bd 7859 26bd e2a8 d1bc 7b48 c8bc
00000300: 4dd9 bebd bffd 91bb 7fc0 f73c ccd2 7d3d
00000310: 562f c73b b6fd 523d 1d9d 323b e4b7 f63c
00000320: 5bda edb9 a9bd 2bbb 08c9 933d 39a9 183c
00000330: fb59 c03c 1cce 83bd 1d63 4fbd f52b 5b3c
00000340: 389e 8bbd 98d9 af3d 9c0b b4bd 0b39 b33d
00000350: 3247 53bd 792d 523d 465f b3bd be6a a8bd
00000360: 0b91 cebd a21a c3bc c608 7dbd 14c8 d3bb
00000370: c930 473c 510b 8dbc 7975 6abd f96d 15bc
00000380: bddb 923d 87b4 5bbd c8d2 babd 3831 863d
00000390: 58ed bfbd f8c3 93bd beb9 bd3c c9bc cebd
000003a0: d9c2 0e3d 9688 bfbd 3790 113d 1814 cc3d
000003b0: 77e2 f9bc a975 9f3d 39d0 763c 69da 663d
000003c0: 06ad b03a dbed 54bd 2b3f 583c b25b 10bd
000003d0: 9b85 ce3c c06a 51bb 2b4b adbc d2a0 9b3d
000003e0: f4cb 6abd ef80 c73d 3fff 793c 3f52 9e3d
000003f0: cff5 4a3c c4e7 95bd 7c00 9dbd 667c e63c

sequential_20/dense_45/MatMul f4 [64, 256]
0.093866706 -0.0644442 0.10793883 -0.12552284 0.104928546 -0.045565885 0.0034045093 -0.08225413
-0.10258721 -0.04029493 0.008369343 -0.01968456 -0.07805742 0.10490738 0.10125132 -0.14131574
-0.09176881 -0.056871705 0.02191533 0.085631676 -0.08714909 -0.11966637 0.06002336 0.049852155
-0.13576046 -0.10513958 0.12999414 0.10709901 -0.049147718 -0.052298646 -0.014573592 0.013593482
0.053202577 -0.12311874 0.032111656 0.09264206 0.028596764 -0.023071669 -0.008228267 -0.006782486
-0.009790974 -0.09546714 0.10315541 -0.0045048343 0.122649364 -0.070991 0.102910094 0.0888456
-0.064260624 0.028578002 0.023711806 -0.009194531 -0.050560676 -0.019464515 0.13894607 0.1082277
0.05199544 0.13081428 0.07324993 0.006060786 -0.10630575 0.034455117 -0.028389482 0.026806302
0.0070167314 0.101935424 0.04432089 0.07729415 -0.07205286 -0.02319246 -0.10675826 -0.017608723
0.08105214 0.040954135 -0.06461563 0.011924756 -0.090894885 -0.11793877 0.11870876 0.11843105
0.057748456 -0.012775152 0.07457235 0.027659232 0.05297213 0.07588501 0.013101263 0.13329823
0.08203373 -0.020573422 0.104023896 0.08397072 -0.07588114 -0.07155547 -0.08695511 -0.12924488
0.03982763 0.091167904 0.05175277 0.080060884 0.09690098 -0.10408356 0.045792446 0.07981284
0.009216556 -0.109714665 -0.10643907 0.019011503 -0.08958486 -0.019997064 -0.10574872 -0.043014675
-0.029653953 -0.025015978 -0.055375386 -0.11876038 -0.07756211 -0.031238997 0.023247493 -0.08134627
0.008344207 0.0985617 0.0717057 0.05050793 0.10548186 0.03723469 -0.07258761 0.12833962
0.016464345 0.028795784 -0.0042928895 -0.0040768166 0.06917471 0.13121821 -0.12259875 0.0367047
-0.067056425 -0.034092005 0.11665181 -0.00968524 0.09166687 0.121798664 0.052833833 0.13871317
0.0345143 -0.030448472 -0.007998885 0.058023468 -0.0864039 0.028404765 0.06122807 0.022867234
-0.073600076 -0.03933694 -0.015518028 0.009315448 0.012777716 -0.09362384 -0.0452333 -0.12205449
0.0035275184 0.025266813 0.11086175 -0.046318732 0.06495579 -0.06471744 0.022292791 0.054251328
0.09250888 -0.04930513 0.0976857 0.03709176 -0.097377054 0.096318975 0.11230092 -0.106045716
-0.07731988 0.13697514 0.09535491 0.0025524418 -0.02139203 -0.05571522 -0.10470186 0.06448907
-0.11818911 0.03949199 -0.07386921 0.0061093066 -0.11435582 0.00041766878 -0.057788923 0.11673385
0.13177618 0.036078606 -0.12388053 0.007680041 0.04377217 0.09127358 0.08327843 -0.055262823
0.07387746 0.02916078 -0.12644082 -0.0791155 0.051332142 0.098316036 -0.06671309 -0.081096604
-0.048774257 0.051545035 -0.11116863 -0.026578233 0.031693418 -0.010543223 -0.12667774 0.123651
-0.10875089 0.07652837 0.12994772 -0.0135424975 0.059147358 0.0732328 -0.027415149 -0.13817823
-0.0129742 -0.06232414 -0.09890911 0.10270948 -0.027209722 0.11355491 0.041267738 0.14037734
0.03506604 -0.06824255 -0.071550965 0.05929424 0.05663777 -0.011515582 -0.08623328 0.08487672
-0.11195809 -0.10910185 0.11780399 0.11011797 -0.052653033 0.089930095 0.00076996663 0.067632884
0.060458902 -0.10655066 0.01620226 -0.013922224 0.07627852 0.097858034 -0.023220336 -0.08291229
00000000: 303d c03d 52fb 83bd 090f dd3d 0f89 00be
00000010: c7e4 d63d 4ba3 3abd 301e 5f3b da74 a8bd
00000020: 3e19 d2bd 4c0c 25bd 921f 093c 8441 a1bc
00000030: 92dc 9fbd aed9 d63d da5c cf3d 13b5 10be
00000040: 49f1 bbbd 4ef2 68bd c787 b33c a95f af3d
00000050: 397b b2bd a413 f5bd 0edb 753d c631 4c3d
00000060: ca04 0bbe 6c53 d7bd 2f1d 053e ba56 db3d
00000070: 1e4f 49bd 1b37 56bd 13c6 6ebc 32b7 5e3c
00000080: f2ea 593d ae25 fcbd 8387 033d 1fbb bd3d
00000090: c343 ea3c cc00 bdbc dacf 06bc 9e3f debb
000000a0: 526a 20bc 4784 c3bd 2543 d33d 4a9d 93bb
000000b0: 972f fb3d bb63 91bd 87c2 d23d aff4 b53d
000000c0: 139b 83bd 6a1c ea3c 433f c23c a8a4 16bc
000000d0: b618 4fbd 0c74 9fbc e147 0e3e 7ca6 dd3d
000000e0: 2cf9 543d 2ef4 053e 0f04 963d 8f99 c63b
000000f0: d4b6 d9bd cf20 0d3d 0f91 e8bc e498 db3c
00000100: 9cec e53b 85c3 d03d d289 353d 654c 9e3d
00000110: 7390 93bd 1dfe bdbc 13a4 dabd 2b40 90bc
00000120: aafe a53d 86bf 273d 3355 84bd 0d60 433c
00000130: 1927 babd e289 f1bd 941d f33d fa8b f23d
00000140: a589 6c3d df4e 51bc 63b9 983d 9d95 e23c
00000150: 4ef9 583d 9a69 9b3d aea6 563c 557f 083e
00000160: 4d01 a83d 9889 a8bc 7b0a d53d d7f8 ab3d
00000170: 9267 9bbd ad8b 92bd 8515 b2bd c558 04be
00000180: 4c22 233d 3db6 ba3d b6fa 533d f6f6 a33d
00000190: 0574 c63d c329 d5bd dc90 3b3d ea74 a33d
000001a0: 0a01 173c 15b2 e0bd bafc d9bd 03be 9b3c
000001b0: 4478 b7bd e2d0 a3bc c992 d8bd 2830 30bd
000001c0: d9ec f2bc 4fee ccbc 4dd1 62bd a438 f3bd
000001d0: e2d8 9ebd ede8 ffbc 8771 be3c e098 a6bd
000001e0: 24b6 083c b7da c93d 70da 923d 67e1 4e3d
000001f0: e006 d83d 6783 183d d0a8 94bd 766b 033e
00000200: 3ce0 863c 23e5 eb3c 5eab 8cbb d196 85bb
00000210: 78ab 8d3d 115e 063e 0e15 fbbd ab57 163d
00000220: e154 89bd 0fa4 0bbd 25e7 ee3d d7ae 1ebc
00000230: d7bb bb3d 9471 f93d 4a68 583d d30a 0e3e
00000240: de5e 0d3d 136f f9bc c10d 03bc 04aa 6d3d
00000250: 87f4 b0bd 1cb1 e83c 49ca 7a3d 1154 bb3c
00000260: a3bb 96bd c51f 21bd 543f 7ebc d29f 183c
00000270: a059 513c dbbd bfbd 8e46 39bd b4f7 f9bd
00000280: f02d 673b 59fc ce3c 7c0b e33d b6b8 3dbd
00000290: 8b07 853d 948a 84bd 5f9f b63c a436 5e3d
000002a0: 4c75 bd3d 2df4 49bd 710f c83d 88ed 173d
000002b0: 9f6d c7bd e242 c53d 06fe e53d 7f2e d9bd
000002c0: e359 9ebd 3643 0c3e 6f49 c33d de46 273b
000002d0: 573e afbc a435 64bd ee6d d6bd d812 843d
000002e0: 220d f2bd 5ac2 213d be48 97bd 9430 c83b
000002f0: 6233 eabd 8efa da39 14b4 6cbd 2812 ef3d
00000300: 56f0 063e 29c7 133d 13b5 fdbd daa8 fb3b
00000310: 724a 333d a5ed ba3d e28d aa3d 455b 62bd
00000320: 114d 973d 97e2 ee3c b479 01be 4f07 a2bd
00000330: a741 523d eb59 c93d dfa0 88bd fa15 a6bd
00000340: 84c7 47bd e320 533d 61ac e3bd 98ba d9bc
00000350: f5d0 013d 7bbd 2cbc cfb7 01be bc3c fd3d
00000360: c9b8 debd e8ba 9c3d 0411 053e 5ae1 5dbc
00000370: 8044 723d 14fb 953d bc95 e0bc 987e 0dbe
00000380: bd91 54bc 9947 7fbd dc90 cabd 5959 d23d
00000390: ece6 debc 7a8f e83d 5c08 293d 14bf 0f3e
000003a0: 68a1 0f3d c0c2 8bbd 5089 92bd 84de 723d
000003b0: 02fd 673d daab 3cbc 139b b0bd d9d3 ad3d
000003c0: 484a e5bd ca70 dfbd 3843 f13d 8885 e13d
000003d0: b5aa 57bd 452d b83d 96d7 493a 1c83 8a3d
000003e0: c1a3 773d 3c37 dabd 9aba 843c 0a1a 64bc
000003f0: ea37 9c3d cb69 c83d 9338 bebc ebcd a9bd

sequential_20/dense_46/MatMul f4 [4, 64]
-0.15950134 0.0023640469 -0.099470414 -0.08991899 -0.081612 -0.17732716 -0.06530497 -0.22832826
0.2190593 0.245884 -0.07256722 -0.034078 0.35983872 0.101812765 0.2234086 0.25395167
0.08202995 -0.15618134 0.18834086 0.0055633257 0.027511965 -0.124203175 -0.06429717 0.11979189
-0.2574191 0.03289054 -0.030013015 0.34298727 0.1072378 0.2807409 -0.2588007 -0.2671611
0.053029306 -0.049763735 -0.21879631 -0.17412306 0.083773494 -0.03677944 -0.27504164 0.15868662
-0.023298021 0.1306832 -0.04899036 0.110605195 0.19832116 -0.023462538 -0.07432324 0.1498508
-0.07281556 -0.0313254 0.023634173 0.043268494 -0.082196854 -0.10914175 -0.08052027 -0.31843066
-0.27688655 0.22516944 0.25914913 0.29661417 0.0054784906 -0.200416 0.21369207 0.17923012
0.13660881 -0.29765406 0.10096448 0.07736079 0.22348747 -0.13399522 -0.2106656 -0.12004809
-0.11914488 0.24801613 0.16310425 -0.08766094 0.14613467 0.1645919 -0.042094123 0.075954944
0.19753861 0.22983858 0.16835281 0.27354255 0.31614706 -0.17446971 -0.21583965 0.23635271
-0.028425027 -0.16742782 0.010513414 -0.2739458 0.0070902463 -0.15284982 0.046021555 -0.13439143
-0.068478875 -0.046337657 0.113272734 0.27354905 -0.038065933 -0.14152299 0.09894708 -0.096334286
-0.22725506 0.12072852 0.20041345 0.21561931 -0.083398275 0.19097677 0.05623637 0.06962696
-0.14227903 0.32115299 0.089930326 -0.12929754 0.016430058 -0.2343732 0.17343435 -0.20478016
-0.31868282 0.05931313 -0.31493825 -0.07174073 0.26640567 0.096223354 0.07369007 -0.10141432
0.06819501 -0.15097226 -0.0916155 -0.043673072 -0.11969177 -0.04919458 -0.022269966 -0.10394148
0.10594772 0.06877067 -0.33136442 -0.276473 -0.17474325 0.08857999 -0.31415495 0.19264299
0.121643685 0.14378293 -0.17957094 -0.03780756 -0.32924357 0.06323743 -0.07268254 -0.14659734
-0.061424043 -0.07932518 0.15569985 -0.261176 0.050541196 -0.29567787 0.35041654 -0.10343345
0.1731846 -0.061033778 0.16048658 0.030619903 -0.04690263 -0.2633193 -0.16590375 0.0075010173
0.08933569 0.1620935 0.257542 -0.04243819 -0.19136472 0.36552584 -0.22857544 0.20371446
-0.10072709 0.23635805 0.1093098 -0.28966862 -0.29547453 -0.23913679 0.07147329 0.027901033
0.14762726 -0.002629398 -0.24169266 0.24906567 0.060832888 -0.21899797 -0.15976958 0.14929245
0.0014475283 -0.31054637 0.036951907 -0.12219679 0.07359285 0.17096668 0.13417268 -0.071803845
-0.18024348 -0.05779628 -0.15002558 0.002536366 -0.064550094 0.28364137 -0.29510975 -0.3534564
0.01187891 -0.1707176 -0.050651565 0.12906095 0.045286793 0.2771566 -0.13275881 -0.14242326
-0.13230392 0.16537745 0.2982475 0.13544486 -0.16622026 0.21866316 -0.05270138 0.2269196
0.24990164 0.27357855 -0.1752906 -0.13814567 0.10664674 -0.28014854 0.21354058 0.043604597
0.00604964 0.13007043 0.18972185 -0.25221834 -0.09621333 -0.060668852 -0.14943273 0.14196563
-0.27017522 0.098748356 -0.1200217 0.33696786 -0.17838752 0.17711453 0.00670696 -0.008529061
0.098135464 0.19466889 0.1356326 0.22013843 0.051401418 -0.023070352 -0.21847315 -0.20058978
00000000: 5254 23be 20ee 1a3b 25b7 cbbd 7327 b8bd
00000010: 3124 a7bd 4095 35be 9dbe 85bd e2ce 69be
00000020: 1551 603e 04c9 7b3e 1f9e 94bd 5f95 0bbd
00000030: c83c b83e 3683 d03d 39c5 643e f405 823e
00000040: 52ff a73d 00ee 1fbe 6ddc 403e 8f4c b63b
00000050: c660 e13c 3c5e febd 3cae 83bd 7355 f53d
00000060: 70cc 83be 3bb8 063d dbdd f5bc 079c af3e
00000070: 7e9f db3d 45bd 8f3e 8681 84be 57c9 88be
00000080: 4235 593d 0fd5 4bbd 240c 60be 514d 32be
00000090: 7091 ab3d 0aa6 16bd 42d2 8cbe bf7e 223e
000000a0: 7edb bebc d1d1 053e 1eaa 48bd fa84 e23d
000000b0: b414 4b3e 8234 c0bc c836 98bd 7d72 193e
000000c0: 5320 95bd 104f 00bd 749c c13c 4e3a 313d
000000d0: d356 a8bd b685 dfbd d0e7 a4bd 5809 a3be
000000e0: 13c4 8dbe d192 663e 32af 843e d0dd 973e
000000f0: e984 b33b da39 4dbe 18d2 5a3e 1a88 373e
00000100: 2ee3 0b3e 1d66 98be 77c6 ce3d 556f 9e3d
00000110: e6d9 643e 0b36 09be b9b8 57be c6db f5bd
00000120: 3b02 f4bd f1f7 7d3e cd04 273e 9487 b3bd
00000130: 54a4 153e c78a 283e e36a 2cbd 448e 9b3d
00000140: 9047 4a3e ce5a 6b3e ae64 2c3e c50d 8c3e
00000150: 07de a13e 30a8 32be 1205 5dbe 7206 723e
00000160: 9adb e8bc 3372 2bbe 7440 2c3c a042 8cbe
00000170: 4c55 e83b aa84 1cbe 1981 3c3d e89d 09be
00000180: a73e 8cbd 8ecc 3dbd 89fb e73d 9f0e 8c3e
00000190: 06eb 1bbd 67eb 10be c4a4 ca3d e94a c5bd
000001a0: 8db5 68be 8440 f73d 2f39 4d3e 4fcb 5c3e
000001b0: b7cc aabd 6a8f 433e 1c58 663d 9498 8e3d
000001c0: 98b1 11be 2a6e a43e 642d b83d 9366 04be
000001d0: 5498 863c 87ff 6fbe c698 313e e4b1 51be
000001e0: 652a a3be 53f2 723d 963f a1be ceec 92bd
000001f0: 5366 883e c010 c53d d2ea 963d 50b2 cfbd
00000200: d3a9 8b3d 7998 1abe e8a0 bbbd 89e2 32bd
00000210: f520 f5bd 4280 49bd 816f b6bc 45df d4bd
00000220: 1efb d83d a3d7 8c3d 99a8 a9be de8d 8dbe
00000230: e5ef 32be 6d69 b53d ebd8 a0be 3444 453e
00000240: 5320 f93d d53b 133e 72e1 37be 1adc 1abd
00000250: 9d92 a8be a082 813d 95da 94bd 9d1d 16be
00000260: c797 7bbd 3d75 a2bd c86f 1f3e dcb8 85be
00000270: 4904 4f3d 1763 97be cc69 b33e ebd4 d3bd
00000280: 4e57 313e 8efe 79bd 9856 243e 97d6 fa3c
00000290: f91c 40bd cad1 86be ace2 29be 18cb f53b
000002a0: a1f5 b63d d7fb 253e 8cdc 833e abd3 2dbd
000002b0: 1df5 43be 3426 bb3e ae0f 6abe 869a 503e
000002c0: 014a cebd d807 723e d1dd df3d 724f 94be
000002d0: 7048 97be 46e0 74be 9760 923d b590 e43c
000002e0: 9a2b 173e fa51 2cbb 487e 77be 120b 7f3e
000002f0: e82b 793d 0141 60be a39a 23be 1fe0 183e
00000300: fdba bd3a efff 9ebe e25a 173d 5042 fabd
00000310: d9b7 963d e411 2f3e 9064 093e e50d 93bd
00000320: bf91 38be cbbb 6cbd 4ea0 19be 2939 263b
00000330: d732 84bd 7139 913e a018 97be 3df8 b4be
00000340: c29f 423c 98d0 2ebe 0478 4fbd 8e28 043e
00000350: a57e 393d 78e7 8d3e edf1 07be 67d7 11be
00000360: ae7a 07be b558 293e e5b3 983e 0fb2 0a3e
00000370: a535 2abe 3ce9 5f3e 67dd 57bd 9d5d 683e
00000380: 37e6 7f3e 7d12 8c3e 617f 33be 0f76 0dbe
00000390: 9b69 da3d a16f 8fbe 62aa 5a3e bc9a 323d
000003a0: 0f3c c63b 2f31 053e 7246 423e c322 81be
000003b0: 7f0b c5bd e77f 78bd e504 19be 705f 113e
000003c0: 6854 8abe 943c ca3d f0cd f5bd 0d87 ac3e
000003d0: 38ab 36be 835d 353e 0fc6 db3b 7abd 0bbc
000003e0: 3ffb c83d 4857 473e 46e3 0a3e f86b 613e
000003f0: 4b8a 523d 09fe bcbc 6db7 5fbe 6867 4dbe

sequential_20/conv2d_75/Conv2D f4 [128, 3, 3, 1]
-0.04364859 -0.03267016 -0.06113897 0.08258554 0.076732256 0.075752966 -0.030784806 -0.065452255
-0.021057997 0.039495237 -0.06904717 -0.024116952 0.060778733 0.039223343 -0.03439407 0.0529216
-0.055417858 0.052065983 -0.02672627 -0.07172757 -0.07532985 -0.046477705 -0.06343435 -0.06832152
-0.023662144 -0.026638266 -0.051690564 0.047626115 -0.041588005 0.017927874 0.02086782 -0.018106168
0.009775451 -0.0836131 -0.044777926 -0.02823987 0.060585774 0.011561791 0.056333352 -0.041032176
0.01146501 0.063380964 0.010419357 0.036224425 0.0019388868 -0.063935235 -0.0013575376 -0.007023877
-0.0244139 0.05039322 -0.043351762 -0.06808627 -0.06467876 -0.07533613 0.019055577 0.007271796
-0.076461226 0.054071464 -0.017742032 -0.06022924 -0.03202128 0.005356801 -0.01831933 0.03498917
-0.07370512 -0.05714433 0.0016009549 0.047461938 0.0068959882 -0.03958582 0.08030991 -0.072922386
0.058194943 0.06896435 0.06580238 -0.023865653 0.0041677784 0.05672508 -0.043267157 -0.014849079
0.0016599097 -0.12574053 -0.11689458 -0.070758 -0.07340427 -0.0885075 0.03721921 0.028385738
-0.0035582557 -0.0076625077 0.043948665 0.07068187 -0.023054698 -0.10841216 -0.09596978 -0.015964499
-0.019023057 -0.0354859 0.028303692 0.02386747 0.058352735 -0.053523652 0.052464742 0.06756109
0.026395433 -0.06312492 0.054871507 0.05820339 -0.06304453 -0.032153916 0.08101794 0.037814155
0.055949293 -0.017819887 0.02635436 -0.05456383 -0.002364101 -0.0047324295 0.02324154 0.0022680156
-0.022280255 0.031391107 -0.055441223 0.030222017 -0.044848096 0.03632867 0.0513387 0.00036386985
-0.0071572247 -0.042753637 -0.0052860887 0.016902832 0.0071432656 -0.05670147 -0.0068682255 -0.041419785
-0.042652674 -0.014961817 0.008821275 0.026226008 -0.056922764 -0.090780266 -0.09139519 -0.08853105
0.08252522 0.0757444 0.10233391 0.03622283 -0.008695162 0.09028352 0.040416352 -0.04342115
0.016662871 0.023134297 0.022779675 -0.07018365 -0.07325375 -0.005226612 -0.04493131 0.03464446
0.08366095 0.0031230631 -0.026560746 -0.0025580572 -0.07107421 -0.056447353 -0.044609334 0.025611784
0.10550638 0.1010911 0.010373405 0.0046448037 -0.010329336 0.012350535 0.075470395 0.10667707
0.031279936 -0.04575525 0.0256551 0.076128766 -0.05177449 -0.055703185 0.016575571 -0.017624611
0.08041527 0.03578127 -0.042787056 0.020378089 -0.06748129 0.024511315 0.08545184 0.06009138
0.00025885217 0.057766337 0.05972542 -0.08032305 -0.01270463 -0.0072325612 -0.074463524 -0.06900166
0.015167961 -0.078563616 0.006420948 0.023047538 -0.044831514 0.06740697 -0.05670694 0.042954568
-0.034629207 -0.056064405 -0.03728048 0.023420148 0.0076925913 -0.040164277 -0.0044585997 -0.023039997
-0.010072166 0.04968398 -0.07770181 0.060470667 -0.0032898292 -0.050850503 -0.0388455 0.03813368
-0.0026479159 -0.09803379 -0.012515069 -0.008775924 -0.030555012 0.06092833 0.09265322 -0.042015094
-0.023967361 0.023436056 -0.104921825 -0.087192535 -0.068310626 -0.05157478 -0.03367964 -0.045578126
0.06197824 0.11529867 0.037474718 0.054772057 -0.06458514 0.012989286 0.0101842405 0.01788391
-0.07499365 0.020508535 -0.0486125 -0.034882274 -0.08962373 -0.055611495 0.015550595 -0.005931303
00000000: ddc8 32bd 25d1 05bd db6c 7abd 9c22 a93d
00000010: cd25 9d3d 5f24 9b3d 6b30 fcbc d50b 86bd
00000020: d281 acbc c2c5 213d 9a68 8dbd ea90 c5bc
00000030: 1ff3 783d a8a8 203d cce0 0cbd 52c4 583d
00000040: d6fd 62bd 2443 553d 0df1 dabc e7e5 92bd
00000050: 8946 9abd 685f 3ebd dee9 81bd 27ec 8bbd
00000060: 1dd7 c1bc 7e38 dabc 7cb9 53bd 9a13 433d
00000070: 2f58 2abd 7add 923c fef2 aa3c 6353 94bc
00000080: 3729 203c 583d abbd 0f69 37bd 4d57 e7bc
00000090: ca28 783d ab6d 3d3c cdbd 663d 5b11 28bd
000000a0: bdd7 3b3c e1cd 813d f3b5 2a3c 1060 143d
000000b0: 3f22 fe3a 7af0 82bd 67ef b1ba 8d28 e6bb
000000c0: a9ff c7bc 1f69 4e3d 9e91 31bd d070 8bbd
000000d0: 4c76 84bd d449 9abd 711a 9c3c 3f48 ee3b
000000e0: b497 9cbd 0a7a 5d3d bd57 91bc f0b2 76bd
000000f0: bf28 03bd 1b88 af3b 6b12 96bc ce50 0f3d
00000100: b6f2 96bd 2c10 6abd 22d7 d13a 7367 423d
00000110: bef7 e13b be24 22bd 8679 a43d 5558 95bd
00000120: d25d 6e3d 2e3d 8d3d 66c3 863d e781 c3bc
00000130: dc91 883b 8f58 683d e738 31bd 8d49 73bc
00000140: 5491 d93a 20c2 00be 6d66 efbd 92e9 90bd
00000150: fa54 96bd 6c43 b5bd 2c73 183d 3589 e83c
00000160: a031 69bb c615 fbbb 8403 343d a8c1 903d
00000170: 35dd bcbc 3207 debd ce8b c4bd fbc7 82bc
00000180: 3ed6 9bbc aa59 11bd 25dd e73c b685 c33c
00000190: 4703 6f3d 9e3b 5bbd 45e5 563d 785d 8a3d
000001a0: 3c3b d83c a347 81bd f2c0 603d ae66 6e3d
000001b0: 7e1d 81bd d3b3 03bd bcec a53d 04e3 1a3d
000001c0: 162b 653d 03fb 91bc 19e5 d73c 537e 5fbd
000001d0: 08ef 1abb 7f12 9bbb 0b65 be3c fda2 143b
000001e0: 1585 b6bc f693 003d 5616 63bd 2a94 f73c
000001f0: a3b2 37bd 5fcd 143d 8748 523d c9c5 be39
00000200: 2787 eabb 701e 2fbd ed36 adbb cf77 8a3c
00000210: 0e12 ea3b cd3f 68bd da0e e1bb cba7 29bd
00000220: 92b4 2ebd 6922 75bc 1c87 103c edd7 d63c
00000230: d827 69bd 01eb b9bd 672d bbbd c44f b5bd
00000240: fc02 a93d e11f 9b3d 7194 d13d 645e 143d
00000250: 2776 0ebc 91e6 b83d 9e8b 253d 60da 31bd
00000260: 9380 883c 2384 bd3c 719c ba3c 72bc 8fbd
00000270: 1006 96bd 0044 abbb e509 38bd 59e7 0d3d
00000280: 6f56 ab3d 4eac 4c3b ec95 d9bc 14a5 27bb
00000290: 5b8f 91bd 5735 67bd 47b8 36bd cecf d13c
000002a0: bb13 d83d da08 cf3d 37f5 293c 7033 983b
000002b0: 603c 29bc e659 4a3c 3990 9a3d 8279 da3d
000002c0: 641f 003d db69 3bbd a52a d23c 66e9 9b3d
000002d0: 7d11 54bd 0629 64bd 7ec9 873c 7d61 90bc
000002e0: c3b0 a43d 628f 123d 7b41 2fbd f3ef a63c
000002f0: a133 8abd f4cb c83c 6001 af3d 6122 763d
00000300: 8db6 8739 659c 6c3d a4a2 743d 6980 a4bd
00000310: 1527 50bc 1fff ecbb 5580 98bd be50 8dbd
00000320: 0a83 783c f6e5 a0bd d166 d23b 31ce bc3c
00000330: 40a1 37bd aa0c 8a3d 8945 68bd 21f1 2f3d
00000340: 5bd7 0dbd caa3 65bd 6bb3 18bd 9cdb bf3c
00000350: 2212 fc3b 4c83 24bd 7219 92bb 60be bcbc
00000360: ba05 25bc 6e81 4b3d 2022 9fbd 17b0 773d
00000370: 2d9a 57bb 9e48 50bd 761c 1fbd 1032 1c3d
00000380: a888 2dbb f1c5 c8bd 010c 4dbc e5c8 0fbc
00000390: 814e fabc fc8f 793d f9c0 bd3d 0518 2cbd
000003a0: 3357 c4bc f9fc bf3c 41e1 d6bd 0092 b2bd
000003b0: 71e6 8bbd 1440 53bd aaf3 09bd 21b0 3abd
000003c0: e5dc 7d3d b621 ec3d 177f 193d aa58 603d
000003d0: 3745 84bd 04d1 543c cddb 263c 4781 923c
000003e0: 4596 99bd 8401 a83c e71d 47bd b7e0 0ebd
000003f0: a58c b7bd e1c8 63bd ecc7 7e3c 605b c2bb

sequential_20/conv2d_76/Conv2D f4 [64, 3, 3, 128]
-0.03190137 -0.009346865 0.038653914 -0.01995661 0.031010365 -0.051631864 0.007236652 0.046197385
0.05421278 -0.034439594 -0.00086613686 0.022446025 0.04218685 -0.018371198 0.03717125 0.026932243
-0.051411204 -0.042510677 -0.05384937 0.038414057 0.044218265 0.014070322 -0.02468126 -0.033846576
0.043665692 -0.032982945 -0.048614234 -0.020971349 -0.0019898426 -0.05197794 -0.05008387 0.040886864
-0.028593013 -0.030483114 0.0391048 -0.031140978 -0.031870805 0.02671658 0.0021408198 0.053155355
0.04431496 -0.04811485 -0.056583382 0.05104056 0.018344963 0.036196273 0.0061215726 0.0036750284
-0.010923836 -0.034237407 -0.04318627 -0.015831549 0.012687051 0.023777828 0.00010437216 -0.021336962
0.001056762 -0.012623391 0.056040596 0.03360618 -0.03270754 0.0153888175 -0.014975007 -0.04564905
-0.011978132 -0.041173704 -0.011830987 0.0076835034 0.005814714 0.0583413 0.006279255 -0.050891545
0.026752781 0.02727842 0.047698423 -0.04664981 0.021911224 -0.025874753 0.029619878 0.034774777
0.03138638 -0.006743964 0.030123284 -0.025504194 0.01283346 0.038401056 0.031570718 -0.02927086
-0.028722022 -0.011478011 0.01072473 0.03276109 -0.033666056 -0.010922914 0.04091094 0.053252622
0.03927973 0.03605746 -0.002032317 -0.026023947 0.005757216 -0.023896452 0.021091921 0.022207744
-0.04696227 -0.02939507 0.010317953 -0.0077850367 0.056485847 0.051977906 -0.04777033 0.038681436
-0.047473438 0.033184193 0.038879614 -0.058289967 0.00057766243 0.04803862 0.03672705 0.0249949
-0.058574893 -0.029602356 -0.048461836 0.040993206 -0.019436985 0.018977676 0.027963703 0.055619072
-0.047403786 -0.0063872924 -0.047458746 -0.014944691 0.052410863 0.057202183 -0.055060543 0.010491225
-0.030688917 -0.0099753225 0.030284565 -0.014866961 -0.0047016707 0.051932573 -0.010429171 0.01672872
-0.05038657 -0.055286538 -0.043989692 -0.05205992 0.007108445 -0.044494905 -0.048933808 -0.02346119
-0.03642016 0.01344988 0.01684847 0.052990455 0.008963673 -0.044612344 -0.013677884 0.036692724
-0.03245255 0.027383642 0.054607965 0.029102286 -0.033488613 -0.021865308 -0.043158192 0.00265476
-3.1853988e-06 0.043546464 0.032151222 -0.0005672191 0.036562525 0.02899789 0.0022398648 0.023130734
-0.045029305 -0.032153912 -0.014877588 0.020303706 0.0101196645 0.023025997 -0.0054125497 0.0065847235
-0.04867443 0.03262878 0.03155131 0.001102363 0.052118976 -0.038231164 3.3797598e-05 -0.036209427
0.045753036 0.055304937 -0.017528713 0.009892529 -0.022774518 0.0056055244 -0.023578094 -0.04486814
-0.046836298 0.00048984314 -0.018464535 0.007951013 0.0045124106 -0.013160516 -0.055023346 0.026910502
0.051432826 -0.015558646 0.014417465 -0.05364367 0.049781047 -0.0073205 0.004484228 0.028722614
0.011612647 0.00072928105 0.013762402 0.006971953 0.0031171532 0.0032211812 -0.05449358 0.052706618
0.03783316 0.023228172 0.016881088 -0.0457991 0.016116116 0.005020838 0.0540793 0.011316443
-0.03717498 0.041932523 -0.048282824 0.014926781 -0.0096339695 -0.0391669 -0.011363295 -0.012622361
-0.00921231 -0.03986189 -0.031274874 0.05024924 -0.023914995 -0.053516276 0.049002774 -0.018226359
0.0060152095 -0.021378435 -0.05187248 0.035341572 -0.038379624 0.023542056 0.00555503 0.047022566
00000000: 03ab 02bd 9823 19bc 9153 1e3d 0b7c a3bc
00000010: 7309 fe3c ef7b 53bd 7021 ed3b 7839 3d3d
00000020: 380e 5e3d 8810 0dbd 760d 63ba bae0 b73c
00000030: 1ecc 2c3d 327f 96bc e140 183d 02a1 dc3c
00000040: 8e94 52bd ad1f 2ebd 2891 5cbd 0f58 1d3d
00000050: 361e 353d 3587 663c 5b30 cabc b5a2 0abd
00000060: ccda 323d 2019 07bd b81f 47bd 1bcc abbc
00000070: 0568 02bb d2e6 54bd be24 4dbd fc78 273d
00000080: e53b eabc b9b7 f9bc 5b2c 203d 5d1b ffbc
00000090: f68a 02bd bbdc da3c ff4c 0c3b 6eb9 593d
000000a0: 9a83 353d 1414 45bd fac3 67bd e80f 513d
000000b0: 2d48 963c 8b42 143d 7997 c83b bfd8 703b
000000c0: e4f9 32bc 863c 0cbd 16e4 30bd 2ab1 81bc
000000d0: 59dd 4f3c b8c9 c23c 60e2 da38 daca aebc
000000e0: 0c83 8a3a 57d2 4ebc d38a 653d a2a6 093d
000000f0: 57f8 05bd 6121 7c3c bb59 75bc 80fa 3abd
00000100: ed3f 44bc c2a5 28bd c2d6 41bc e6c5 fb3b
00000110: 5b89 be3b 49f7 6e3d 35c2 cd3b a773 50bd
00000120: a628 db3c fe76 df3c 6c5f 433d df13 3fbd
00000130: 2b7f b33c 4af7 d3bc 63a5 f23c ff6f 0e3d
00000140: 018f 003d 78fc dcbb 1bc5 f63c 2cee d0bc
00000150: 6f43 523c 6d4a 1d3d 4c50 013d 71c9 efbc
00000160: 724a ebbc 440e 3cbc c7b6 2f3c 7e30 063d
00000170: 6be5 09bd 06f6 32bc 3b92 273d 6c1f 5a3d
00000180: c8e3 203d fdb0 133d 9f30 05bb 2c30 d5bc
00000190: 07a7 bc3b 7ec2 c3bc f7c8 ac3c 04ed b53c
000001a0: 825b 40bd eecd f0bc a20c 293c 9f19 ffbb
000001b0: b45d 673d c9e6 543d d2aa 43bd 6d70 1e3d
000001c0: 8273 42bd 26ec 073d 3b40 1f3d 76c1 6ebd
000001d0: 456e 173a 25c4 443d 1a6f 163d 1bc2 cc3c
000001e0: 3aec 6fbd a480 f2bc eb7f 46bd 7ee8 273d
000001f0: 503a 9fbc 1277 9b3c 2314 e53c d3d0 633d
00000200: 792a 42bd 7e4c d1bb 1a64 42bd 94da 74bc
00000210: c6ac 563d d64c 6a3d 2a87 61bd 63e3 2b3c
00000220: 5367 fbbc 896f 23bc 5617 f83c 8e94 73bc
00000230: 7910 9abb 40b7 543d 1ddf 2abc ab0a 893c
00000240: 2662 4ebd 2374 62bd 892e 34bd c83c 55bd
00000250: f5ed e83b 4a40 36bd d16e 48bd ae31 c0bc
00000260: 4e2d 15bd e35c 5c3c cd05 8a3c 850c 593d
00000270: 5fdc 123c 6fbb 36bd 3419 60bc 1c4b 163d
00000280: f7ec 04bd a953 e03c 9aac 5f3d eb67 ee3c
00000290: 5b2b 09bd e01e b3bc a5c6 30bd 7bfb 2d3b
000002a0: bcc4 55b6 c75d 323d 00b1 033d 6eb1 14ba
000002b0: 96c2 153d fc8c ed3c b2ca 123b aa7c bd3c
000002c0: a670 38bd d2b3 03bd 20c1 73bc f553 a63c
000002d0: f3cc 253c 04a1 bc3c c25b b1bb aac4 d73b
000002e0: d75e 47bd c1a5 053d f23b 013d 2a7d 903a
000002f0: b57a 553d 4898 1cbd e5c1 0d38 5650 14bd
00000300: 8967 3b3d 6e87 623d 6098 8fbc 4614 223c
00000310: a091 babc 8cae b73b d926 c1bc a8c7 37bd
00000320: 6bd7 3fbd d168 003a f042 97bc f744 023c
00000330: d8dc 933b 349f 57bc 2960 61bd 6a73 dc3c
00000340: 3aab 523d b1e9 7ebc 3b37 6c3c 77b9 5bbd
00000350: 36e7 4b3d cee0 efbb 6ef0 923b b04b eb3c
00000360: f942 3e3c 392d 3f3a b37b 613c fb74 e43b
00000370: 2749 4c3b 741a 533b a934 5fbd e5e2 573d
00000380: f2f6 1a3d 0249 be3c 354a 8a3c d697 3bbd
00000390: f205 843c d885 a43b 4282 5d3d 9a68 393c
000003a0: cb44 18bd 70c1 2b3d 36c4 45bd 758f 743c
000003b0: ccd7 1dbc 796d 20bd 1d2d 3abc 05ce 4ebc
000003c0: 3bef 16bc 3946 23bd 151a 00bd 26d2 4d3d
000003d0: 61e9 c3bc e233 5bbd 22b7 483d 724f 95bc
000003e0: 3c1b c53b d421 afbc 3d78 54bd 53c2 103d
000003f0: f433 1dbd 45db c03c f806 b63b bc9a 403d
