app/app/src/main/assets/sound_detection.tflite (tflite, 337932 bytes, 8 tensors)

sequential_38/conv2d_148/BiasAdd/ReadVariableOp/resource f4 [64]
000000 f9 52 b6 bb db f6 81 38 72 ef 00 bb 4b 7f ca bb
       -0.0055640903 6.19718e-05 -0.001967397 -0.0061797253
000010 81 54 0d 3a bc 79 b7 39 68 a3 19 3b 08 7a 5e bb
       0.0005391315 0.0003499518 0.0023443345 -0.0033947248
000020 22 6f b1 b8 0d ce 95 38 3c cd 8a ba 84 5b 17 3b
       -8.460718e-05 7.1432536e-05 -0.0010589729 0.002309532
000030 07 0f 93 39 35 7a 6f ba 84 e5 00 39 44 49 0d 3b
       0.0002804922 -0.0009135337 0.00012292532 0.0021558562
000040 04 57 a8 3a 0b c6 1b b9 62 2d c4 39 99 6d 9e ba
       0.0012843315 -0.00014855729 0.00037417846 -0.0012087106
000050 fd 0f 88 3b e8 f5 c0 3a 85 0b 82 bb 9e 8e a7 3a
       0.0041522966 0.0014721723 -0.0039686584 0.0012783592
000060 3a 25 13 bb 2d 35 b9 38 03 67 58 ba 57 ff 3c bb
       -0.0022452609 8.831392e-05 -0.0008255096 -0.0028838718
000070 fc 8c a8 bb 33 58 fc 39 40 a4 ca 3a 48 e4 a4 ba
       -0.00514376 0.000481309 0.0015460327 -0.001258024
000080 bb 7c 7e 3a 8f 6c 98 bb 40 b9 ba b9 54 f7 72 bb
       0.00097079173 -0.004651613 -0.00035614707 -0.0037073689
000090 d4 dd e8 b9 fc 54 a1 bb ff 51 6b 3b f9 0c 2e 3b
       -0.00044415763 -0.004923461 0.0035907028 0.0026558025
0000a0 cd 61 ab 3a 65 8b 6d b7 ec f4 cf 3a 3e 8c 1e 3b
       0.0013075412 -1.4158756e-05 0.0015865839 0.0024192478
0000b0 b2 ed 54 3b 18 21 fc ba f3 99 c5 3a ec 22 87 b9
       0.003249031 -0.0019235937 0.0015075788 -0.00025775225
0000c0 da b6 83 3a 18 b2 81 3a 31 51 ae 3a c4 59 b2 3a
       0.0010049001 0.0009894995 0.0013299343 0.0013607075
0000d0 3e dc 89 3a b2 7f 28 3b 29 3b ef ba 47 7c 4a 39
       0.0010517908 0.0025710878 -0.0018251884 0.00019310518
0000e0 02 68 61 ba 1f 81 0a bc e5 47 ad 3a 7d b6 b5 b9
       -0.0008598567 -0.008453636 0.0013220279 -0.00034658975
0000f0 58 a8 90 3a 03 e0 8b 3b 02 1f 8c 3b 03 25 5b bb
       0.0011036498 0.0042686476 0.0042761574 -0.0033438809

sequential_38/conv2d_149/BiasAdd/ReadVariableOp/resource f4 [32]
000000 3f 25 21 39 1d d6 01 bc 06 11 43 bb 9f fd c1 ba
       0.00015368032 -0.007924584 -0.0029764785 -0.0014800316
000010 71 68 9b bb a2 94 96 ba 6e cb 1b ba ae 99 18 bb
       -0.004742675 -0.0011488388 -0.0005943094 -0.002328496
000020 be fd 56 bb ea 49 4c 3b b3 0c 36 bc bf c5 8f ba
       -0.003280505 0.0031171986 -0.011111426 -0.0010968967
000030 8a c2 92 3a fe 9a b9 ba d2 41 82 39 5f a6 36 3a
       0.0011196893 -0.0014160571 0.00024844572 0.000696754
000040 51 15 9d bb 83 bf 68 bb 7f 59 17 3a 7e 0e a1 bb
       -0.004793801 -0.003551454 0.0005773529 -0.0049150577
000050 f7 86 4f bb 2c a9 d9 ba 66 a1 1f bb b7 2d 89 3b
       -0.0031666139 -0.0016606203 -0.0024357676 0.004186358
000060 02 71 09 3b 44 05 da 3a eb 3c 15 bb 75 aa 9a bb
       0.00209719 0.0016633649 -0.0022771906 -0.004720027
000070 b2 90 03 bc fc 66 d4 ba 3a f5 bb 3a 7b 8b c3 bb
       -0.0080301035 -0.0016205008 0.0014340051 -0.005967555

sequential_38/dense_109/BiasAdd/ReadVariableOp/resource f4 [16]
000000 6d fa b6 38 3f 6f da b9 60 46 c6 39 89 a6 68 ba
       8.725082e-05 -0.00041663085 0.00037817936 -0.00088749133
000010 7c 1f 81 3b b9 da e3 3a d7 43 8e 3b 90 84 5d ba
       0.003940521 0.001738391 0.0043415832 -0.00084502343
000020 6c 8c 65 3a 76 56 5e ba 6f e6 cd 39 ee 56 7b ba
       0.0008756581 -0.00084815116 0.00039272333 -0.00095878437
000030 0b 86 a8 39 08 23 8a 3b e7 d3 9d 3a 0c 44 8c bb
       0.00032143327 0.004215602 0.0012041301 -0.0042805728

sequential_38/dense_110/BiasAdd/ReadVariableOp/resource f4 [4]
000000 d4 1c d2 b8 64 2e f2 3b 1e 04 7c bc 12 91 04 3c
       -0.0001001895 0.007390784 -0.015381841 0.008091228

sequential_38/dense_109/MatMul f4 [16, 4032]
000000 b3 e5 0a 3d 24 74 7b bc d9 37 16 3d 51 cd aa 3c
       0.033910464 -0.015347514 0.036674354 0.020849856
000010 ab b4 2a bc 8f 2d ec bc 6c 12 62 3c f9 5b 16 3c
       -0.010419051 -0.028830318 0.013798337 0.009177201
000020 c4 55 19 bd 80 3c ee ba e4 15 66 3d 33 99 42 bc
       -0.037435308 -0.0018175989 0.05617322 -0.011877346
000030 f1 69 d7 bb 8a 71 c0 3c b3 7a aa 39 88 9b 96 bc
       -0.0065739085 0.02349164 0.00032516345 -0.01838471
000040 8f f6 20 3d 20 15 86 3c 5e d9 c1 bc 9f e8 11 bc
       0.039297637 0.016367495 -0.023663219 -0.008905559
000050 7c 4c ba bb bd 34 09 3d 75 4c 17 3d 7a 29 b9 3c
       -0.005685387 0.03349756 0.03693815 0.022602785
000060 45 6c 2d bc e1 ff 33 3c bf 9e a7 bc 80 21 d6 3b
       -0.0105848955 0.010986299 -0.020461438 0.006534755
000070 79 9d 8b 3c eb 23 48 bc eb 60 4c bc 9f 3b 7f bb
       0.017042862 -0.012215595 -0.012474279 -0.003894545
000080 fa 1a 1b bd 31 37 1a bd c3 3e b3 bc 96 ed 90 bc
       -0.037867524 -0.03765029 -0.021880513 -0.017691415
000090 0d 84 23 bd 43 29 11 bd d0 5f b7 3c 74 56 fc bc
       -0.039920855 -0.03543974 0.022384554 -0.030802943
0000a0 1d 29 ae bc 52 10 db 3b 25 a4 76 bc b1 c1 4e bc
       -0.021259839 0.006685295 -0.015053784 -0.012619422
0000b0 6d 87 84 bc 87 45 28 3c 09 6d e7 3c e0 aa 20 bd
       -0.016177857 0.010270483 0.028250234 -0.03922546
0000c0 ec 0a 96 3c fb e0 96 3c a1 3e 0a 3d b3 4c f6 3c
       0.018315755 0.018417826 0.033751134 0.03006587
0000d0 42 8b 70 3a 6d 74 1b bc 39 2e 0d 3d 44 f8 92 bc
       0.00091760245 -0.009488207 0.03446791 -0.017940648
0000e0 6a 4b 93 3b 73 84 72 bc 2f 19 10 3d 20 49 89 bc
       0.004495074 -0.014802086 0.035180267 -0.016758502
0000f0 0f aa 21 bc ea 4b c8 3b 0e 59 07 3c e7 ef ac bc
       -0.009867205 0.0061125653 0.008260978 -0.021110488
000100 37 cf 67 bc d5 3b b2 3c f3 37 e0 3c 5a 2f 5d 3a
       -0.014148525 0.021757046 0.027370429 0.0008437537
000110 3c 47 16 bd 26 4f 7f 3c f3 ae 72 bc 53 92 f5 3c
       -0.03668903 0.015582835 -0.014812219 0.029977
000120 b8 56 46 3c 9a df dd 39 21 50 ad bc bd bf 86 bc
       0.012105636 0.00042319 -0.021156373 -0.01644885
000130 30 1a c4 3c 2a 16 8e 3c a8 b0 fa bc 70 1b f6 bc
       0.023938268 0.017344553 -0.030601814 -0.03004238
000140 66 9f 54 bc 2d 2c 1b bd 06 e2 55 3c 0f fd 15 bc
       -0.012977457 -0.037883926 0.0130543765 -0.009154572
000150 42 45 9f bb f3 17 ff 3b 10 7d 35 bc 11 08 6d bc
       -0.004860551 0.0077848374 -0.0110771805 -0.014467255
000160 89 94 b2 3c 55 c9 be bb 70 f0 f2 3c a9 74 be 3c
       0.021799343 -0.0058223405 0.029655665 0.023248987
000170 80 32 90 bb 41 81 99 3c 74 ab 0f 3d 68 37 07 3c
       -0.0044005513 0.01873839 0.03507562 0.008252956
000180 6e de f1 bb 30 60 03 bc b6 aa 32 3c 98 c0 0c bd
       -0.007381252 -0.008018538 0.0109049585 -0.03436336
000190 fd 76 22 bd 28 6b 66 bc 99 6d 0f bd a3 9b 1d bc
       -0.039664257 -0.014063634 -0.03501663 -0.009619626
0001a0 53 77 27 bd 53 d8 a7 bb b7 4b 80 3c e5 d8 de 3c
       -0.04088528 -0.0051222234 0.015661104 0.027203033
0001b0 44 95 2c bd bf d3 63 3c 1c ad 14 3c 36 a1 b1 bc
       -0.04213454 0.013905465 0.009074476 -0.021683317
0001c0 af c0 0c 3d a3 0f 1f bd b9 5c 01 bd 8d ab 21 bc
       0.034363445 -0.03883327 -0.031582568 -0.009867561
0001d0 9c 7b 86 3c f7 03 dd bc eb f3 98 bc 3b 8d 95 bc
       0.016416363 -0.02697943 -0.018670997 -0.01825582
0001e0 28 81 cd 3b 9b c5 05 bd c7 55 0b 3d 6b 9d 16 3d
       0.0062715 -0.032659154 0.03401735 0.03677122
0001f0 a6 c6 0a bc 47 e1 80 3b 7f 0a db 3c 49 31 0f 3d
       -0.008470213 0.003933105 0.026738403 0.03495911
000200 b5 12 b9 bc 45 fa 0c bc 5f 5d 11 3d 62 a8 ee 3b
       -0.022591928 -0.008604591 0.035489436 0.0072832564
000210 29 59 17 bd 69 ce 8b bc 0d 27 fa bc 61 03 96 3c
       -0.036950264 -0.017066197 -0.030536199 0.018312158
000220 5a f8 e1 3b 55 fc 07 bd 38 49 03 3d 88 66 04 bc
       0.006896061 -0.033199627 0.03205225 -0.008081086
000230 b7 c7 88 bc c5 05 14 bd dd 0c a0 bc 6a c2 17 bb
       -0.016696794 -0.036138315 -0.019537384 -0.0023156651
000240 2e ad 88 3c 0c 87 53 3c 13 d7 c9 3c 3a a8 cd 3c
       0.016684141 0.012910616 0.024638688 0.02510463
000250 3e 18 5b bc 86 7b 1a 3d 97 c2 a2 bc 8b 28 dd bc
       -0.013372479 0.037715457 -0.019868178 -0.026996871
000260 d0 91 94 3c c5 3c a0 3b 66 88 0f 3d 13 a1 d0 3c
       0.018135935 0.004890057 0.03504219 0.025467431
000270 46 ad c3 bc a2 2e 25 bc b0 aa 8f 3c 47 e8 b0 3a
       -0.023886334 -0.010081919 0.017537445 0.0013496958
000280 de 99 dc bc 9d 04 11 bd 58 73 03 bd c5 0c a4 bc
       -0.026928838 -0.03540479 -0.032092422 -0.02002562
000290 7e fe 2e bc 47 a5 f6 bc 22 9f 88 bc c4 99 d9 bc
       -0.010680793 -0.030108107 -0.016677443 -0.026562579
0002a0 3f 39 ed 3b 79 9f bc bc 95 aa a3 bc 3d 8c 4c 3a
       0.0072394903 -0.023025261 -0.0199788 0.00078028796
0002b0 9d 80 91 bb 25 1f 71 3c fd d0 d8 bc 7d 2a cf bc
       -0.0044403807 0.014716898 -0.02646684 -0.025288815
0002c0 25 ff 97 bc b0 31 c8 bc ae 04 3c 3b ff 4b 7c bc
       -0.01855428 -0.024437755 0.0028689313 -0.015398978
0002d0 d6 7e 89 bc 04 38 2b 3d 73 b3 fe 3c 1e 4a f3 3b
       -0.016784113 0.041801468 0.031091427 0.007424607
0002e0 e1 b4 aa bc 0d 69 17 bd 41 2a 6b b9 02 0c 16 bd
       -0.020838203 -0.03696542 -0.00022427087 -0.036632545
0002f0 d7 68 61 3c 35 25 01 3c e4 d2 00 bc 02 aa 78 3c
       0.013757906 0.007882406 -0.00786278 0.015177252
000300 c5 4b 1a 3d 64 11 2c 3b 77 fb 54 bc 03 39 35 bc
       0.037669916 0.0026255483 -0.012999407 -0.011060956
000310 b4 41 ef bc 4a 9a 1f bd eb e8 4b 3c b4 a0 9a bc
       -0.029206134 -0.0389655 0.012445669 -0.018875457
000320 5a ae e1 3b ff 6d fe bc 5a 0d 40 3d 81 05 06 bd
       0.0068872394 -0.03105831 0.046887733 -0.032720093
000330 80 ac 58 3b 1e 5b 2e bc af da d8 3c 10 95 59 bc
       0.0033061802 -0.010641841 0.026471464 -0.013280168
000340 43 47 bd bc d2 91 2e bc 66 ef 08 3d da 5f 18 ba
       -0.02310527 -0.010654883 0.033431433 -0.0005812623
000350 33 78 b6 3b 5e 86 5d 3c ff d2 a3 bc fd 5d 84 3b
       0.005568528 0.013520805 -0.019998072 0.0040395246
000360 e8 df 09 bd 40 50 4e 3c 50 a7 9a 3b b1 ef 78 bc
       -0.0336608 0.012592375 0.0047196522 -0.015193866
000370 19 52 80 bb e5 9b ba 3b d4 0a b6 bc ae 0d cd bc
       -0.003916037 0.0056948536 -0.02222196 -0.025030937
000380 a5 ae c7 3c 99 e6 e1 3c 7c d0 95 bc f6 bd cb 3c
       0.02437527 0.027575778 -0.01828789 0.024870854
000390 4e 84 0f 3d 8f 36 3e 3c 57 8b 7d bc 07 71 ca 3c
       0.035038285 0.0116096875 -0.015475116 0.024712099
0003a0 aa 7f 92 bc 60 c3 26 bc c7 a1 32 3c 1b e1 11 bd
       -0.01788314 -0.010178417 0.010902829 -0.035615068
0003b0 1d 96 bb 3c 90 62 89 bc 57 a2 cf bc 5a 1e 0f 3d
       0.022898728 -0.016770631 -0.025345964 0.034941055
0003c0 fd 77 8f 3b ee 93 a0 ba 5f fc 12 3d a9 96 9e bc
       0.0043783174 -0.0012251118 0.03588521 -0.01935895
0003d0 1d 03 bb 3c 70 4a d4 bc bd 00 b9 3a 0e 8f 27 3d
       0.022828633 -0.0259144 0.00141146 0.040907912
0003e0 45 a0 b2 3b 43 d2 a4 bb d7 f9 9e 3c 9e 63 97 3b
       0.0054512345 -0.005029948 0.019406242 0.0046200296
0003f0 89 25 b7 bc 61 82 f0 bc 41 9d f3 3c 18 77 1a 3d
       -0.022356765 -0.029359045 0.02973807 0.037711233

sequential_38/dense_110/MatMul f4 [4, 16]
000000 85 cc fc be 41 24 00 3e cb 96 93 ba 21 c1 46 be
       -0.49374786 0.1251383 -0.001126015 -0.1940961
000010 f0 d6 86 3e 3a 38 9c be cd 59 e1 be 20 77 a2 be
       0.2633586 -0.30511647 -0.44013825 -0.3173151
000020 9e 55 bf bc 53 f2 e6 bd d5 5c 9a 3e 30 cb fc be
       -0.023356255 -0.112766884 0.3014895 -0.4937377
000030 19 ba 7c 3e c6 dd 60 3d ea 51 03 3e e4 5c 7c be
       0.24680366 0.054899 0.12824216 -0.2464481
000040 5a 7b a1 be 04 dd 86 be 1c 2f d4 3d 73 d8 76 3a
       -0.31539422 -0.26340497 0.10360548 0.0009416409
000050 09 ab 92 3d 84 11 c7 be af 38 e0 3e 7a 57 b5 3e
       0.071615286 -0.3888055 0.43793246 0.35418302
000060 b7 09 ca 3d b0 3f cf 3e 1f 14 b3 3d 2d c0 ca be
       0.09865134 0.40478277 0.08744072 -0.39599743
000070 5c fd a1 bd 14 e6 0d bf ae c3 e4 3e 03 75 86 be
       -0.079096526 -0.55429196 0.44680542 -0.26261148
000080 73 fd 28 be e5 8b 93 be 84 9d 83 3d 31 63 ac 3e
       -0.16502933 -0.2881767 0.06426528 0.33669427
000090 b1 d8 61 be ed 9e 82 be fc f1 d9 be dd 6c c0 bd
       -0.22055317 -0.25511876 -0.42567432 -0.09395764
0000a0 ab cd 09 bf e6 08 d9 bd 02 c8 27 3e b2 a4 d4 3d
       -0.5382945 -0.105974 0.1638489 0.10382976
0000b0 72 b9 4d be aa a9 54 be 09 2a 4a 3e 60 45 13 3f
       -0.20090273 -0.20767847 0.19742598 0.5752773
0000c0 a3 6f 78 be 32 22 0f bf e6 a0 b2 3e 86 ef 54 3e
       -0.24261336 -0.5591155 0.3488838 0.20794496
0000d0 ca 24 90 3c 4d f0 69 3e 9a e8 f4 3e 9b c7 0b bf
       0.017595667 0.22845574 0.4783371 -0.5460145
0000e0 dd 6f 16 be a0 d9 84 be d1 9b 26 3c 6b 57 04 3f
       -0.1469111 -0.25947285 0.010168985 0.5169589
0000f0 4b a9 a7 be f1 6c f4 3d 7b 10 b5 3d 92 82 5b 3c
       -0.32746348 0.119348414 0.08841034 0.01339783

sequential_38/conv2d_148/Conv2D f4 [64, 3, 3, 1]
000000 4b 2b f2 bd ac 16 1a bc cb 52 6b 3d 0f 2d 99 bd
       -0.11824664 -0.009404819 0.057452004 -0.07479297
000010 15 d4 88 bd 19 58 92 bd 24 85 b6 3d 34 eb 55 bc
       -0.066810764 -0.071457095 0.08912113 -0.013056565
000020 9f 6c 64 3c 1a c8 73 3d 93 d5 b8 3d 25 0a 39 bd
       0.013941913 0.059517004 0.09025111 -0.04517569
000030 1a 58 bc bd bd 10 77 3d 96 69 39 3c 8a b5 c8 3c
       -0.091964915 0.060318697 0.011316678 0.024500627
000040 db 46 c9 3c da a3 c3 3c eb 8e 0d be ff 31 2f bb
       0.02456992 0.023881841 -0.1382405 -0.002673268
000050 fc dd 99 3d 98 d8 bd bd 20 17 9e bd d8 db 29 bd
       0.07513043 -0.092698276 -0.077192545 -0.041469425
000060 6b 2d 9f 3c 2c 8d 87 3d 02 b6 2b 3c 54 9e d9 3c
       0.019430837 0.06618723 0.010480406 0.026564755
000070 b0 7a c6 3d ae 43 5d 3d 80 4a c6 bc 8b a3 43 3c
       0.096913695 0.054019623 -0.024205446 0.011940847
000080 f2 52 64 bd 21 70 bb 3c 72 37 f5 bd 17 48 55 bd
       -0.055743165 0.022880616 -0.11973466 -0.052070703
000090 58 f9 95 3d cc 83 de 3c 8b b6 db bd a2 fc 0d bd
       0.07322949 0.027162455 -0.10728177 -0.034664758
0000a0 48 d3 5d 3d c4 cb fa bc d5 85 42 3d 49 06 66 3d
       0.05415657 -0.030614741 0.047490913 0.056158338
0000b0 b1 97 47 bd e1 52 86 bd d8 67 0d 3c 76 7b 2f bd
       -0.04872865 -0.06558777 0.008630715 -0.04284235
0000c0 81 f9 ae bd 71 01 13 3d 64 7c 5d 3d dd d0 74 3d
       -0.08543683 0.035890047 0.054073706 0.0597695
0000d0 42 7f 66 bd 30 41 9a 3c d3 46 3c bd 21 c6 ac 3d
       -0.056273706 0.018829912 -0.04596598 0.084362276
0000e0 f8 03 2a 3d cb 82 ca 3d 58 97 e9 3c 91 81 fd bc
       0.04150769 0.09888228 0.02851455 -0.030945571
0000f0 77 88 98 3d f8 56 db 3d a0 b6 ed 3d 1c 3f 6c bd
       0.074479036 0.10709947 0.116070986 -0.057677373
000100 53 c6 64 bd 95 7f fd bd 7f 2d 7f bc f0 db 88 3d
       -0.0558532 -0.1237785 -0.015574812 0.06682575
000110 45 a3 7b bc 67 dc e7 3d df 98 36 bc 67 77 02 3e
       -0.015358751 0.11321335 -0.011144846 0.12740861
000120 c2 4a 7f bd 03 96 03 3d de 24 e3 bd 57 7a 2f bd
       -0.062327154 0.032125484 -0.11091016 -0.04284128
000130 4b e6 e7 bc 83 d5 d0 3c f4 79 c5 3d ff c3 3e bb
       -0.028308054 0.025492435 0.09642401 -0.0029108522
000140 33 ab 4b 3c 32 3b 78 bd 02 97 a4 3d 7d 68 3d 3d
       0.012430954 -0.060603328 0.08036615 0.046242226
000150 98 7a 3c bd af 50 c6 bd d9 bc 23 bd 89 53 a8 bc
       -0.046015352 -0.09683358 -0.03997502 -0.020547645
000160 0c 29 9a 3d ae fc 94 3c 49 ad c4 3d 3a 05 90 3d
       0.0752736 0.018186893 0.09603364 0.07032247
000170 79 1f 16 3d 25 ff d4 3b bd fb 08 3d 4a 67 d9 bc
       0.03665111 0.006500142 0.0334432 -0.02653851
000180 e3 1c b9 3d c8 db bc bc b1 9e a7 3c a7 b6 d0 3d
       0.09038713 -0.023054019 0.020461412 0.10191088
000190 ef cb 88 bd 34 f5 c6 bc 83 fa b6 bc 25 67 e8 3d
       -0.06679522 -0.024286844 -0.02233625 0.11347798
0001a0 b0 53 b0 bd 83 81 19 bd ab 47 08 3d 73 12 16 3d
       -0.08609712 -0.037477028 0.033271473 0.03663869
0001b0 1d a2 57 3d dc cb b6 bc cc 86 96 3d 0f 4b 6b bd
       0.052644838 -0.022314005 0.07349929 -0.05744463
0001c0 fe cc e8 bc 86 d0 f1 bc 83 d7 c6 bd ca 2e 45 bd
       -0.02841806 -0.029518377 -0.09709074 -0.048140325
0001d0 1d 14 f1 bc 1e b4 46 bd a9 cd af 3d e0 a2 19 bd
       -0.029428536 -0.048511617 0.085841484 -0.037508845
0001e0 c9 93 d0 bd 78 e7 a1 3d 91 17 b7 bd 50 15 5c 3d
       -0.10184438 0.07905477 -0.08940042 0.053731263
0001f0 97 a8 77 3c 7e 29 9c 3d 03 27 cd bc cf 7a b8 bc
       0.015115879 0.076251015 -0.025043016 -0.022519497
000200 f4 72 91 bd 76 59 57 bc 96 ee 1e bd f3 99 96 bd
       -0.07102004 -0.013143888 -0.038801752 -0.07353582
000210 09 5d 9e 3d f7 6a 98 3d 8f 26 13 bd 73 3f cf 3d
       0.07732589 0.07442277 -0.035925444 0.10119524
000220 3a 7f 4e bd de e6 90 3d 26 ec 70 bc 52 78 68 bd
       -0.0504143 0.070752844 -0.01470474 -0.05675537
000230 d3 56 78 3d 57 ec 85 3d 03 b6 58 bd 48 9f cd 3d
       0.060629677 0.06539219 -0.052907955 0.10040146
000240 cd 60 18 3d 42 85 1d bc 9b 32 31 3c b4 08 1b 3d
       0.03720169 -0.009614291 0.010815288 0.037850097
000250 e4 23 02 bb e5 a9 9f bc 11 e6 aa 3d e9 c5 26 3d
       -0.0019857818 -0.019490192 0.08344663 0.040716086
000260 ab 46 b5 bc 74 4f cf 3d c1 4d 0f bd 42 63 36 3c
       -0.022128424 0.10122576 -0.03498626 0.011132063
000270 0d 79 89 bd 00 53 4c bd 4d 79 9d 3b 1b 39 b0 bd
       -0.06712542 -0.049883842 0.00480572 -0.08604642
000280 9f 6d 9b 3d 6d 86 4b 3d e1 6a 76 3d a0 a8 90 bd
       0.07589268 0.049688745 0.06016052 -0.07063413
000290 37 66 34 3d e0 d5 8b 3d f3 5b 3a 3d b4 22 b9 3a
       0.044042792 0.06827903 0.045497846 0.0014124722
0002a0 54 93 9f 3d 78 de 7b 3d 46 f9 bc bd 7e f0 11 bd
       0.077917725 0.06149146 -0.09227233 -0.03562974
0002b0 08 d4 35 bc 65 be bf 3d d6 e1 68 bd aa 6d 01 bd
       -0.0110979155 0.09362487 -0.056856 -0.031598724
0002c0 17 9c ab 3c b7 ec af 3d 60 cc 72 3d 8b f9 0b bd
       0.020948453 0.08590072 0.05927694 -0.03417353
0002d0 c9 9e 70 bd b8 32 90 3d 0c f1 37 3a f5 1b 3f bd
       -0.05874518 0.07040924 0.0007016815 -0.04665752
0002e0 12 16 d8 3d da a3 3b bd d4 13 ac 3d c0 bb 85 bd
       0.105510846 -0.045810558 0.084022194 -0.06529951
0002f0 e8 4a 32 3c 5c 4b ec bc de e4 4f bc ce 29 49 bc
       0.010882117 -0.028844528 -0.0126888435 -0.012278033
000300 b9 da 04 3d 81 b4 a9 bd 84 54 fb ba e5 5b d0 bd
       0.032435153 -0.082863815 -0.0019174968 -0.101737775
000310 93 70 86 3d 6c 47 d3 3c 95 ec 57 3d 19 a0 b1 bd
       0.065644406 0.025790893 0.052715857 -0.08673114
000320 0a 18 86 bd e6 b6 49 3d 48 ff e7 bc 02 93 85 bd
       -0.06547554 0.04924669 -0.02831997 -0.0652218
000330 a5 72 87 3d a1 05 2e 3d 8e b5 02 3d fc 82 55 bc
       0.066136636 0.042485837 0.031911425 -0.013031717
000340 40 9a 7c 3d 18 6f ec bd 29 c5 ca bd fb 12 0c bc
       0.06167054 -0.11544627 -0.099008866 -0.008549447
000350 f3 08 11 bc 5f fc 76 3d 24 a0 a3 3d 7a fc d1 bd
       -0.008852231 0.060299274 0.07989529 -0.10253234
000360 e0 51 f4 bb ac 0f 8e 3d 5c f4 ca 3c 15 76 36 bd
       -0.0074560493 0.06936583 0.024774723 -0.044546206
000370 53 58 fe bb fd b5 de bd 6d 75 bd bd c7 bb 80 bc
       -0.007761994 -0.10874555 -0.09250913 -0.01571454
000380 dd e3 f1 bc ff bf 3b 3c cb 61 74 3d 0e bd 9b bb
       -0.029527599 0.01145935 0.059663575 -0.0047527617
000390 f9 27 84 3d 53 19 92 3c 3a f9 9e bd 28 65 9e bd
       0.06452937 0.017834341 -0.0776238 -0.07734138
0003a0 4e 86 48 3d 14 36 6d 3d 33 96 5e 3d 2e f5 ae 3d
       0.048956208 0.0579129 0.05434246 0.08542858
0003b0 26 db 96 3d 46 0c 54 3c 84 e4 b3 3d 17 3d 48 bd
       0.07366018 0.012942379 0.0878382 -0.048886385
0003c0 34 d8 ad 3c f7 08 bf 3d 23 67 b0 bb 6a 6e a7 3d
       0.021221258 0.09327882 -0.0053833886 0.08175357
0003d0 dc cd 87 3d 70 bb 72 3d d4 97 a3 bc 84 9a 84 3d
       0.066310614 0.059260786 -0.019969858 0.06474784
0003e0 f1 87 9e 3d ac f0 f7 bd 61 2e 9f bd 06 ea d2 bd
       0.077407725 -0.121064514 -0.07772518 -0.10298543
0003f0 0c ab 68 3d 67 bc 09 bd 37 35 d2 3c 33 a7 9e bd
       0.056803748 -0.03362694 0.02566014 -0.077467345

sequential_38/conv2d_149/Conv2D f4 [32, 3, 3, 64]
000000 8e c9 48 bd 66 48 34 3d ad b5 a7 bd 9b eb 50 bd
       -0.049020343 0.044014357 -0.08188949 -0.05100594
000010 63 ab d7 bc 53 f4 fa bb b3 c0 7b bd 60 35 ec 3c
       -0.02632684 -0.0076585202 -0.06146307 0.028834045
000020 14 be 98 3d c1 f9 36 3d b1 bd 07 3d 19 28 2c bd
       0.074581295 0.044671778 0.03313989 -0.042030428
000030 30 25 fe bc a9 71 7b bd fc 8f fb bc bf ba 99 3d
       -0.031023592 -0.06138769 -0.030708306 0.07506322
000040 20 81 56 bd a8 98 8b bc d0 39 3c 3d 2b cc 2f 3d
       -0.052369237 -0.017040566 0.04595357 0.04291932
000050 d8 21 b9 bc 90 81 5d bd da 06 c8 bc 0c 33 ba 3c
       -0.022599146 -0.05407864 -0.02441733 0.02272942
000060 20 25 a6 bc ba 2c 78 bd 41 13 fd bb 6d 69 a2 3c
       -0.020281374 -0.06058953 -0.0077232425 0.019825662
000070 c0 a4 1d bc 21 1d 4c 3c c4 a9 33 3d 2e 26 c3 3c
       -0.009621799 0.012458117 0.043863073 0.023821916
000080 e2 11 8b bd 1c 3c a5 3d 6f 8c 85 bd 45 42 eb bc
       -0.0679052 0.080681056 -0.06520926 -0.028718123
000090 eb ad 84 3c 5e e7 3f 3d 85 39 32 bd 30 a7 8f bd
       0.016196212 0.04685151 -0.043511886 -0.0701431
0000a0 a6 41 36 bd 80 12 76 bd 8c 9a 9f 3d 2c 67 df bc
       -0.0444962 -0.060076237 0.07793149 -0.027270876
0000b0 e2 49 8f bd f1 63 83 bc b5 56 06 3d 51 50 87 3c
       -0.06996514 -0.016038867 0.032797534 0.01651779
0000c0 64 ec 74 bd 5c de 84 3d b5 bd 78 bd 8c d3 88 3d
       -0.059795752 0.06487724 -0.060727794 0.06680974
0000d0 07 dc 73 bd 1d 8c 9b 3d 93 7d 8b 3d 4d d2 b3 bc
       -0.059536006 0.07595084 0.06811061 -0.021950865
0000e0 b6 57 99 ba 38 09 e5 3c d0 70 c0 bb b7 92 71 3d
       -0.0011699114 0.027958497 -0.0058728233 0.05897781
0000f0 b2 ca 38 bd 8a 64 ab bd 01 2b b7 bb 12 b6 48 3d
       -0.04511518 -0.08368786 -0.0055898433 0.04900176
000100 45 03 c2 3c 0d bf 23 3d 76 6a 4d 3d e6 c3 32 bd
       0.0236832 0.039977122 0.050150357 -0.043643855
000110 bc be 42 bb 3a b3 43 bd aa 79 5e 3d 88 eb ec ba
       -0.0029715737 -0.047778346 0.054315247 -0.0018075565
000120 7b 38 27 3d fe a1 3a 39 bc 6c 72 3c a2 cf a0 bc
       0.04082535 0.00017798689 0.014796432 -0.019630257
000130 d1 54 19 bd 8a 16 0b ba 9c 8f 27 3b 95 91 6a bd
       -0.037434403 -0.0005305788 0.0025567776 -0.057267744
000140 01 9b c4 bc 0e 42 10 bd c1 02 3b bc e5 70 97 3d
       -0.023999693 -0.035219245 -0.011414231 0.0739458
000150 ec 76 74 bc 8d fa 95 3d 03 0e 3a 3b 35 2c 17 3d
       -0.014920931 0.073231794 0.00283897 0.036907393
000160 40 e6 f0 bb 30 c8 0a 3d e0 e7 7a 3d 86 33 25 bb
       -0.0073516667 0.03388232 0.06125629 -0.0025207712
000170 49 7c 95 ba 17 63 84 bd 6f 0a 93 3c 40 97 9e 3d
       -0.0011404838 -0.064642124 0.017949311 0.077436924
000180 01 1d 29 bd 7a 19 35 bd a4 57 b9 bb 9f bc 23 bd
       -0.041287426 -0.04421375 -0.0056561995 -0.039974805
000190 c4 5e d7 3a a8 f9 79 bd 39 e8 86 3d 8f f5 89 bc
       0.0016431441 -0.061029106 0.06587262 -0.016840724
0001a0 61 e4 13 3d ce 16 28 bd 50 ce 9e 3d e4 db 8e 3d
       0.03610647 -0.041037373 0.07754195 0.069755346
0001b0 fe 97 69 3d 63 c1 93 3c 4b 09 6c bd 26 50 86 3d
       0.057029717 0.01803655 -0.05762605 0.06558256
0001c0 f3 24 72 3d 90 2e f7 b9 18 c0 01 bd 52 9a 6d bd
       0.05911727 -0.00047146203 -0.031677336 -0.0580085
0001d0 01 ed 4f 3d c6 d3 2f bd 5b af 21 3d 00 5c a2 3d
       0.050763134 -0.042926572 0.039473873 0.07927704
0001e0 49 ce 25 3c 2d dd 91 bd 81 eb 09 3d 7c 77 a8 bb
       0.010119983 -0.07122264 0.03367186 -0.005141197
0001f0 c6 55 b9 bb 95 98 a7 3d 6e 18 a7 bd 58 df 96 3c
       -0.005655977 0.081833996 -0.081589565 0.018417045
000200 8a e0 5b bd 53 6f bb bb 8b 7c a2 3c 45 a7 a8 bd
       -0.053680934 -0.005720058 0.019834777 -0.08235029
000210 ae a4 2b bd b9 d7 bc bc 96 00 83 bd 05 14 9d bd
       -0.041905098 -0.023052083 -0.06396596 -0.07669834
000220 6c 71 7d bd e9 98 10 bd eb 46 03 3d bb 28 00 3d
       -0.061875746 -0.035302076 0.032050055 0.031288844
000230 f0 bd b2 3c 57 48 ab 3c 7f bf 9e 3d c2 22 31 3b
       0.021819085 0.020908518 0.07751369 0.0027028774
000240 93 78 4f 3d bc 65 eb bc fb 23 8c bc 3c e8 21 3d
       0.050652098 -0.028735034 -0.017107 0.039528117
000250 36 de 06 3d b7 78 34 3d a0 45 f9 bb 4b b9 62 3d
       0.03292676 0.044060435 -0.007607177 0.05535249
000260 a2 9c b9 bc e7 27 7a 3d c5 98 8b bd a3 19 25 bd
       -0.022657696 0.06107321 -0.06816248 -0.040307652
000270 5f 91 b9 3b bf dc 88 3d 2b 02 9e 3d fc da b4 3c
       0.0056630815 0.06682729 0.07715257 0.022077076
000280 1d c1 3a 3d 85 85 83 3d 28 a4 8b bd d7 c1 9a 3d
       0.045594323 0.06421951 -0.0681842 0.07556503
000290 87 1e 27 3d ca ba 9c 3d 5a 98 ac 3c 4c 40 a3 bd
       0.040800598 0.07652815 0.02106874 -0.07971248
0002a0 81 5f 81 3c 9a 1e 86 3d 57 35 6a 3d 66 fc 5e 3b
       0.01579261 0.065488055 0.057179775 0.0034024953
0002b0 93 07 19 bd 6a 8f 5a bb 64 72 9c bd 19 a3 26 3d
       -0.03736074 -0.0033349642 -0.07639006 0.040682886
0002c0 13 1d 60 bc 13 6b f5 3c 53 ae 84 bc 3e d7 d2 3c
       -0.013678807 0.029958284 -0.016196406 0.025737401
0002d0 ad 4c 91 bd 9f 41 97 3c 9a ec a8 bc 93 ab 0f 3d
       -0.07094703 0.018463908 -0.020620633 0.035075735
0002e0 d7 62 8d 3c 91 7b 6a 3d 28 5c 29 bd 27 89 60 bd
       0.017259045 0.05724675 -0.041347653 -0.0548183
0002f0 f4 76 58 bc 64 d9 76 3d 9b 49 22 3c 5e 32 46 bd
       -0.013211954 0.060265914 0.009905244 -0.048387878
000300 50 07 76 bd a5 c2 a0 bd 95 b5 c1 bc c8 a1 93 3d
       -0.060065567 -0.078496255 -0.023646155 0.07208592
000310 b4 e6 45 3d 29 64 1b 3d c8 54 ec bc fd 27 9e bd
       0.04831572 0.037937317 -0.02884902 -0.07722471
000320 68 18 3d bd af fc 69 3d 93 d5 92 bd c1 ca c1 3c
       -0.046165854 0.057125743 -0.07169642 0.02365625
000330 1e 97 23 3d a6 5e 16 bd a3 bb 65 bc c7 2f 7e bd
       0.03993904 -0.036711358 -0.014021787 -0.062057283
000340 a9 25 3f bd 45 6d 7c bd a9 88 75 bd 3f 81 97 bd
       -0.046666775 -0.061627645 -0.059944782 -0.073976986
000350 70 95 6d 3d 4b f7 85 3c d5 61 7b 3d 95 80 07 3c
       0.058003843 0.01635327 0.061372597 0.008270402
000360 45 60 89 3d 4e 48 4f bd b2 b4 d4 bc 56 b8 a9 bd
       0.06707815 -0.050606064 -0.025965068 -0.082871124
000370 9a 32 57 3c 02 bb fe 3c a7 9c 9e 3a d8 2d 60 3d
       0.013134623 0.031095032 0.0012101129 0.05473122
000380 32 25 4c bd 26 f9 35 3d 54 61 2b 3d 1f 60 4e 3c
       -0.04984016 0.04442706 0.041840866 0.012596159
000390 00 66 93 bd e3 bc 95 3c a7 7c 67 3d 06 17 2b 3d
       -0.07197189 0.018278545 0.056515362 0.041770004
0003a0 21 84 65 3d 31 fd 9d bd e9 ed 7a bd 36 2c ac 3c
       0.05603421 -0.07714308 -0.061262045 0.021017175
0003b0 39 18 ce bc a3 d2 82 3c d0 0b 7c 3d 91 c8 6d bd
       -0.025158035 0.01596958 0.061534703 -0.058052603
0003c0 a6 b6 0d 3a 17 de 4a bc ac 52 f9 bc d2 f6 24 bd
       0.000540594 -0.012382052 -0.030434929 -0.04027445
0003d0 90 ca 72 bd 09 94 4a 3d da 30 0d bd d5 ce 91 bc
       -0.05927521 0.049457584 -0.034470417 -0.01779882
0003e0 92 87 a5 bd f8 9c 87 bd 78 52 02 3d 42 20 02 3d
       -0.080824986 -0.06621736 0.03181693 0.031769045
0003f0 88 f9 0d 3c 84 35 26 bc 32 bf 4f 3d 6c ce eb 3b
       0.00866545 -0.010144595 0.050719447 0.0071962383
